…
I1123 12:33:14.454980 28480 net.cpp:51] Initializing net from parameters: 
name: "GoogleNet"
state {
  phase: TRAIN
  level: 0
  stage: ""
}
layer {
  name: "data"
  type: "Data"
  top: "data"
  top: "label"
  include {
    phase: TRAIN
  }
  transform_param {
    mirror: true
    crop_size: 224
    mean_file: "/home/nssg/unclezhannssg/Downloads/anzhuangcaffe/caffe-master/examples/myfilen/res/mean.binaryproto"
  }
  data_param {
    source: "/home/nssg/unclezhannssg/Downloads/anzhuangcaffe/caffe-master/examples/myfilen/res/img_train_lmdb"
    batch_size: 3
    backend: LMDB
  }
}
layer {
  name: "conv1/7x7_s2"
  type: "Convolution"
  bottom: "data"
  top: "conv1/7x7_s2"
  param {
    lr_mult: 1
    decay_mult: 1
  }
  param {
    lr_mult: 2
    decay_mult: 0
  }
  convolution_param {
    num_output: 64
    pad: 3
    kernel_size: 7
    stride: 2
    weight_filler {
      type: "xavier"
    }
    bias_filler {
      type: "constant"
      value: 0.2
    }
  }
}
layer {
  name: "conv1/relu_7x7"
  type: "ReLU"
  bottom: "conv1/7x7_s2"
  top: "conv1/7x7_s2"
}
layer {
  name: "pool1/3x3_s2"
  type: "Pooling"
  bottom: "conv1/7x7_s2"
  top: "pool1/3x3_s2"
  pooling_param {
    pool: MAX
    kernel_size: 3
    stride: 2
  }
}
layer {
  name: "pool1/norm1"
  type: "LRN"
  bottom: "pool1/3x3_s2"
  top: "pool1/norm1"
  lrn_param {
    local_size: 5
    alpha: 0.0001
    beta: 0.75
  }
}
layer {
  name: "conv2/3x3_reduce"
  type: "Convolution"
  bottom: "pool1/norm1"
  top: "conv2/3x3_reduce"
  param {
    lr_mult: 1
    decay_mult: 1
  }
  param {
    lr_mult: 2
    decay_mult: 0
  }
  convolution_param {
    num_output: 64
    kernel_size: 1
    weight_filler {
      type: "xavier"
    }
    bias_filler {
      type: "constant"
      value: 0.2
    }
  }
}
layer {
  name: "conv2/relu_3x3_reduce"
  type: "ReLU"
  bottom: "conv2/3x3_reduce"
  top: "conv2/3x3_reduce"
}
layer {
  name: "conv2/3x3"
  type: "Convolution"
  bottom: "conv2/3x3_reduce"
  top: "conv2/3x3"
  param {
    lr_mult: 1
    decay_mult: 1
  }
  param {
    lr_mult: 2
    decay_mult: 0
  }
  convolution_param {
    num_output: 192
    pad: 1
    kernel_size: 3
    weight_filler {
      type: "xavier"
    }
    bias_filler {
      type: "constant"
      value: 0.2
    }
  }
}
layer {
  name: "conv2/relu_3x3"
  type: "ReLU"
  bottom: "conv2/3x3"
  top: "conv2/3x3"
}
layer {
  name: "conv2/norm2"
  type: "LRN"
  bottom: "conv2/3x3"
  top: "conv2/norm2"
  lrn_param {
    local_size: 5
    alpha: 0.0001
    beta: 0.75
  }
}
layer {
  name: "pool2/3x3_s2"
  type: "Pooling"
  bottom: "conv2/norm2"
  top: "pool2/3x3_s2"
  pooling_param {
    pool: MAX
    kernel_size: 3
    stride: 2
  }
}
layer {
  name: "inception_3a/1x1"
  type: "Convolution"
  bottom: "pool2/3x3_s2"
  top: "inception_3a/1x1"
  param {
    lr_mult: 1
    decay_mult: 1
  }
  param {
    lr_mult: 2
    decay_mult: 0
  }
  convolution_param {
    num_output: 64
    kernel_size: 1
    weight_filler {
      type: "xavier"
    }
    bias_filler {
      type: "constant"
      value: 0.2
    }
  }
}
layer {
  name: "inception_3a/relu_1x1"
  type: "ReLU"
  bottom: "inception_3a/1x1"
  top: "inception_3a/1x1"
}
layer {
  name: "inception_3a/3x3_reduce"
  type: "Convolution"
  bottom: "pool2/3x3_s2"
  top: "inception_3a/3x3_reduce"
  param {
    lr_mult: 1
    decay_mult: 1
  }
  param {
    lr_mult: 2
    decay_mult: 0
  }
  convolution_param {
    num_output: 96
    kernel_size: 1
    weight_filler {
      type: "xavier"
    }
    bias_filler {
      type: "constant"
      value: 0.2
    }
  }
}
layer {
  name: "inception_3a/relu_3x3_reduce"
  type: "ReLU"
  bottom: "inception_3a/3x3_reduce"
  top: "inception_3a/3x3_reduce"
}
layer {
  name: "inception_3a/3x3"
  type: "Convolution"
  bottom: "inception_3a/3x3_reduce"
  top: "inception_3a/3x3"
  param {
    lr_mult: 1
    decay_mult: 1
  }
  param {
    lr_mult: 2
    decay_mult: 0
  }
  convolution_param {
    num_output: 128
    pad: 1
    kernel_size: 3
    weight_filler {
      type: "xavier"
    }
    bias_filler {
      type: "constant"
      value: 0.2
    }
  }
}
layer {
  name: "inception_3a/relu_3x3"
  type: "ReLU"
  bottom: "inception_3a/3x3"
  top: "inception_3a/3x3"
}
layer {
  name: "inception_3a/5x5_reduce"
  type: "Convolution"
  bottom: "pool2/3x3_s2"
  top: "inception_3a/5x5_reduce"
  param {
    lr_mult: 1
    decay_mult: 1
  }
  param {
    lr_mult: 2
    decay_mult: 0
  }
  convolution_param {
    num_output: 16
    kernel_size: 1
    weight_filler {
      type: "xavier"
    }
    bias_filler {
      type: "constant"
      value: 0.2
    }
  }
}
layer {
  name: "inception_3a/relu_5x5_reduce"
  type: "ReLU"
  bottom: "inception_3a/5x5_reduce"
  top: "inception_3a/5x5_reduce"
}
layer {
  name: "inception_3a/5x5"
  type: "Convolution"
  bottom: "inception_3a/5x5_reduce"
  top: "inception_3a/5x5"
  param {
    lr_mult: 1
    decay_mult: 1
  }
  param {
    lr_mult: 2
    decay_mult: 0
  }
  convolution_param {
    num_output: 32
    pad: 2
    kernel_size: 5
    weight_filler {
      type: "xavier"
    }
    bias_filler {
      type: "constant"
      value: 0.2
    }
  }
}
layer {
  name: "inception_3a/relu_5x5"
  type: "ReLU"
  bottom: "inception_3a/5x5"
  top: "inception_3a/5x5"
}
layer {
  name: "inception_3a/pool"
  type: "Pooling"
  bottom: "pool2/3x3_s2"
  top: "inception_3a/pool"
  pooling_param {
    pool: MAX
    kernel_size: 3
    stride: 1
    pad: 1
  }
}
layer {
  name: "inception_3a/pool_proj"
  type: "Convolution"
  bottom: "inception_3a/pool"
  top: "inception_3a/pool_proj"
  param {
    lr_mult: 1
    decay_mult: 1
  }
  param {
    lr_mult: 2
    decay_mult: 0
  }
  convolution_param {
    num_output: 32
    kernel_size: 1
    weight_filler {
      type: "xavier"
    }
    bias_filler {
      type: "constant"
      value: 0.2
    }
  }
}
layer {
  name: "inception_3a/relu_pool_proj"
  type: "ReLU"
  bottom: "inception_3a/pool_proj"
  top: "inception_3a/pool_proj"
}
layer {
  name: "inception_3a/output"
  type: "Concat"
  bottom: "inception_3a/1x1"
  bottom: "inception_3a/3x3"
  bottom: "inception_3a/5x5"
  bottom: "inception_3a/pool_proj"
  top: "inception_3a/output"
}
layer {
  name: "inception_3b/1x1"
  type: "Convolution"
  bottom: "inception_3a/output"
  top: "inception_3b/1x1"
  param {
    lr_mult: 1
    decay_mult: 1
  }
  param {
    lr_mult: 2
    decay_mult: 0
  }
  convolution_param {
    num_output: 128
    kernel_size: 1
    weight_filler {
      type: "xavier"
    }
    bias_filler {
      type: "constant"
      value: 0.2
    }
  }
}
layer {
  name: "inception_3b/relu_1x1"
  type: "ReLU"
  bottom: "inception_3b/1x1"
  top: "inception_3b/1x1"
}
layer {
  name: "inception_3b/3x3_reduce"
  type: "Convolution"
  bottom: "inception_3a/output"
  top: "inception_3b/3x3_reduce"
  param {
    lr_mult: 1
    decay_mult: 1
  }
  param {
    lr_mult: 2
    decay_mult: 0
  }
  convolution_param {
    num_output: 128
    kernel_size: 1
    weight_filler {
      type: "xavier"
    }
    bias_filler {
      type: "constant"
      value: 0.2
    }
  }
}
layer {
  name: "inception_3b/relu_3x3_reduce"
  type: "ReLU"
  bottom: "inception_3b/3x3_reduce"
  top: "inception_3b/3x3_reduce"
}
layer {
  name: "inception_3b/3x3"
  type: "Convolution"
  bottom: "inception_3b/3x3_reduce"
  top: "inception_3b/3x3"
  param {
    lr_mult: 1
    decay_mult: 1
  }
  param {
    lr_mult: 2
    decay_mult: 0
  }
  convolution_param {
    num_output: 192
    pad: 1
    kernel_size: 3
    weight_filler {
      type: "xavier"
    }
    bias_filler {
      type: "constant"
      value: 0.2
    }
  }
}
layer {
  name: "inception_3b/relu_3x3"
  type: "ReLU"
  bottom: "inception_3b/3x3"
  top: "inception_3b/3x3"
}
layer {
  name: "inception_3b/5x5_reduce"
  type: "Convolution"
  bottom: "inception_3a/output"
  top: "inception_3b/5x5_reduce"
  param {
    lr_mult: 1
    decay_mult: 1
  }
  param {
    lr_mult: 2
    decay_mult: 0
  }
  convolution_param {
    num_output: 32
    kernel_size: 1
    weight_filler {
      type: "xavier"
    }
    bias_filler {
      type: "constant"
      value: 0.2
    }
  }
}
layer {
  name: "inception_3b/relu_5x5_reduce"
  type: "ReLU"
  bottom: "inception_3b/5x5_reduce"
  top: "inception_3b/5x5_reduce"
}
layer {
  name: "inception_3b/5x5"
  type: "Convolution"
  bottom: "inception_3b/5x5_reduce"
  top: "inception_3b/5x5"
  param {
    lr_mult: 1
    decay_mult: 1
  }
  param {
    lr_mult: 2
    decay_mult: 0
  }
  convolution_param {
    num_output: 96
    pad: 2
    kernel_size: 5
    weight_filler {
      type: "xavier"
    }
    bias_filler {
      type: "constant"
      value: 0.2
    }
  }
}
layer {
  name: "inception_3b/relu_5x5"
  type: "ReLU"
  bottom: "inception_3b/5x5"
  top: "inception_3b/5x5"
}
layer {
  name: "inception_3b/pool"
  type: "Pooling"
  bottom: "inception_3a/output"
  top: "inception_3b/pool"
  pooling_param {
    pool: MAX
    kernel_size: 3
    stride: 1
    pad: 1
  }
}
layer {
  name: "inception_3b/pool_proj"
  type: "Convolution"
  bottom: "inception_3b/pool"
  top: "inception_3b/pool_proj"
  param {
    lr_mult: 1
    decay_mult: 1
  }
  param {
    lr_mult: 2
    decay_mult: 0
  }
  convolution_param {
    num_output: 64
    kernel_size: 1
    weight_filler {
      type: "xavier"
    }
    bias_filler {
      type: "constant"
      value: 0.2
    }
  }
}
layer {
  name: "inception_3b/relu_pool_proj"
  type: "ReLU"
  bottom: "inception_3b/pool_proj"
  top: "inception_3b/pool_proj"
}
layer {
  name: "inception_3b/output"
  type: "Concat"
  bottom: "inception_3b/1x1"
  bottom: "inception_3b/3x3"
  bottom: "inception_3b/5x5"
  bottom: "inception_3b/pool_proj"
  top: "inception_3b/output"
}
layer {
  name: "pool3/3x3_s2"
  type: "Pooling"
  bottom: "inception_3b/output"
  top: "pool3/3x3_s2"
  pooling_param {
    pool: MAX
    kernel_size: 3
    stride: 2
  }
}
layer {
  name: "inception_4a/1x1"
  type: "Convolution"
  bottom: "pool3/3x3_s2"
  top: "inception_4a/1x1"
  param {
    lr_mult: 1
    decay_mult: 1
  }
  param {
    lr_mult: 2
    decay_mult: 0
  }
  convolution_param {
    num_output: 192
    kernel_size: 1
    weight_filler {
      type: "xavier"
    }
    bias_filler {
      type: "constant"
      value: 0.2
    }
  }
}
layer {
  name: "inception_4a/relu_1x1"
  type: "ReLU"
  bottom: "inception_4a/1x1"
  top: "inception_4a/1x1"
}
layer {
  name: "inception_4a/3x3_reduce"
  type: "Convolution"
  bottom: "pool3/3x3_s2"
  top: "inception_4a/3x3_reduce"
  param {
    lr_mult: 1
    decay_mult: 1
  }
  param {
    lr_mult: 2
    decay_mult: 0
  }
  convolution_param {
    num_output: 96
    kernel_size: 1
    weight_filler {
      type: "xavier"
    }
    bias_filler {
      type: "constant"
      value: 0.2
    }
  }
}
layer {
  name: "inception_4a/relu_3x3_reduce"
  type: "ReLU"
  bottom: "inception_4a/3x3_reduce"
  top: "inception_4a/3x3_reduce"
}
layer {
  name: "inception_4a/3x3"
  type: "Convolution"
  bottom: "inception_4a/3x3_reduce"
  top: "inception_4a/3x3"
  param {
    lr_mult: 1
    decay_mult: 1
  }
  param {
    lr_mult: 2
    decay_mult: 0
  }
  convolution_param {
    num_output: 208
    pad: 1
    kernel_size: 3
    weight_filler {
      type: "xavier"
    }
    bias_filler {
      type: "constant"
      value: 0.2
    }
  }
}
layer {
  name: "inception_4a/relu_3x3"
  type: "ReLU"
  bottom: "inception_4a/3x3"
  top: "inception_4a/3x3"
}
layer {
  name: "inception_4a/5x5_reduce"
  type: "Convolution"
  bottom: "pool3/3x3_s2"
  top: "inception_4a/5x5_reduce"
  param {
    lr_mult: 1
    decay_mult: 1
  }
  param {
    lr_mult: 2
    decay_mult: 0
  }
  convolution_param {
    num_output: 16
    kernel_size: 1
    weight_filler {
      type: "xavier"
    }
    bias_filler {
      type: "constant"
      value: 0.2
    }
  }
}
layer {
  name: "inception_4a/relu_5x5_reduce"
  type: "ReLU"
  bottom: "inception_4a/5x5_reduce"
  top: "inception_4a/5x5_reduce"
}
layer {
  name: "inception_4a/5x5"
  type: "Convolution"
  bottom: "inception_4a/5x5_reduce"
  top: "inception_4a/5x5"
  param {
    lr_mult: 1
    decay_mult: 1
  }
  param {
    lr_mult: 2
    decay_mult: 0
  }
  convolution_param {
    num_output: 48
    pad: 2
    kernel_size: 5
    weight_filler {
      type: "xavier"
    }
    bias_filler {
      type: "constant"
      value: 0.2
    }
  }
}
layer {
  name: "inception_4a/relu_5x5"
  type: "ReLU"
  bottom: "inception_4a/5x5"
  top: "inception_4a/5x5"
}
layer {
  name: "inception_4a/pool"
  type: "Pooling"
  bottom: "pool3/3x3_s2"
  top: "inception_4a/pool"
  pooling_param {
    pool: MAX
    kernel_size: 3
    stride: 1
    pad: 1
  }
}
layer {
  name: "inception_4a/pool_proj"
  type: "Convolution"
  bottom: "inception_4a/pool"
  top: "inception_4a/pool_proj"
  param {
    lr_mult: 1
    decay_mult: 1
  }
  param {
    lr_mult: 2
    decay_mult: 0
  }
  convolution_param {
    num_output: 64
    kernel_size: 1
    weight_filler {
      type: "xavier"
    }
    bias_filler {
      type: "constant"
      value: 0.2
    }
  }
}
layer {
  name: "inception_4a/relu_pool_proj"
  type: "ReLU"
  bottom: "inception_4a/pool_proj"
  top: "inception_4a/pool_proj"
}
layer {
  name: "inception_4a/output"
  type: "Concat"
  bottom: "inception_4a/1x1"
  bottom: "inception_4a/3x3"
  bottom: "inception_4a/5x5"
  bottom: "inception_4a/pool_proj"
  top: "inception_4a/output"
}
layer {
  name: "loss1/ave_pool"
  type: "Pooling"
  bottom: "inception_4a/output"
  top: "loss1/ave_pool"
  pooling_param {
    pool: AVE
    kernel_size: 5
    stride: 3
  }
}
layer {
  name: "loss1/conv"
  type: "Convolution"
  bottom: "loss1/ave_pool"
  top: "loss1/conv"
  param {
    lr_mult: 1
    decay_mult: 1
  }
  param {
    lr_mult: 2
    decay_mult: 0
  }
  convolution_param {
    num_output: 128
    kernel_size: 1
    weight_filler {
      type: "xavier"
    }
    bias_filler {
      type: "constant"
      value: 0.2
    }
  }
}
layer {
  name: "loss1/relu_conv"
  type: "ReLU"
  bottom: "loss1/conv"
  top: "loss1/conv"
}
layer {
  name: "loss1/fc"
  type: "InnerProduct"
  bottom: "loss1/conv"
  top: "loss1/fc"
  param {
    lr_mult: 1
    decay_mult: 1
  }
  param {
    lr_mult: 2
    decay_mult: 0
  }
  inner_product_param {
    num_output: 1024
    weight_filler {
      type: "xavier"
    }
    bias_filler {
      type: "constant"
      value: 0.2
    }
  }
}
layer {
  name: "loss1/relu_fc"
  type: "ReLU"
  bottom: "loss1/fc"
  top: "loss1/fc"
}
layer {
  name: "loss1/drop_fc"
  type: "Dropout"
  bottom: "loss1/fc"
  top: "loss1/fc"
  dropout_param {
    dropout_ratio: 0.7
  }
}
layer {
  name: "loss1/classifier-gai"
  type: "InnerProduct"
  bottom: "loss1/fc"
  top: "loss1/classifier-gai"
  param {
    lr_mult: 20
    decay_mult: 1
  }
  param {
    lr_mult: 30
    decay_mult: 0
  }
  inner_product_param {
    num_output: 16
    weight_filler {
      type: "xavier"
    }
    bias_filler {
      type: "constant"
      value: 0
    }
  }
}
layer {
  name: "loss1/loss"
  type: "SoftmaxWithLoss"
  bottom: "loss1/classifier-gai"
  bottom: "label"
  top: "lt1"
  loss_weight: 0.3
}
layer {
  name: "inception_4b/1x1"
  type: "Convolution"
  bottom: "inception_4a/output"
  top: "inception_4b/1x1"
  param {
    lr_mult: 1
    decay_mult: 1
  }
  param {
    lr_mult: 2
    decay_mult: 0
  }
  convolution_param {
    num_output: 160
    kernel_size: 1
    weight_filler {
      type: "xavier"
    }
    bias_filler {
      type: "constant"
      value: 0.2
    }
  }
}
layer {
  name: "inception_4b/relu_1x1"
  type: "ReLU"
  bottom: "inception_4b/1x1"
  top: "inception_4b/1x1"
}
layer {
  name: "inception_4b/3x3_reduce"
  type: "Convolution"
  bottom: "inception_4a/output"
  top: "inception_4b/3x3_reduce"
  param {
    lr_mult: 1
    decay_mult: 1
  }
  param {
    lr_mult: 2
    decay_mult: 0
  }
  convolution_param {
    num_output: 112
    kernel_size: 1
    weight_filler {
      type: "xavier"
    }
    bias_filler {
      type: "constant"
      value: 0.2
    }
  }
}
layer {
  name: "inception_4b/relu_3x3_reduce"
  type: "ReLU"
  bottom: "inception_4b/3x3_reduce"
  top: "inception_4b/3x3_reduce"
}
layer {
  name: "inception_4b/3x3"
  type: "Convolution"
  bottom: "inception_4b/3x3_reduce"
  top: "inception_4b/3x3"
  param {
    lr_mult: 1
    decay_mult: 1
  }
  param {
    lr_mult: 2
    decay_mult: 0
  }
  convolution_param {
    num_output: 224
    pad: 1
    kernel_size: 3
    weight_filler {
      type: "xavier"
    }
    bias_filler {
      type: "constant"
      value: 0.2
    }
  }
}
layer {
  name: "inception_4b/relu_3x3"
  type: "ReLU"
  bottom: "inception_4b/3x3"
  top: "inception_4b/3x3"
}
layer {
  name: "inception_4b/5x5_reduce"
  type: "Convolution"
  bottom: "inception_4a/output"
  top: "inception_4b/5x5_reduce"
  param {
    lr_mult: 1
    decay_mult: 1
  }
  param {
    lr_mult: 2
    decay_mult: 0
  }
  convolution_param {
    num_output: 24
    kernel_size: 1
    weight_filler {
      type: "xavier"
    }
    bias_filler {
      type: "constant"
      value: 0.2
    }
  }
}
layer {
  name: "inception_4b/relu_5x5_reduce"
  type: "ReLU"
  bottom: "inception_4b/5x5_reduce"
  top: "inception_4b/5x5_reduce"
}
layer {
  name: "inception_4b/5x5"
  type: "Convolution"
  bottom: "inception_4b/5x5_reduce"
  top: "inception_4b/5x5"
  param {
    lr_mult: 1
    decay_mult: 1
  }
  param {
    lr_mult: 2
    decay_mult: 0
  }
  convolution_param {
    num_output: 64
    pad: 2
    kernel_size: 5
    weight_filler {
      type: "xavier"
    }
    bias_filler {
      type: "constant"
      value: 0.2
    }
  }
}
layer {
  name: "inception_4b/relu_5x5"
  type: "ReLU"
  bottom: "inception_4b/5x5"
  top: "inception_4b/5x5"
}
layer {
  name: "inception_4b/pool"
  type: "Pooling"
  bottom: "inception_4a/output"
  top: "inception_4b/pool"
  pooling_param {
    pool: MAX
    kernel_size: 3
    stride: 1
    pad: 1
  }
}
layer {
  name: "inception_4b/pool_proj"
  type: "Convolution"
  bottom: "inception_4b/pool"
  top: "inception_4b/pool_proj"
  param {
    lr_mult: 1
    decay_mult: 1
  }
  param {
    lr_mult: 2
    decay_mult: 0
  }
  convolution_param {
    num_output: 64
    kernel_size: 1
    weight_filler {
      type: "xavier"
    }
    bias_filler {
      type: "constant"
      value: 0.2
    }
  }
}
layer {
  name: "inception_4b/relu_pool_proj"
  type: "ReLU"
  bottom: "inception_4b/pool_proj"
  top: "inception_4b/pool_proj"
}
layer {
  name: "inception_4b/output"
  type: "Concat"
  bottom: "inception_4b/1x1"
  bottom: "inception_4b/3x3"
  bottom: "inception_4b/5x5"
  bottom: "inception_4b/pool_proj"
  top: "inception_4b/output"
}
layer {
  name: "inception_4c/1x1"
  type: "Convolution"
  bottom: "inception_4b/output"
  top: "inception_4c/1x1"
  param {
    lr_mult: 1
    decay_mult: 1
  }
  param {
    lr_mult: 2
    decay_mult: 0
  }
  convolution_param {
    num_output: 128
    kernel_size: 1
    weight_filler {
      type: "xavier"
    }
    bias_filler {
      type: "constant"
      value: 0.2
    }
  }
}
layer {
  name: "inception_4c/relu_1x1"
  type: "ReLU"
  bottom: "inception_4c/1x1"
  top: "inception_4c/1x1"
}
layer {
  name: "inception_4c/3x3_reduce"
  type: "Convolution"
  bottom: "inception_4b/output"
  top: "inception_4c/3x3_reduce"
  param {
    lr_mult: 1
    decay_mult: 1
  }
  param {
    lr_mult: 2
    decay_mult: 0
  }
  convolution_param {
    num_output: 128
    kernel_size: 1
    weight_filler {
      type: "xavier"
    }
    bias_filler {
      type: "constant"
      value: 0.2
    }
  }
}
layer {
  name: "inception_4c/relu_3x3_reduce"
  type: "ReLU"
  bottom: "inception_4c/3x3_reduce"
  top: "inception_4c/3x3_reduce"
}
layer {
  name: "inception_4c/3x3"
  type: "Convolution"
  bottom: "inception_4c/3x3_reduce"
  top: "inception_4c/3x3"
  param {
    lr_mult: 1
    decay_mult: 1
  }
  param {
    lr_mult: 2
    decay_mult: 0
  }
  convolution_param {
    num_output: 256
    pad: 1
    kernel_size: 3
    weight_filler {
      type: "xavier"
    }
    bias_filler {
      type: "constant"
      value: 0.2
    }
  }
}
layer {
  name: "inception_4c/relu_3x3"
  type: "ReLU"
  bottom: "inception_4c/3x3"
  top: "inception_4c/3x3"
}
layer {
  name: "inception_4c/5x5_reduce"
  type: "Convolution"
  bottom: "inception_4b/output"
  top: "inception_4c/5x5_reduce"
  param {
    lr_mult: 1
    decay_mult: 1
  }
  param {
    lr_mult: 2
    decay_mult: 0
  }
  convolution_param {
    num_output: 24
    kernel_size: 1
    weight_filler {
      type: "xavier"
    }
    bias_filler {
      type: "constant"
      value: 0.2
    }
  }
}
layer {
  name: "inception_4c/relu_5x5_reduce"
  type: "ReLU"
  bottom: "inception_4c/5x5_reduce"
  top: "inception_4c/5x5_reduce"
}
layer {
  name: "inception_4c/5x5"
  type: "Convolution"
  bottom: "inception_4c/5x5_reduce"
  top: "inception_4c/5x5"
  param {
    lr_mult: 1
    decay_mult: 1
  }
  param {
    lr_mult: 2
    decay_mult: 0
  }
  convolution_param {
    num_output: 64
    pad: 2
    kernel_size: 5
    weight_filler {
      type: "xavier"
    }
    bias_filler {
      type: "constant"
      value: 0.2
    }
  }
}
layer {
  name: "inception_4c/relu_5x5"
  type: "ReLU"
  bottom: "inception_4c/5x5"
  top: "inception_4c/5x5"
}
layer {
  name: "inception_4c/pool"
  type: "Pooling"
  bottom: "inception_4b/output"
  top: "inception_4c/pool"
  pooling_param {
    pool: MAX
    kernel_size: 3
    stride: 1
    pad: 1
  }
}
layer {
  name: "inception_4c/pool_proj"
  type: "Convolution"
  bottom: "inception_4c/pool"
  top: "inception_4c/pool_proj"
  param {
    lr_mult: 1
    decay_mult: 1
  }
  param {
    lr_mult: 2
    decay_mult: 0
  }
  convolution_param {
    num_output: 64
    kernel_size: 1
    weight_filler {
      type: "xavier"
    }
    bias_filler {
      type: "constant"
      value: 0.2
    }
  }
}
layer {
  name: "inception_4c/relu_pool_proj"
  type: "ReLU"
  bottom: "inception_4c/pool_proj"
  top: "inception_4c/pool_proj"
}
layer {
  name: "inception_4c/output"
  type: "Concat"
  bottom: "inception_4c/1x1"
  bottom: "inception_4c/3x3"
  bottom: "inception_4c/5x5"
  bottom: "inception_4c/pool_proj"
  top: "inception_4c/output"
}
layer {
  name: "inception_4d/1x1"
  type: "Convolution"
  bottom: "inception_4c/output"
  top: "inception_4d/1x1"
  param {
    lr_mult: 1
    decay_mult: 1
  }
  param {
    lr_mult: 2
    decay_mult: 0
  }
  convolution_param {
    num_output: 112
    kernel_size: 1
    weight_filler {
      type: "xavier"
    }
    bias_filler {
      type: "constant"
      value: 0.2
    }
  }
}
layer {
  name: "inception_4d/relu_1x1"
  type: "ReLU"
  bottom: "inception_4d/1x1"
  top: "inception_4d/1x1"
}
layer {
  name: "inception_4d/3x3_reduce"
  type: "Convolution"
  bottom: "inception_4c/output"
  top: "inception_4d/3x3_reduce"
  param {
    lr_mult: 1
    decay_mult: 1
  }
  param {
    lr_mult: 2
    decay_mult: 0
  }
  convolution_param {
    num_output: 144
    kernel_size: 1
    weight_filler {
      type: "xavier"
    }
    bias_filler {
      type: "constant"
      value: 0.2
    }
  }
}
layer {
  name: "inception_4d/relu_3x3_reduce"
  type: "ReLU"
  bottom: "inception_4d/3x3_reduce"
  top: "inception_4d/3x3_reduce"
}
layer {
  name: "inception_4d/3x3"
  type: "Convolution"
  bottom: "inception_4d/3x3_reduce"
  top: "inception_4d/3x3"
  param {
    lr_mult: 1
    decay_mult: 1
  }
  param {
    lr_mult: 2
    decay_mult: 0
  }
  convolution_param {
    num_output: 288
    pad: 1
    kernel_size: 3
    weight_filler {
      type: "xavier"
    }
    bias_filler {
      type: "constant"
      value: 0.2
    }
  }
}
layer {
  name: "inception_4d/relu_3x3"
  type: "ReLU"
  bottom: "inception_4d/3x3"
  top: "inception_4d/3x3"
}
layer {
  name: "inception_4d/5x5_reduce"
  type: "Convolution"
  bottom: "inception_4c/output"
  top: "inception_4d/5x5_reduce"
  param {
    lr_mult: 1
    decay_mult: 1
  }
  param {
    lr_mult: 2
    decay_mult: 0
  }
  convolution_param {
    num_output: 32
    kernel_size: 1
    weight_filler {
      type: "xavier"
    }
    bias_filler {
      type: "constant"
      value: 0.2
    }
  }
}
layer {
  name: "inception_4d/relu_5x5_reduce"
  type: "ReLU"
  bottom: "inception_4d/5x5_reduce"
  top: "inception_4d/5x5_reduce"
}
layer {
  name: "inception_4d/5x5"
  type: "Convolution"
  bottom: "inception_4d/5x5_reduce"
  top: "inception_4d/5x5"
  param {
    lr_mult: 1
    decay_mult: 1
  }
  param {
    lr_mult: 2
    decay_mult: 0
  }
  convolution_param {
    num_output: 64
    pad: 2
    kernel_size: 5
    weight_filler {
      type: "xavier"
    }
    bias_filler {
      type: "constant"
      value: 0.2
    }
  }
}
layer {
  name: "inception_4d/relu_5x5"
  type: "ReLU"
  bottom: "inception_4d/5x5"
  top: "inception_4d/5x5"
}
layer {
  name: "inception_4d/pool"
  type: "Pooling"
  bottom: "inception_4c/output"
  top: "inception_4d/pool"
  pooling_param {
    pool: MAX
    kernel_size: 3
    stride: 1
    pad: 1
  }
}
layer {
  name: "inception_4d/pool_proj"
  type: "Convolution"
  bottom: "inception_4d/pool"
  top: "inception_4d/pool_proj"
  param {
    lr_mult: 1
    decay_mult: 1
  }
  param {
    lr_mult: 2
    decay_mult: 0
  }
  convolution_param {
    num_output: 64
    kernel_size: 1
    weight_filler {
      type: "xavier"
    }
    bias_filler {
      type: "constant"
      value: 0.2
    }
  }
}
layer {
  name: "inception_4d/relu_pool_proj"
  type: "ReLU"
  bottom: "inception_4d/pool_proj"
  top: "inception_4d/pool_proj"
}
layer {
  name: "inception_4d/output"
  type: "Concat"
  bottom: "inception_4d/1x1"
  bottom: "inception_4d/3x3"
  bottom: "inception_4d/5x5"
  bottom: "inception_4d/pool_proj"
  top: "inception_4d/output"
}
layer {
  name: "loss2/ave_pool"
  type: "Pooling"
  bottom: "inception_4d/output"
  top: "loss2/ave_pool"
  pooling_param {
    pool: AVE
    kernel_size: 5
    stride: 3
  }
}
layer {
  name: "loss2/conv"
  type: "Convolution"
  bottom: "loss2/ave_pool"
  top: "loss2/conv"
  param {
    lr_mult: 1
    decay_mult: 1
  }
  param {
    lr_mult: 2
    decay_mult: 0
  }
  convolution_param {
    num_output: 128
    kernel_size: 1
    weight_filler {
      type: "xavier"
    }
    bias_filler {
      type: "constant"
      value: 0.2
    }
  }
}
layer {
  name: "loss2/relu_conv"
  type: "ReLU"
  bottom: "loss2/conv"
  top: "loss2/conv"
}
layer {
  name: "loss2/fc"
  type: "InnerProduct"
  bottom: "loss2/conv"
  top: "loss2/fc"
  param {
    lr_mult: 1
    decay_mult: 1
  }
  param {
    lr_mult: 2
    decay_mult: 0
  }
  inner_product_param {
    num_output: 1024
    weight_filler {
      type: "xavier"
    }
    bias_filler {
      type: "constant"
      value: 0.2
    }
  }
}
layer {
  name: "loss2/relu_fc"
  type: "ReLU"
  bottom: "loss2/fc"
  top: "loss2/fc"
}
layer {
  name: "loss2/drop_fc"
  type: "Dropout"
  bottom: "loss2/fc"
  top: "loss2/fc"
  dropout_param {
    dropout_ratio: 0.7
  }
}
layer {
  name: "loss2/classifier-gai"
  type: "InnerProduct"
  bottom: "loss2/fc"
  top: "loss2/classifier-gai"
  param {
    lr_mult: 20
    decay_mult: 1
  }
  param {
    lr_mult: 30
    decay_mult: 0
  }
  inner_product_param {
    num_output: 16
    weight_filler {
      type: "xavier"
    }
    bias_filler {
      type: "constant"
      value: 0
    }
  }
}
layer {
  name: "lt2"
  type: "SoftmaxWithLoss"
  bottom: "loss2/classifier-gai"
  bottom: "label"
  top: "lt2"
  loss_weight: 0.3
}
layer {
  name: "inception_4e/1x1"
  type: "Convolution"
  bottom: "inception_4d/output"
  top: "inception_4e/1x1"
  param {
    lr_mult: 1
    decay_mult: 1
  }
  param {
    lr_mult: 2
    decay_mult: 0
  }
  convolution_param {
    num_output: 256
    kernel_size: 1
    weight_filler {
      type: "xavier"
    }
    bias_filler {
      type: "constant"
      value: 0.2
    }
  }
}
layer {
  name: "inception_4e/relu_1x1"
  type: "ReLU"
  bottom: "inception_4e/1x1"
  top: "inception_4e/1x1"
}
layer {
  name: "inception_4e/3x3_reduce"
  type: "Convolution"
  bottom: "inception_4d/output"
  top: "inception_4e/3x3_reduce"
  param {
    lr_mult: 1
    decay_mult: 1
  }
  param {
    lr_mult: 2
    decay_mult: 0
  }
  convolution_param {
    num_output: 160
    kernel_size: 1
    weight_filler {
      type: "xavier"
    }
    bias_filler {
      type: "constant"
      value: 0.2
    }
  }
}
layer {
  name: "inception_4e/relu_3x3_reduce"
  type: "ReLU"
  bottom: "inception_4e/3x3_reduce"
  top: "inception_4e/3x3_reduce"
}
layer {
  name: "inception_4e/3x3"
  type: "Convolution"
  bottom: "inception_4e/3x3_reduce"
  top: "inception_4e/3x3"
  param {
    lr_mult: 1
    decay_mult: 1
  }
  param {
    lr_mult: 2
    decay_mult: 0
  }
  convolution_param {
    num_output: 320
    pad: 1
    kernel_size: 3
    weight_filler {
      type: "xavier"
    }
    bias_filler {
      type: "constant"
      value: 0.2
    }
  }
}
layer {
  name: "inception_4e/relu_3x3"
  type: "ReLU"
  bottom: "inception_4e/3x3"
  top: "inception_4e/3x3"
}
layer {
  name: "inception_4e/5x5_reduce"
  type: "Convolution"
  bottom: "inception_4d/output"
  top: "inception_4e/5x5_reduce"
  param {
    lr_mult: 1
    decay_mult: 1
  }
  param {
    lr_mult: 2
    decay_mult: 0
  }
  convolution_param {
    num_output: 32
    kernel_size: 1
    weight_filler {
      type: "xavier"
    }
    bias_filler {
      type: "constant"
      value: 0.2
    }
  }
}
layer {
  name: "inception_4e/relu_5x5_reduce"
  type: "ReLU"
  bottom: "inception_4e/5x5_reduce"
  top: "inception_4e/5x5_reduce"
}
layer {
  name: "inception_4e/5x5"
  type: "Convolution"
  bottom: "inception_4e/5x5_reduce"
  top: "inception_4e/5x5"
  param {
    lr_mult: 1
    decay_mult: 1
  }
  param {
    lr_mult: 2
    decay_mult: 0
  }
  convolution_param {
    num_output: 128
    pad: 2
    kernel_size: 5
    weight_filler {
      type: "xavier"
    }
    bias_filler {
      type: "constant"
      value: 0.2
    }
  }
}
layer {
  name: "inception_4e/relu_5x5"
  type: "ReLU"
  bottom: "inception_4e/5x5"
  top: "inception_4e/5x5"
}
layer {
  name: "inception_4e/pool"
  
I1123 12:33:14.455780 28480 layer_factory.hpp:77] Creating layer data
I1123 12:33:14.459851 28480 db_lmdb.cpp:35] Opened lmdb /home/nssg/unclezhannssg/Downloads/anzhuangcaffe/caffe-master/examples/myfilen/res/img_train_lmdb
I1123 12:33:14.459898 28480 net.cpp:84] Creating Layer data
I1123 12:33:14.459910 28480 net.cpp:380] data -> data
I1123 12:33:14.459934 28480 net.cpp:380] data -> label
I1123 12:33:14.459952 28480 data_transformer.cpp:25] Loading mean file from: /home/nssg/unclezhannssg/Downloads/anzhuangcaffe/caffe-master/examples/myfilen/res/mean.binaryproto
I1123 12:33:14.473619 28480 data_layer.cpp:45] output data size: 3,3,224,224
I1123 12:33:14.480383 28480 net.cpp:122] Setting up data
I1123 12:33:14.480402 28480 net.cpp:129] Top shape: 3 3 224 224 (451584)
I1123 12:33:14.480407 28480 net.cpp:129] Top shape: 3 (3)
I1123 12:33:14.480410 28480 net.cpp:137] Memory required for data: 1806348
I1123 12:33:14.480418 28480 layer_factory.hpp:77] Creating layer label_data_1_split
I1123 12:33:14.480430 28480 net.cpp:84] Creating Layer label_data_1_split
I1123 12:33:14.480437 28480 net.cpp:406] label_data_1_split <- label
I1123 12:33:14.480465 28480 net.cpp:380] label_data_1_split -> label_data_1_split_0
I1123 12:33:14.480482 28480 net.cpp:380] label_data_1_split -> label_data_1_split_1
I1123 12:33:14.480489 28480 net.cpp:380] label_data_1_split -> label_data_1_split_2
I1123 12:33:14.480563 28480 net.cpp:122] Setting up label_data_1_split
I1123 12:33:14.480572 28480 net.cpp:129] Top shape: 3 (3)
I1123 12:33:14.480576 28480 net.cpp:129] Top shape: 3 (3)
I1123 12:33:14.480581 28480 net.cpp:129] Top shape: 3 (3)
I1123 12:33:14.480583 28480 net.cpp:137] Memory required for data: 1806384
I1123 12:33:14.480587 28480 layer_factory.hpp:77] Creating layer conv1/7x7_s2
I1123 12:33:14.480603 28480 net.cpp:84] Creating Layer conv1/7x7_s2
I1123 12:33:14.480607 28480 net.cpp:406] conv1/7x7_s2 <- data
I1123 12:33:14.480613 28480 net.cpp:380] conv1/7x7_s2 -> conv1/7x7_s2
I1123 12:33:15.032352 28480 net.cpp:122] Setting up conv1/7x7_s2
I1123 12:33:15.032383 28480 net.cpp:129] Top shape: 3 64 112 112 (2408448)
I1123 12:33:15.032388 28480 net.cpp:137] Memory required for data: 11440176
I1123 12:33:15.032410 28480 layer_factory.hpp:77] Creating layer conv1/relu_7x7
I1123 12:33:15.032420 28480 net.cpp:84] Creating Layer conv1/relu_7x7
I1123 12:33:15.032424 28480 net.cpp:406] conv1/relu_7x7 <- conv1/7x7_s2
I1123 12:33:15.032430 28480 net.cpp:367] conv1/relu_7x7 -> conv1/7x7_s2 (in-place)
I1123 12:33:15.033152 28480 net.cpp:122] Setting up conv1/relu_7x7
I1123 12:33:15.033166 28480 net.cpp:129] Top shape: 3 64 112 112 (2408448)
I1123 12:33:15.033169 28480 net.cpp:137] Memory required for data: 21073968
I1123 12:33:15.033174 28480 layer_factory.hpp:77] Creating layer pool1/3x3_s2
I1123 12:33:15.033182 28480 net.cpp:84] Creating Layer pool1/3x3_s2
I1123 12:33:15.033185 28480 net.cpp:406] pool1/3x3_s2 <- conv1/7x7_s2
I1123 12:33:15.033191 28480 net.cpp:380] pool1/3x3_s2 -> pool1/3x3_s2
I1123 12:33:15.033242 28480 net.cpp:122] Setting up pool1/3x3_s2
I1123 12:33:15.033252 28480 net.cpp:129] Top shape: 3 64 56 56 (602112)
I1123 12:33:15.033254 28480 net.cpp:137] Memory required for data: 23482416
I1123 12:33:15.033257 28480 layer_factory.hpp:77] Creating layer pool1/norm1
I1123 12:33:15.033265 28480 net.cpp:84] Creating Layer pool1/norm1
I1123 12:33:15.033270 28480 net.cpp:406] pool1/norm1 <- pool1/3x3_s2
I1123 12:33:15.033275 28480 net.cpp:380] pool1/norm1 -> pool1/norm1
I1123 12:33:15.033464 28480 net.cpp:122] Setting up pool1/norm1
I1123 12:33:15.033474 28480 net.cpp:129] Top shape: 3 64 56 56 (602112)
I1123 12:33:15.033478 28480 net.cpp:137] Memory required for data: 25890864
I1123 12:33:15.033480 28480 layer_factory.hpp:77] Creating layer conv2/3x3_reduce
I1123 12:33:15.033493 28480 net.cpp:84] Creating Layer conv2/3x3_reduce
I1123 12:33:15.033496 28480 net.cpp:406] conv2/3x3_reduce <- pool1/norm1
I1123 12:33:15.033502 28480 net.cpp:380] conv2/3x3_reduce -> conv2/3x3_reduce
I1123 12:33:15.035810 28480 net.cpp:122] Setting up conv2/3x3_reduce
I1123 12:33:15.035825 28480 net.cpp:129] Top shape: 3 64 56 56 (602112)
I1123 12:33:15.035827 28480 net.cpp:137] Memory required for data: 28299312
I1123 12:33:15.035836 28480 layer_factory.hpp:77] Creating layer conv2/relu_3x3_reduce
I1123 12:33:15.035842 28480 net.cpp:84] Creating Layer conv2/relu_3x3_reduce
I1123 12:33:15.035845 28480 net.cpp:406] conv2/relu_3x3_reduce <- conv2/3x3_reduce
I1123 12:33:15.035851 28480 net.cpp:367] conv2/relu_3x3_reduce -> conv2/3x3_reduce (in-place)
I1123 12:33:15.036559 28480 net.cpp:122] Setting up conv2/relu_3x3_reduce
I1123 12:33:15.036572 28480 net.cpp:129] Top shape: 3 64 56 56 (602112)
I1123 12:33:15.036576 28480 net.cpp:137] Memory required for data: 30707760
I1123 12:33:15.036578 28480 layer_factory.hpp:77] Creating layer conv2/3x3
I1123 12:33:15.036589 28480 net.cpp:84] Creating Layer conv2/3x3
I1123 12:33:15.036593 28480 net.cpp:406] conv2/3x3 <- conv2/3x3_reduce
I1123 12:33:15.036598 28480 net.cpp:380] conv2/3x3 -> conv2/3x3
I1123 12:33:15.040061 28480 net.cpp:122] Setting up conv2/3x3
I1123 12:33:15.040077 28480 net.cpp:129] Top shape: 3 192 56 56 (1806336)
I1123 12:33:15.040096 28480 net.cpp:137] Memory required for data: 37933104
I1123 12:33:15.040104 28480 layer_factory.hpp:77] Creating layer conv2/relu_3x3
I1123 12:33:15.040112 28480 net.cpp:84] Creating Layer conv2/relu_3x3
I1123 12:33:15.040114 28480 net.cpp:406] conv2/relu_3x3 <- conv2/3x3
I1123 12:33:15.040119 28480 net.cpp:367] conv2/relu_3x3 -> conv2/3x3 (in-place)
I1123 12:33:15.040299 28480 net.cpp:122] Setting up conv2/relu_3x3
I1123 12:33:15.040309 28480 net.cpp:129] Top shape: 3 192 56 56 (1806336)
I1123 12:33:15.040313 28480 net.cpp:137] Memory required for data: 45158448
I1123 12:33:15.040315 28480 layer_factory.hpp:77] Creating layer conv2/norm2
I1123 12:33:15.040324 28480 net.cpp:84] Creating Layer conv2/norm2
I1123 12:33:15.040328 28480 net.cpp:406] conv2/norm2 <- conv2/3x3
I1123 12:33:15.040333 28480 net.cpp:380] conv2/norm2 -> conv2/norm2
I1123 12:33:15.041113 28480 net.cpp:122] Setting up conv2/norm2
I1123 12:33:15.041126 28480 net.cpp:129] Top shape: 3 192 56 56 (1806336)
I1123 12:33:15.041129 28480 net.cpp:137] Memory required for data: 52383792
I1123 12:33:15.041133 28480 layer_factory.hpp:77] Creating layer pool2/3x3_s2
I1123 12:33:15.041138 28480 net.cpp:84] Creating Layer pool2/3x3_s2
I1123 12:33:15.041142 28480 net.cpp:406] pool2/3x3_s2 <- conv2/norm2
I1123 12:33:15.041148 28480 net.cpp:380] pool2/3x3_s2 -> pool2/3x3_s2
I1123 12:33:15.041185 28480 net.cpp:122] Setting up pool2/3x3_s2
I1123 12:33:15.041194 28480 net.cpp:129] Top shape: 3 192 28 28 (451584)
I1123 12:33:15.041198 28480 net.cpp:137] Memory required for data: 54190128
I1123 12:33:15.041200 28480 layer_factory.hpp:77] Creating layer pool2/3x3_s2_pool2/3x3_s2_0_split
I1123 12:33:15.041206 28480 net.cpp:84] Creating Layer pool2/3x3_s2_pool2/3x3_s2_0_split
I1123 12:33:15.041209 28480 net.cpp:406] pool2/3x3_s2_pool2/3x3_s2_0_split <- pool2/3x3_s2
I1123 12:33:15.041215 28480 net.cpp:380] pool2/3x3_s2_pool2/3x3_s2_0_split -> pool2/3x3_s2_pool2/3x3_s2_0_split_0
I1123 12:33:15.041221 28480 net.cpp:380] pool2/3x3_s2_pool2/3x3_s2_0_split -> pool2/3x3_s2_pool2/3x3_s2_0_split_1
I1123 12:33:15.041227 28480 net.cpp:380] pool2/3x3_s2_pool2/3x3_s2_0_split -> pool2/3x3_s2_pool2/3x3_s2_0_split_2
I1123 12:33:15.041232 28480 net.cpp:380] pool2/3x3_s2_pool2/3x3_s2_0_split -> pool2/3x3_s2_pool2/3x3_s2_0_split_3
I1123 12:33:15.041287 28480 net.cpp:122] Setting up pool2/3x3_s2_pool2/3x3_s2_0_split
I1123 12:33:15.041294 28480 net.cpp:129] Top shape: 3 192 28 28 (451584)
I1123 12:33:15.041298 28480 net.cpp:129] Top shape: 3 192 28 28 (451584)
I1123 12:33:15.041301 28480 net.cpp:129] Top shape: 3 192 28 28 (451584)
I1123 12:33:15.041306 28480 net.cpp:129] Top shape: 3 192 28 28 (451584)
I1123 12:33:15.041307 28480 net.cpp:137] Memory required for data: 61415472
I1123 12:33:15.041311 28480 layer_factory.hpp:77] Creating layer inception_3a/1x1
I1123 12:33:15.041319 28480 net.cpp:84] Creating Layer inception_3a/1x1
I1123 12:33:15.041326 28480 net.cpp:406] inception_3a/1x1 <- pool2/3x3_s2_pool2/3x3_s2_0_split_0
I1123 12:33:15.041332 28480 net.cpp:380] inception_3a/1x1 -> inception_3a/1x1
I1123 12:33:15.043501 28480 net.cpp:122] Setting up inception_3a/1x1
I1123 12:33:15.043515 28480 net.cpp:129] Top shape: 3 64 28 28 (150528)
I1123 12:33:15.043519 28480 net.cpp:137] Memory required for data: 62017584
I1123 12:33:15.043525 28480 layer_factory.hpp:77] Creating layer inception_3a/relu_1x1
I1123 12:33:15.043532 28480 net.cpp:84] Creating Layer inception_3a/relu_1x1
I1123 12:33:15.043535 28480 net.cpp:406] inception_3a/relu_1x1 <- inception_3a/1x1
I1123 12:33:15.043542 28480 net.cpp:367] inception_3a/relu_1x1 -> inception_3a/1x1 (in-place)
I1123 12:33:15.044245 28480 net.cpp:122] Setting up inception_3a/relu_1x1
I1123 12:33:15.044257 28480 net.cpp:129] Top shape: 3 64 28 28 (150528)
I1123 12:33:15.044260 28480 net.cpp:137] Memory required for data: 62619696
I1123 12:33:15.044265 28480 layer_factory.hpp:77] Creating layer inception_3a/3x3_reduce
I1123 12:33:15.044275 28480 net.cpp:84] Creating Layer inception_3a/3x3_reduce
I1123 12:33:15.044281 28480 net.cpp:406] inception_3a/3x3_reduce <- pool2/3x3_s2_pool2/3x3_s2_0_split_1
I1123 12:33:15.044299 28480 net.cpp:380] inception_3a/3x3_reduce -> inception_3a/3x3_reduce
I1123 12:33:15.046707 28480 net.cpp:122] Setting up inception_3a/3x3_reduce
I1123 12:33:15.046722 28480 net.cpp:129] Top shape: 3 96 28 28 (225792)
I1123 12:33:15.046725 28480 net.cpp:137] Memory required for data: 63522864
I1123 12:33:15.046737 28480 layer_factory.hpp:77] Creating layer inception_3a/relu_3x3_reduce
I1123 12:33:15.046747 28480 net.cpp:84] Creating Layer inception_3a/relu_3x3_reduce
I1123 12:33:15.046752 28480 net.cpp:406] inception_3a/relu_3x3_reduce <- inception_3a/3x3_reduce
I1123 12:33:15.046757 28480 net.cpp:367] inception_3a/relu_3x3_reduce -> inception_3a/3x3_reduce (in-place)
I1123 12:33:15.046928 28480 net.cpp:122] Setting up inception_3a/relu_3x3_reduce
I1123 12:33:15.046938 28480 net.cpp:129] Top shape: 3 96 28 28 (225792)
I1123 12:33:15.046941 28480 net.cpp:137] Memory required for data: 64426032
I1123 12:33:15.046943 28480 layer_factory.hpp:77] Creating layer inception_3a/3x3
I1123 12:33:15.046954 28480 net.cpp:84] Creating Layer inception_3a/3x3
I1123 12:33:15.046958 28480 net.cpp:406] inception_3a/3x3 <- inception_3a/3x3_reduce
I1123 12:33:15.046964 28480 net.cpp:380] inception_3a/3x3 -> inception_3a/3x3
I1123 12:33:15.049726 28480 net.cpp:122] Setting up inception_3a/3x3
I1123 12:33:15.049741 28480 net.cpp:129] Top shape: 3 128 28 28 (301056)
I1123 12:33:15.049744 28480 net.cpp:137] Memory required for data: 65630256
I1123 12:33:15.049751 28480 layer_factory.hpp:77] Creating layer inception_3a/relu_3x3
I1123 12:33:15.049756 28480 net.cpp:84] Creating Layer inception_3a/relu_3x3
I1123 12:33:15.049759 28480 net.cpp:406] inception_3a/relu_3x3 <- inception_3a/3x3
I1123 12:33:15.049763 28480 net.cpp:367] inception_3a/relu_3x3 -> inception_3a/3x3 (in-place)
I1123 12:33:15.050364 28480 net.cpp:122] Setting up inception_3a/relu_3x3
I1123 12:33:15.050376 28480 net.cpp:129] Top shape: 3 128 28 28 (301056)
I1123 12:33:15.050381 28480 net.cpp:137] Memory required for data: 66834480
I1123 12:33:15.050384 28480 layer_factory.hpp:77] Creating layer inception_3a/5x5_reduce
I1123 12:33:15.050396 28480 net.cpp:84] Creating Layer inception_3a/5x5_reduce
I1123 12:33:15.050401 28480 net.cpp:406] inception_3a/5x5_reduce <- pool2/3x3_s2_pool2/3x3_s2_0_split_2
I1123 12:33:15.050406 28480 net.cpp:380] inception_3a/5x5_reduce -> inception_3a/5x5_reduce
I1123 12:33:15.051957 28480 net.cpp:122] Setting up inception_3a/5x5_reduce
I1123 12:33:15.051968 28480 net.cpp:129] Top shape: 3 16 28 28 (37632)
I1123 12:33:15.051971 28480 net.cpp:137] Memory required for data: 66985008
I1123 12:33:15.051976 28480 layer_factory.hpp:77] Creating layer inception_3a/relu_5x5_reduce
I1123 12:33:15.051981 28480 net.cpp:84] Creating Layer inception_3a/relu_5x5_reduce
I1123 12:33:15.051985 28480 net.cpp:406] inception_3a/relu_5x5_reduce <- inception_3a/5x5_reduce
I1123 12:33:15.051990 28480 net.cpp:367] inception_3a/relu_5x5_reduce -> inception_3a/5x5_reduce (in-place)
I1123 12:33:15.052590 28480 net.cpp:122] Setting up inception_3a/relu_5x5_reduce
I1123 12:33:15.052603 28480 net.cpp:129] Top shape: 3 16 28 28 (37632)
I1123 12:33:15.052605 28480 net.cpp:137] Memory required for data: 67135536
I1123 12:33:15.052608 28480 layer_factory.hpp:77] Creating layer inception_3a/5x5
I1123 12:33:15.052616 28480 net.cpp:84] Creating Layer inception_3a/5x5
I1123 12:33:15.052619 28480 net.cpp:406] inception_3a/5x5 <- inception_3a/5x5_reduce
I1123 12:33:15.052625 28480 net.cpp:380] inception_3a/5x5 -> inception_3a/5x5
I1123 12:33:15.054319 28480 net.cpp:122] Setting up inception_3a/5x5
I1123 12:33:15.054333 28480 net.cpp:129] Top shape: 3 32 28 28 (75264)
I1123 12:33:15.054337 28480 net.cpp:137] Memory required for data: 67436592
I1123 12:33:15.054342 28480 layer_factory.hpp:77] Creating layer inception_3a/relu_5x5
I1123 12:33:15.054348 28480 net.cpp:84] Creating Layer inception_3a/relu_5x5
I1123 12:33:15.054350 28480 net.cpp:406] inception_3a/relu_5x5 <- inception_3a/5x5
I1123 12:33:15.054355 28480 net.cpp:367] inception_3a/relu_5x5 -> inception_3a/5x5 (in-place)
I1123 12:33:15.054505 28480 net.cpp:122] Setting up inception_3a/relu_5x5
I1123 12:33:15.054514 28480 net.cpp:129] Top shape: 3 32 28 28 (75264)
I1123 12:33:15.054517 28480 net.cpp:137] Memory required for data: 67737648
I1123 12:33:15.054519 28480 layer_factory.hpp:77] Creating layer inception_3a/pool
I1123 12:33:15.054527 28480 net.cpp:84] Creating Layer inception_3a/pool
I1123 12:33:15.054530 28480 net.cpp:406] inception_3a/pool <- pool2/3x3_s2_pool2/3x3_s2_0_split_3
I1123 12:33:15.054535 28480 net.cpp:380] inception_3a/pool -> inception_3a/pool
I1123 12:33:15.054571 28480 net.cpp:122] Setting up inception_3a/pool
I1123 12:33:15.054579 28480 net.cpp:129] Top shape: 3 192 28 28 (451584)
I1123 12:33:15.054580 28480 net.cpp:137] Memory required for data: 69543984
I1123 12:33:15.054582 28480 layer_factory.hpp:77] Creating layer inception_3a/pool_proj
I1123 12:33:15.054590 28480 net.cpp:84] Creating Layer inception_3a/pool_proj
I1123 12:33:15.054594 28480 net.cpp:406] inception_3a/pool_proj <- inception_3a/pool
I1123 12:33:15.054599 28480 net.cpp:380] inception_3a/pool_proj -> inception_3a/pool_proj
I1123 12:33:15.056140 28480 net.cpp:122] Setting up inception_3a/pool_proj
I1123 12:33:15.056152 28480 net.cpp:129] Top shape: 3 32 28 28 (75264)
I1123 12:33:15.056155 28480 net.cpp:137] Memory required for data: 69845040
I1123 12:33:15.056164 28480 layer_factory.hpp:77] Creating layer inception_3a/relu_pool_proj
I1123 12:33:15.056170 28480 net.cpp:84] Creating Layer inception_3a/relu_pool_proj
I1123 12:33:15.056174 28480 net.cpp:406] inception_3a/relu_pool_proj <- inception_3a/pool_proj
I1123 12:33:15.056179 28480 net.cpp:367] inception_3a/relu_pool_proj -> inception_3a/pool_proj (in-place)
I1123 12:33:15.056783 28480 net.cpp:122] Setting up inception_3a/relu_pool_proj
I1123 12:33:15.056795 28480 net.cpp:129] Top shape: 3 32 28 28 (75264)
I1123 12:33:15.056797 28480 net.cpp:137] Memory required for data: 70146096
I1123 12:33:15.056800 28480 layer_factory.hpp:77] Creating layer inception_3a/output
I1123 12:33:15.056805 28480 net.cpp:84] Creating Layer inception_3a/output
I1123 12:33:15.056808 28480 net.cpp:406] inception_3a/output <- inception_3a/1x1
I1123 12:33:15.056813 28480 net.cpp:406] inception_3a/output <- inception_3a/3x3
I1123 12:33:15.056815 28480 net.cpp:406] inception_3a/output <- inception_3a/5x5
I1123 12:33:15.056818 28480 net.cpp:406] inception_3a/output <- inception_3a/pool_proj
I1123 12:33:15.056823 28480 net.cpp:380] inception_3a/output -> inception_3a/output
I1123 12:33:15.056849 28480 net.cpp:122] Setting up inception_3a/output
I1123 12:33:15.056855 28480 net.cpp:129] Top shape: 3 256 28 28 (602112)
I1123 12:33:15.056857 28480 net.cpp:137] Memory required for data: 72554544
I1123 12:33:15.056860 28480 layer_factory.hpp:77] Creating layer inception_3a/output_inception_3a/output_0_split
I1123 12:33:15.056864 28480 net.cpp:84] Creating Layer inception_3a/output_inception_3a/output_0_split
I1123 12:33:15.056867 28480 net.cpp:406] inception_3a/output_inception_3a/output_0_split <- inception_3a/output
I1123 12:33:15.056872 28480 net.cpp:380] inception_3a/output_inception_3a/output_0_split -> inception_3a/output_inception_3a/output_0_split_0
I1123 12:33:15.056877 28480 net.cpp:380] inception_3a/output_inception_3a/output_0_split -> inception_3a/output_inception_3a/output_0_split_1
I1123 12:33:15.056882 28480 net.cpp:380] inception_3a/output_inception_3a/output_0_split -> inception_3a/output_inception_3a/output_0_split_2
I1123 12:33:15.056887 28480 net.cpp:380] inception_3a/output_inception_3a/output_0_split -> inception_3a/output_inception_3a/output_0_split_3
I1123 12:33:15.056936 28480 net.cpp:122] Setting up inception_3a/output_inception_3a/output_0_split
I1123 12:33:15.056941 28480 net.cpp:129] Top shape: 3 256 28 28 (602112)
I1123 12:33:15.056946 28480 net.cpp:129] Top shape: 3 256 28 28 (602112)
I1123 12:33:15.056947 28480 net.cpp:129] Top shape: 3 256 28 28 (602112)
I1123 12:33:15.056951 28480 net.cpp:129] Top shape: 3 256 28 28 (602112)
I1123 12:33:15.056952 28480 net.cpp:137] Memory required for data: 82188336
I1123 12:33:15.056962 28480 layer_factory.hpp:77] Creating layer inception_3b/1x1
I1123 12:33:15.056970 28480 net.cpp:84] Creating Layer inception_3b/1x1
I1123 12:33:15.056973 28480 net.cpp:406] inception_3b/1x1 <- inception_3a/output_inception_3a/output_0_split_0
I1123 12:33:15.056978 28480 net.cpp:380] inception_3b/1x1 -> inception_3b/1x1
I1123 12:33:15.058185 28480 net.cpp:122] Setting up inception_3b/1x1
I1123 12:33:15.058197 28480 net.cpp:129] Top shape: 3 128 28 28 (301056)
I1123 12:33:15.058200 28480 net.cpp:137] Memory required for data: 83392560
I1123 12:33:15.058205 28480 layer_factory.hpp:77] Creating layer inception_3b/relu_1x1
I1123 12:33:15.058210 28480 net.cpp:84] Creating Layer inception_3b/relu_1x1
I1123 12:33:15.058213 28480 net.cpp:406] inception_3b/relu_1x1 <- inception_3b/1x1
I1123 12:33:15.058218 28480 net.cpp:367] inception_3b/relu_1x1 -> inception_3b/1x1 (in-place)
I1123 12:33:15.058807 28480 net.cpp:122] Setting up inception_3b/relu_1x1
I1123 12:33:15.058818 28480 net.cpp:129] Top shape: 3 128 28 28 (301056)
I1123 12:33:15.058820 28480 net.cpp:137] Memory required for data: 84596784
I1123 12:33:15.058823 28480 layer_factory.hpp:77] Creating layer inception_3b/3x3_reduce
I1123 12:33:15.058831 28480 net.cpp:84] Creating Layer inception_3b/3x3_reduce
I1123 12:33:15.058835 28480 net.cpp:406] inception_3b/3x3_reduce <- inception_3a/output_inception_3a/output_0_split_1
I1123 12:33:15.058840 28480 net.cpp:380] inception_3b/3x3_reduce -> inception_3b/3x3_reduce
I1123 12:33:15.060500 28480 net.cpp:122] Setting up inception_3b/3x3_reduce
I1123 12:33:15.060513 28480 net.cpp:129] Top shape: 3 128 28 28 (301056)
I1123 12:33:15.060515 28480 net.cpp:137] Memory required for data: 85801008
I1123 12:33:15.060520 28480 layer_factory.hpp:77] Creating layer inception_3b/relu_3x3_reduce
I1123 12:33:15.060525 28480 net.cpp:84] Creating Layer inception_3b/relu_3x3_reduce
I1123 12:33:15.060528 28480 net.cpp:406] inception_3b/relu_3x3_reduce <- inception_3b/3x3_reduce
I1123 12:33:15.060534 28480 net.cpp:367] inception_3b/relu_3x3_reduce -> inception_3b/3x3_reduce (in-place)
I1123 12:33:15.060673 28480 net.cpp:122] Setting up inception_3b/relu_3x3_reduce
I1123 12:33:15.060681 28480 net.cpp:129] Top shape: 3 128 28 28 (301056)
I1123 12:33:15.060684 28480 net.cpp:137] Memory required for data: 87005232
I1123 12:33:15.060693 28480 layer_factory.hpp:77] Creating layer inception_3b/3x3
I1123 12:33:15.060708 28480 net.cpp:84] Creating Layer inception_3b/3x3
I1123 12:33:15.060710 28480 net.cpp:406] inception_3b/3x3 <- inception_3b/3x3_reduce
I1123 12:33:15.060715 28480 net.cpp:380] inception_3b/3x3 -> inception_3b/3x3
I1123 12:33:15.064167 28480 net.cpp:122] Setting up inception_3b/3x3
I1123 12:33:15.064179 28480 net.cpp:129] Top shape: 3 192 28 28 (451584)
I1123 12:33:15.064182 28480 net.cpp:137] Memory required for data: 88811568
I1123 12:33:15.064188 28480 layer_factory.hpp:77] Creating layer inception_3b/relu_3x3
I1123 12:33:15.064193 28480 net.cpp:84] Creating Layer inception_3b/relu_3x3
I1123 12:33:15.064195 28480 net.cpp:406] inception_3b/relu_3x3 <- inception_3b/3x3
I1123 12:33:15.064200 28480 net.cpp:367] inception_3b/relu_3x3 -> inception_3b/3x3 (in-place)
I1123 12:33:15.064808 28480 net.cpp:122] Setting up inception_3b/relu_3x3
I1123 12:33:15.064821 28480 net.cpp:129] Top shape: 3 192 28 28 (451584)
I1123 12:33:15.064823 28480 net.cpp:137] Memory required for data: 90617904
I1123 12:33:15.064826 28480 layer_factory.hpp:77] Creating layer inception_3b/5x5_reduce
I1123 12:33:15.064834 28480 net.cpp:84] Creating Layer inception_3b/5x5_reduce
I1123 12:33:15.064837 28480 net.cpp:406] inception_3b/5x5_reduce <- inception_3a/output_inception_3a/output_0_split_2
I1123 12:33:15.064842 28480 net.cpp:380] inception_3b/5x5_reduce -> inception_3b/5x5_reduce
I1123 12:33:15.065971 28480 net.cpp:122] Setting up inception_3b/5x5_reduce
I1123 12:33:15.065984 28480 net.cpp:129] Top shape: 3 32 28 28 (75264)
I1123 12:33:15.065986 28480 net.cpp:137] Memory required for data: 90918960
I1123 12:33:15.066000 28480 layer_factory.hpp:77] Creating layer inception_3b/relu_5x5_reduce
I1123 12:33:15.066006 28480 net.cpp:84] Creating Layer inception_3b/relu_5x5_reduce
I1123 12:33:15.066009 28480 net.cpp:406] inception_3b/relu_5x5_reduce <- inception_3b/5x5_reduce
I1123 12:33:15.066013 28480 net.cpp:367] inception_3b/relu_5x5_reduce -> inception_3b/5x5_reduce (in-place)
I1123 12:33:15.066612 28480 net.cpp:122] Setting up inception_3b/relu_5x5_reduce
I1123 12:33:15.066622 28480 net.cpp:129] Top shape: 3 32 28 28 (75264)
I1123 12:33:15.066624 28480 net.cpp:137] Memory required for data: 91220016
I1123 12:33:15.066627 28480 layer_factory.hpp:77] Creating layer inception_3b/5x5
I1123 12:33:15.066635 28480 net.cpp:84] Creating Layer inception_3b/5x5
I1123 12:33:15.066638 28480 net.cpp:406] inception_3b/5x5 <- inception_3b/5x5_reduce
I1123 12:33:15.066644 28480 net.cpp:380] inception_3b/5x5 -> inception_3b/5x5
I1123 12:33:15.069453 28480 net.cpp:122] Setting up inception_3b/5x5
I1123 12:33:15.069465 28480 net.cpp:129] Top shape: 3 96 28 28 (225792)
I1123 12:33:15.069468 28480 net.cpp:137] Memory required for data: 92123184
I1123 12:33:15.069473 28480 layer_factory.hpp:77] Creating layer inception_3b/relu_5x5
I1123 12:33:15.069479 28480 net.cpp:84] Creating Layer inception_3b/relu_5x5
I1123 12:33:15.069483 28480 net.cpp:406] inception_3b/relu_5x5 <- inception_3b/5x5
I1123 12:33:15.069488 28480 net.cpp:367] inception_3b/relu_5x5 -> inception_3b/5x5 (in-place)
I1123 12:33:15.069645 28480 net.cpp:122] Setting up inception_3b/relu_5x5
I1123 12:33:15.069654 28480 net.cpp:129] Top shape: 3 96 28 28 (225792)
I1123 12:33:15.069658 28480 net.cpp:137] Memory required for data: 93026352
I1123 12:33:15.069659 28480 layer_factory.hpp:77] Creating layer inception_3b/pool
I1123 12:33:15.069665 28480 net.cpp:84] Creating Layer inception_3b/pool
I1123 12:33:15.069667 28480 net.cpp:406] inception_3b/pool <- inception_3a/output_inception_3a/output_0_split_3
I1123 12:33:15.069672 28480 net.cpp:380] inception_3b/pool -> inception_3b/pool
I1123 12:33:15.069710 28480 net.cpp:122] Setting up inception_3b/pool
I1123 12:33:15.069718 28480 net.cpp:129] Top shape: 3 256 28 28 (602112)
I1123 12:33:15.069721 28480 net.cpp:137] Memory required for data: 95434800
I1123 12:33:15.069723 28480 layer_factory.hpp:77] Creating layer inception_3b/pool_proj
I1123 12:33:15.069730 28480 net.cpp:84] Creating Layer inception_3b/pool_proj
I1123 12:33:15.069733 28480 net.cpp:406] inception_3b/pool_proj <- inception_3b/pool
I1123 12:33:15.069738 28480 net.cpp:380] inception_3b/pool_proj -> inception_3b/pool_proj
I1123 12:33:15.071444 28480 net.cpp:122] Setting up inception_3b/pool_proj
I1123 12:33:15.071455 28480 net.cpp:129] Top shape: 3 64 28 28 (150528)
I1123 12:33:15.071457 28480 net.cpp:137] Memory required for data: 96036912
I1123 12:33:15.071462 28480 layer_factory.hpp:77] Creating layer inception_3b/relu_pool_proj
I1123 12:33:15.071468 28480 net.cpp:84] Creating Layer inception_3b/relu_pool_proj
I1123 12:33:15.071471 28480 net.cpp:406] inception_3b/relu_pool_proj <- inception_3b/pool_proj
I1123 12:33:15.071475 28480 net.cpp:367] inception_3b/relu_pool_proj -> inception_3b/pool_proj (in-place)
I1123 12:33:15.072101 28480 net.cpp:122] Setting up inception_3b/relu_pool_proj
I1123 12:33:15.072113 28480 net.cpp:129] Top shape: 3 64 28 28 (150528)
I1123 12:33:15.072115 28480 net.cpp:137] Memory required for data: 96639024
I1123 12:33:15.072118 28480 layer_factory.hpp:77] Creating layer inception_3b/output
I1123 12:33:15.072124 28480 net.cpp:84] Creating Layer inception_3b/output
I1123 12:33:15.072126 28480 net.cpp:406] inception_3b/output <- inception_3b/1x1
I1123 12:33:15.072129 28480 net.cpp:406] inception_3b/output <- inception_3b/3x3
I1123 12:33:15.072134 28480 net.cpp:406] inception_3b/output <- inception_3b/5x5
I1123 12:33:15.072136 28480 net.cpp:406] inception_3b/output <- inception_3b/pool_proj
I1123 12:33:15.072141 28480 net.cpp:380] inception_3b/output -> inception_3b/output
I1123 12:33:15.072170 28480 net.cpp:122] Setting up inception_3b/output
I1123 12:33:15.072185 28480 net.cpp:129] Top shape: 3 480 28 28 (1128960)
I1123 12:33:15.072187 28480 net.cpp:137] Memory required for data: 101154864
I1123 12:33:15.072190 28480 layer_factory.hpp:77] Creating layer pool3/3x3_s2
I1123 12:33:15.072194 28480 net.cpp:84] Creating Layer pool3/3x3_s2
I1123 12:33:15.072197 28480 net.cpp:406] pool3/3x3_s2 <- inception_3b/output
I1123 12:33:15.072201 28480 net.cpp:380] pool3/3x3_s2 -> pool3/3x3_s2
I1123 12:33:15.072237 28480 net.cpp:122] Setting up pool3/3x3_s2
I1123 12:33:15.072243 28480 net.cpp:129] Top shape: 3 480 14 14 (282240)
I1123 12:33:15.072245 28480 net.cpp:137] Memory required for data: 102283824
I1123 12:33:15.072248 28480 layer_factory.hpp:77] Creating layer pool3/3x3_s2_pool3/3x3_s2_0_split
I1123 12:33:15.072252 28480 net.cpp:84] Creating Layer pool3/3x3_s2_pool3/3x3_s2_0_split
I1123 12:33:15.072255 28480 net.cpp:406] pool3/3x3_s2_pool3/3x3_s2_0_split <- pool3/3x3_s2
I1123 12:33:15.072260 28480 net.cpp:380] pool3/3x3_s2_pool3/3x3_s2_0_split -> pool3/3x3_s2_pool3/3x3_s2_0_split_0
I1123 12:33:15.072265 28480 net.cpp:380] pool3/3x3_s2_pool3/3x3_s2_0_split -> pool3/3x3_s2_pool3/3x3_s2_0_split_1
I1123 12:33:15.072270 28480 net.cpp:380] pool3/3x3_s2_pool3/3x3_s2_0_split -> pool3/3x3_s2_pool3/3x3_s2_0_split_2
I1123 12:33:15.072274 28480 net.cpp:380] pool3/3x3_s2_pool3/3x3_s2_0_split -> pool3/3x3_s2_pool3/3x3_s2_0_split_3
I1123 12:33:15.072324 28480 net.cpp:122] Setting up pool3/3x3_s2_pool3/3x3_s2_0_split
I1123 12:33:15.072329 28480 net.cpp:129] Top shape: 3 480 14 14 (282240)
I1123 12:33:15.072332 28480 net.cpp:129] Top shape: 3 480 14 14 (282240)
I1123 12:33:15.072335 28480 net.cpp:129] Top shape: 3 480 14 14 (282240)
I1123 12:33:15.072338 28480 net.cpp:129] Top shape: 3 480 14 14 (282240)
I1123 12:33:15.072340 28480 net.cpp:137] Memory required for data: 106799664
I1123 12:33:15.072342 28480 layer_factory.hpp:77] Creating layer inception_4a/1x1
I1123 12:33:15.072350 28480 net.cpp:84] Creating Layer inception_4a/1x1
I1123 12:33:15.072353 28480 net.cpp:406] inception_4a/1x1 <- pool3/3x3_s2_pool3/3x3_s2_0_split_0
I1123 12:33:15.072360 28480 net.cpp:380] inception_4a/1x1 -> inception_4a/1x1
I1123 12:33:15.074311 28480 net.cpp:122] Setting up inception_4a/1x1
I1123 12:33:15.074324 28480 net.cpp:129] Top shape: 3 192 14 14 (112896)
I1123 12:33:15.074327 28480 net.cpp:137] Memory required for data: 107251248
I1123 12:33:15.074332 28480 layer_factory.hpp:77] Creating layer inception_4a/relu_1x1
I1123 12:33:15.074338 28480 net.cpp:84] Creating Layer inception_4a/relu_1x1
I1123 12:33:15.074342 28480 net.cpp:406] inception_4a/relu_1x1 <- inception_4a/1x1
I1123 12:33:15.074345 28480 net.cpp:367] inception_4a/relu_1x1 -> inception_4a/1x1 (in-place)
I1123 12:33:15.074935 28480 net.cpp:122] Setting up inception_4a/relu_1x1
I1123 12:33:15.074946 28480 net.cpp:129] Top shape: 3 192 14 14 (112896)
I1123 12:33:15.074949 28480 net.cpp:137] Memory required for data: 107702832
I1123 12:33:15.074951 28480 layer_factory.hpp:77] Creating layer inception_4a/3x3_reduce
I1123 12:33:15.074959 28480 net.cpp:84] Creating Layer inception_4a/3x3_reduce
I1123 12:33:15.074962 28480 net.cpp:406] inception_4a/3x3_reduce <- pool3/3x3_s2_pool3/3x3_s2_0_split_1
I1123 12:33:15.074967 28480 net.cpp:380] inception_4a/3x3_reduce -> inception_4a/3x3_reduce
I1123 12:33:15.076740 28480 net.cpp:122] Setting up inception_4a/3x3_reduce
I1123 12:33:15.076751 28480 net.cpp:129] Top shape: 3 96 14 14 (56448)
I1123 12:33:15.076755 28480 net.cpp:137] Memory required for data: 107928624
I1123 12:33:15.076764 28480 layer_factory.hpp:77] Creating layer inception_4a/relu_3x3_reduce
I1123 12:33:15.076769 28480 net.cpp:84] Creating Layer inception_4a/relu_3x3_reduce
I1123 12:33:15.076772 28480 net.cpp:406] inception_4a/relu_3x3_reduce <- inception_4a/3x3_reduce
I1123 12:33:15.076777 28480 net.cpp:367] inception_4a/relu_3x3_reduce -> inception_4a/3x3_reduce (in-place)
I1123 12:33:15.076921 28480 net.cpp:122] Setting up inception_4a/relu_3x3_reduce
I1123 12:33:15.076930 28480 net.cpp:129] Top shape: 3 96 14 14 (56448)
I1123 12:33:15.076944 28480 net.cpp:137] Memory required for data: 108154416
I1123 12:33:15.076947 28480 layer_factory.hpp:77] Creating layer inception_4a/3x3
I1123 12:33:15.076956 28480 net.cpp:84] Creating Layer inception_4a/3x3
I1123 12:33:15.076958 28480 net.cpp:406] inception_4a/3x3 <- inception_4a/3x3_reduce
I1123 12:33:15.076967 28480 net.cpp:380] inception_4a/3x3 -> inception_4a/3x3
I1123 12:33:15.080155 28480 net.cpp:122] Setting up inception_4a/3x3
I1123 12:33:15.080168 28480 net.cpp:129] Top shape: 3 208 14 14 (122304)
I1123 12:33:15.080170 28480 net.cpp:137] Memory required for data: 108643632
I1123 12:33:15.080175 28480 layer_factory.hpp:77] Creating layer inception_4a/relu_3x3
I1123 12:33:15.080180 28480 net.cpp:84] Creating Layer inception_4a/relu_3x3
I1123 12:33:15.080183 28480 net.cpp:406] inception_4a/relu_3x3 <- inception_4a/3x3
I1123 12:33:15.080188 28480 net.cpp:367] inception_4a/relu_3x3 -> inception_4a/3x3 (in-place)
I1123 12:33:15.080793 28480 net.cpp:122] Setting up inception_4a/relu_3x3
I1123 12:33:15.080804 28480 net.cpp:129] Top shape: 3 208 14 14 (122304)
I1123 12:33:15.080807 28480 net.cpp:137] Memory required for data: 109132848
I1123 12:33:15.080809 28480 layer_factory.hpp:77] Creating layer inception_4a/5x5_reduce
I1123 12:33:15.080817 28480 net.cpp:84] Creating Layer inception_4a/5x5_reduce
I1123 12:33:15.080821 28480 net.cpp:406] inception_4a/5x5_reduce <- pool3/3x3_s2_pool3/3x3_s2_0_split_2
I1123 12:33:15.080827 28480 net.cpp:380] inception_4a/5x5_reduce -> inception_4a/5x5_reduce
I1123 12:33:15.081980 28480 net.cpp:122] Setting up inception_4a/5x5_reduce
I1123 12:33:15.081992 28480 net.cpp:129] Top shape: 3 16 14 14 (9408)
I1123 12:33:15.081995 28480 net.cpp:137] Memory required for data: 109170480
I1123 12:33:15.082000 28480 layer_factory.hpp:77] Creating layer inception_4a/relu_5x5_reduce
I1123 12:33:15.082006 28480 net.cpp:84] Creating Layer inception_4a/relu_5x5_reduce
I1123 12:33:15.082010 28480 net.cpp:406] inception_4a/relu_5x5_reduce <- inception_4a/5x5_reduce
I1123 12:33:15.082013 28480 net.cpp:367] inception_4a/relu_5x5_reduce -> inception_4a/5x5_reduce (in-place)
I1123 12:33:15.082605 28480 net.cpp:122] Setting up inception_4a/relu_5x5_reduce
I1123 12:33:15.082617 28480 net.cpp:129] Top shape: 3 16 14 14 (9408)
I1123 12:33:15.082618 28480 net.cpp:137] Memory required for data: 109208112
I1123 12:33:15.082621 28480 layer_factory.hpp:77] Creating layer inception_4a/5x5
I1123 12:33:15.082629 28480 net.cpp:84] Creating Layer inception_4a/5x5
I1123 12:33:15.082633 28480 net.cpp:406] inception_4a/5x5 <- inception_4a/5x5_reduce
I1123 12:33:15.082638 28480 net.cpp:380] inception_4a/5x5 -> inception_4a/5x5
I1123 12:33:15.084302 28480 net.cpp:122] Setting up inception_4a/5x5
I1123 12:33:15.084314 28480 net.cpp:129] Top shape: 3 48 14 14 (28224)
I1123 12:33:15.084316 28480 net.cpp:137] Memory required for data: 109321008
I1123 12:33:15.084321 28480 layer_factory.hpp:77] Creating layer inception_4a/relu_5x5
I1123 12:33:15.084326 28480 net.cpp:84] Creating Layer inception_4a/relu_5x5
I1123 12:33:15.084329 28480 net.cpp:406] inception_4a/relu_5x5 <- inception_4a/5x5
I1123 12:33:15.084334 28480 net.cpp:367] inception_4a/relu_5x5 -> inception_4a/5x5 (in-place)
I1123 12:33:15.084484 28480 net.cpp:122] Setting up inception_4a/relu_5x5
I1123 12:33:15.084492 28480 net.cpp:129] Top shape: 3 48 14 14 (28224)
I1123 12:33:15.084496 28480 net.cpp:137] Memory required for data: 109433904
I1123 12:33:15.084497 28480 layer_factory.hpp:77] Creating layer inception_4a/pool
I1123 12:33:15.084503 28480 net.cpp:84] Creating Layer inception_4a/pool
I1123 12:33:15.084506 28480 net.cpp:406] inception_4a/pool <- pool3/3x3_s2_pool3/3x3_s2_0_split_3
I1123 12:33:15.084511 28480 net.cpp:380] inception_4a/pool -> inception_4a/pool
I1123 12:33:15.084555 28480 net.cpp:122] Setting up inception_4a/pool
I1123 12:33:15.084563 28480 net.cpp:129] Top shape: 3 480 14 14 (282240)
I1123 12:33:15.084564 28480 net.cpp:137] Memory required for data: 110562864
I1123 12:33:15.084566 28480 layer_factory.hpp:77] Creating layer inception_4a/pool_proj
I1123 12:33:15.084583 28480 net.cpp:84] Creating Layer inception_4a/pool_proj
I1123 12:33:15.084585 28480 net.cpp:406] inception_4a/pool_proj <- inception_4a/pool
I1123 12:33:15.084591 28480 net.cpp:380] inception_4a/pool_proj -> inception_4a/pool_proj
I1123 12:33:15.086738 28480 net.cpp:122] Setting up inception_4a/pool_proj
I1123 12:33:15.086750 28480 net.cpp:129] Top shape: 3 64 14 14 (37632)
I1123 12:33:15.086753 28480 net.cpp:137] Memory required for data: 110713392
I1123 12:33:15.086758 28480 layer_factory.hpp:77] Creating layer inception_4a/relu_pool_proj
I1123 12:33:15.086764 28480 net.cpp:84] Creating Layer inception_4a/relu_pool_proj
I1123 12:33:15.086767 28480 net.cpp:406] inception_4a/relu_pool_proj <- inception_4a/pool_proj
I1123 12:33:15.086771 28480 net.cpp:367] inception_4a/relu_pool_proj -> inception_4a/pool_proj (in-place)
I1123 12:33:15.087378 28480 net.cpp:122] Setting up inception_4a/relu_pool_proj
I1123 12:33:15.087388 28480 net.cpp:129] Top shape: 3 64 14 14 (37632)
I1123 12:33:15.087389 28480 net.cpp:137] Memory required for data: 110863920
I1123 12:33:15.087393 28480 layer_factory.hpp:77] Creating layer inception_4a/output
I1123 12:33:15.087399 28480 net.cpp:84] Creating Layer inception_4a/output
I1123 12:33:15.087401 28480 net.cpp:406] inception_4a/output <- inception_4a/1x1
I1123 12:33:15.087404 28480 net.cpp:406] inception_4a/output <- inception_4a/3x3
I1123 12:33:15.087407 28480 net.cpp:406] inception_4a/output <- inception_4a/5x5
I1123 12:33:15.087410 28480 net.cpp:406] inception_4a/output <- inception_4a/pool_proj
I1123 12:33:15.087414 28480 net.cpp:380] inception_4a/output -> inception_4a/output
I1123 12:33:15.087442 28480 net.cpp:122] Setting up inception_4a/output
I1123 12:33:15.087450 28480 net.cpp:129] Top shape: 3 512 14 14 (301056)
I1123 12:33:15.087452 28480 net.cpp:137] Memory required for data: 112068144
I1123 12:33:15.087455 28480 layer_factory.hpp:77] Creating layer inception_4a/output_inception_4a/output_0_split
I1123 12:33:15.087460 28480 net.cpp:84] Creating Layer inception_4a/output_inception_4a/output_0_split
I1123 12:33:15.087463 28480 net.cpp:406] inception_4a/output_inception_4a/output_0_split <- inception_4a/output
I1123 12:33:15.087467 28480 net.cpp:380] inception_4a/output_inception_4a/output_0_split -> inception_4a/output_inception_4a/output_0_split_0
I1123 12:33:15.087474 28480 net.cpp:380] inception_4a/output_inception_4a/output_0_split -> inception_4a/output_inception_4a/output_0_split_1
I1123 12:33:15.087479 28480 net.cpp:380] inception_4a/output_inception_4a/output_0_split -> inception_4a/output_inception_4a/output_0_split_2
I1123 12:33:15.087483 28480 net.cpp:380] inception_4a/output_inception_4a/output_0_split -> inception_4a/output_inception_4a/output_0_split_3
I1123 12:33:15.087488 28480 net.cpp:380] inception_4a/output_inception_4a/output_0_split -> inception_4a/output_inception_4a/output_0_split_4
I1123 12:33:15.087553 28480 net.cpp:122] Setting up inception_4a/output_inception_4a/output_0_split
I1123 12:33:15.087559 28480 net.cpp:129] Top shape: 3 512 14 14 (301056)
I1123 12:33:15.087563 28480 net.cpp:129] Top shape: 3 512 14 14 (301056)
I1123 12:33:15.087565 28480 net.cpp:129] Top shape: 3 512 14 14 (301056)
I1123 12:33:15.087568 28480 net.cpp:129] Top shape: 3 512 14 14 (301056)
I1123 12:33:15.087570 28480 net.cpp:129] Top shape: 3 512 14 14 (301056)
I1123 12:33:15.087574 28480 net.cpp:137] Memory required for data: 118089264
I1123 12:33:15.087575 28480 layer_factory.hpp:77] Creating layer loss1/ave_pool
I1123 12:33:15.087581 28480 net.cpp:84] Creating Layer loss1/ave_pool
I1123 12:33:15.087584 28480 net.cpp:406] loss1/ave_pool <- inception_4a/output_inception_4a/output_0_split_0
I1123 12:33:15.087589 28480 net.cpp:380] loss1/ave_pool -> loss1/ave_pool
I1123 12:33:15.087751 28480 net.cpp:122] Setting up loss1/ave_pool
I1123 12:33:15.087760 28480 net.cpp:129] Top shape: 3 512 4 4 (24576)
I1123 12:33:15.087762 28480 net.cpp:137] Memory required for data: 118187568
I1123 12:33:15.087765 28480 layer_factory.hpp:77] Creating layer loss1/conv
I1123 12:33:15.087781 28480 net.cpp:84] Creating Layer loss1/conv
I1123 12:33:15.087785 28480 net.cpp:406] loss1/conv <- loss1/ave_pool
I1123 12:33:15.087790 28480 net.cpp:380] loss1/conv -> loss1/conv
I1123 12:33:15.089654 28480 net.cpp:122] Setting up loss1/conv
I1123 12:33:15.089668 28480 net.cpp:129] Top shape: 3 128 4 4 (6144)
I1123 12:33:15.089669 28480 net.cpp:137] Memory required for data: 118212144
I1123 12:33:15.089674 28480 layer_factory.hpp:77] Creating layer loss1/relu_conv
I1123 12:33:15.089680 28480 net.cpp:84] Creating Layer loss1/relu_conv
I1123 12:33:15.089684 28480 net.cpp:406] loss1/relu_conv <- loss1/conv
I1123 12:33:15.089686 28480 net.cpp:367] loss1/relu_conv -> loss1/conv (in-place)
I1123 12:33:15.090268 28480 net.cpp:122] Setting up loss1/relu_conv
I1123 12:33:15.090278 28480 net.cpp:129] Top shape: 3 128 4 4 (6144)
I1123 12:33:15.090281 28480 net.cpp:137] Memory required for data: 118236720
I1123 12:33:15.090283 28480 layer_factory.hpp:77] Creating layer loss1/fc
I1123 12:33:15.090291 28480 net.cpp:84] Creating Layer loss1/fc
I1123 12:33:15.090293 28480 net.cpp:406] loss1/fc <- loss1/conv
I1123 12:33:15.090298 28480 net.cpp:380] loss1/fc -> loss1/fc
I1123 12:33:15.101032 28480 net.cpp:122] Setting up loss1/fc
I1123 12:33:15.101048 28480 net.cpp:129] Top shape: 3 1024 (3072)
I1123 12:33:15.101052 28480 net.cpp:137] Memory required for data: 118249008
I1123 12:33:15.101058 28480 layer_factory.hpp:77] Creating layer loss1/relu_fc
I1123 12:33:15.101065 28480 net.cpp:84] Creating Layer loss1/relu_fc
I1123 12:33:15.101069 28480 net.cpp:406] loss1/relu_fc <- loss1/fc
I1123 12:33:15.101073 28480 net.cpp:367] loss1/relu_fc -> loss1/fc (in-place)
I1123 12:33:15.101243 28480 net.cpp:122] Setting up loss1/relu_fc
I1123 12:33:15.101253 28480 net.cpp:129] Top shape: 3 1024 (3072)
I1123 12:33:15.101254 28480 net.cpp:137] Memory required for data: 118261296
I1123 12:33:15.101256 28480 layer_factory.hpp:77] Creating layer loss1/drop_fc
I1123 12:33:15.101275 28480 net.cpp:84] Creating Layer loss1/drop_fc
I1123 12:33:15.101279 28480 net.cpp:406] loss1/drop_fc <- loss1/fc
I1123 12:33:15.101284 28480 net.cpp:367] loss1/drop_fc -> loss1/fc (in-place)
I1123 12:33:15.101313 28480 net.cpp:122] Setting up loss1/drop_fc
I1123 12:33:15.101318 28480 net.cpp:129] Top shape: 3 1024 (3072)
I1123 12:33:15.101320 28480 net.cpp:137] Memory required for data: 118273584
I1123 12:33:15.101323 28480 layer_factory.hpp:77] Creating layer loss1/classifier-gai
I1123 12:33:15.101330 28480 net.cpp:84] Creating Layer loss1/classifier-gai
I1123 12:33:15.101331 28480 net.cpp:406] loss1/classifier-gai <- loss1/fc
I1123 12:33:15.101336 28480 net.cpp:380] loss1/classifier-gai -> loss1/classifier-gai
I1123 12:33:15.101510 28480 net.cpp:122] Setting up loss1/classifier-gai
I1123 12:33:15.101516 28480 net.cpp:129] Top shape: 3 16 (48)
I1123 12:33:15.101517 28480 net.cpp:137] Memory required for data: 118273776
I1123 12:33:15.101522 28480 layer_factory.hpp:77] Creating layer loss1/loss
I1123 12:33:15.101527 28480 net.cpp:84] Creating Layer loss1/loss
I1123 12:33:15.101531 28480 net.cpp:406] loss1/loss <- loss1/classifier-gai
I1123 12:33:15.101533 28480 net.cpp:406] loss1/loss <- label_data_1_split_0
I1123 12:33:15.101536 28480 net.cpp:380] loss1/loss -> lt1
I1123 12:33:15.101543 28480 layer_factory.hpp:77] Creating layer loss1/loss
I1123 12:33:15.102252 28480 net.cpp:122] Setting up loss1/loss
I1123 12:33:15.102262 28480 net.cpp:129] Top shape: (1)
I1123 12:33:15.102263 28480 net.cpp:132]     with loss weight 0.3
I1123 12:33:15.102280 28480 net.cpp:137] Memory required for data: 118273780
I1123 12:33:15.102283 28480 layer_factory.hpp:77] Creating layer inception_4b/1x1
I1123 12:33:15.102291 28480 net.cpp:84] Creating Layer inception_4b/1x1
I1123 12:33:15.102295 28480 net.cpp:406] inception_4b/1x1 <- inception_4a/output_inception_4a/output_0_split_1
I1123 12:33:15.102301 28480 net.cpp:380] inception_4b/1x1 -> inception_4b/1x1
I1123 12:33:15.103735 28480 net.cpp:122] Setting up inception_4b/1x1
I1123 12:33:15.103747 28480 net.cpp:129] Top shape: 3 160 14 14 (94080)
I1123 12:33:15.103760 28480 net.cpp:137] Memory required for data: 118650100
I1123 12:33:15.103765 28480 layer_factory.hpp:77] Creating layer inception_4b/relu_1x1
I1123 12:33:15.103770 28480 net.cpp:84] Creating Layer inception_4b/relu_1x1
I1123 12:33:15.103772 28480 net.cpp:406] inception_4b/relu_1x1 <- inception_4b/1x1
I1123 12:33:15.103775 28480 net.cpp:367] inception_4b/relu_1x1 -> inception_4b/1x1 (in-place)
I1123 12:33:15.104351 28480 net.cpp:122] Setting up inception_4b/relu_1x1
I1123 12:33:15.104362 28480 net.cpp:129] Top shape: 3 160 14 14 (94080)
I1123 12:33:15.104363 28480 net.cpp:137] Memory required for data: 119026420
I1123 12:33:15.104367 28480 layer_factory.hpp:77] Creating layer inception_4b/3x3_reduce
I1123 12:33:15.104373 28480 net.cpp:84] Creating Layer inception_4b/3x3_reduce
I1123 12:33:15.104377 28480 net.cpp:406] inception_4b/3x3_reduce <- inception_4a/output_inception_4a/output_0_split_2
I1123 12:33:15.104382 28480 net.cpp:380] inception_4b/3x3_reduce -> inception_4b/3x3_reduce
I1123 12:33:15.106566 28480 net.cpp:122] Setting up inception_4b/3x3_reduce
I1123 12:33:15.106580 28480 net.cpp:129] Top shape: 3 112 14 14 (65856)
I1123 12:33:15.106582 28480 net.cpp:137] Memory required for data: 119289844
I1123 12:33:15.106587 28480 layer_factory.hpp:77] Creating layer inception_4b/relu_3x3_reduce
I1123 12:33:15.106591 28480 net.cpp:84] Creating Layer inception_4b/relu_3x3_reduce
I1123 12:33:15.106595 28480 net.cpp:406] inception_4b/relu_3x3_reduce <- inception_4b/3x3_reduce
I1123 12:33:15.106598 28480 net.cpp:367] inception_4b/relu_3x3_reduce -> inception_4b/3x3_reduce (in-place)
I1123 12:33:15.106741 28480 net.cpp:122] Setting up inception_4b/relu_3x3_reduce
I1123 12:33:15.106750 28480 net.cpp:129] Top shape: 3 112 14 14 (65856)
I1123 12:33:15.106751 28480 net.cpp:137] Memory required for data: 119553268
I1123 12:33:15.106753 28480 layer_factory.hpp:77] Creating layer inception_4b/3x3
I1123 12:33:15.106761 28480 net.cpp:84] Creating Layer inception_4b/3x3
I1123 12:33:15.106765 28480 net.cpp:406] inception_4b/3x3 <- inception_4b/3x3_reduce
I1123 12:33:15.106776 28480 net.cpp:380] inception_4b/3x3 -> inception_4b/3x3
I1123 12:33:15.110069 28480 net.cpp:122] Setting up inception_4b/3x3
I1123 12:33:15.110080 28480 net.cpp:129] Top shape: 3 224 14 14 (131712)
I1123 12:33:15.110082 28480 net.cpp:137] Memory required for data: 120080116
I1123 12:33:15.110087 28480 layer_factory.hpp:77] Creating layer inception_4b/relu_3x3
I1123 12:33:15.110093 28480 net.cpp:84] Creating Layer inception_4b/relu_3x3
I1123 12:33:15.110096 28480 net.cpp:406] inception_4b/relu_3x3 <- inception_4b/3x3
I1123 12:33:15.110100 28480 net.cpp:367] inception_4b/relu_3x3 -> inception_4b/3x3 (in-place)
I1123 12:33:15.110699 28480 net.cpp:122] Setting up inception_4b/relu_3x3
I1123 12:33:15.110709 28480 net.cpp:129] Top shape: 3 224 14 14 (131712)
I1123 12:33:15.110711 28480 net.cpp:137] Memory required for data: 120606964
I1123 12:33:15.110714 28480 layer_factory.hpp:77] Creating layer inception_4b/5x5_reduce
I1123 12:33:15.110721 28480 net.cpp:84] Creating Layer inception_4b/5x5_reduce
I1123 12:33:15.110724 28480 net.cpp:406] inception_4b/5x5_reduce <- inception_4a/output_inception_4a/output_0_split_3
I1123 12:33:15.110730 28480 net.cpp:380] inception_4b/5x5_reduce -> inception_4b/5x5_reduce
I1123 12:33:15.111902 28480 net.cpp:122] Setting up inception_4b/5x5_reduce
I1123 12:33:15.111915 28480 net.cpp:129] Top shape: 3 24 14 14 (14112)
I1123 12:33:15.111917 28480 net.cpp:137] Memory required for data: 120663412
I1123 12:33:15.111922 28480 layer_factory.hpp:77] Creating layer inception_4b/relu_5x5_reduce
I1123 12:33:15.111927 28480 net.cpp:84] Creating Layer inception_4b/relu_5x5_reduce
I1123 12:33:15.111929 28480 net.cpp:406] inception_4b/relu_5x5_reduce <- inception_4b/5x5_reduce
I1123 12:33:15.111933 28480 net.cpp:367] inception_4b/relu_5x5_reduce -> inception_4b/5x5_reduce (in-place)
I1123 12:33:15.112515 28480 net.cpp:122] Setting up inception_4b/relu_5x5_reduce
I1123 12:33:15.112525 28480 net.cpp:129] Top shape: 3 24 14 14 (14112)
I1123 12:33:15.112536 28480 net.cpp:137] Memory required for data: 120719860
I1123 12:33:15.112540 28480 layer_factory.hpp:77] Creating layer inception_4b/5x5
I1123 12:33:15.112548 28480 net.cpp:84] Creating Layer inception_4b/5x5
I1123 12:33:15.112551 28480 net.cpp:406] inception_4b/5x5 <- inception_4b/5x5_reduce
I1123 12:33:15.112558 28480 net.cpp:380] inception_4b/5x5 -> inception_4b/5x5
I1123 12:33:15.114265 28480 net.cpp:122] Setting up inception_4b/5x5
I1123 12:33:15.114277 28480 net.cpp:129] Top shape: 3 64 14 14 (37632)
I1123 12:33:15.114279 28480 net.cpp:137] Memory required for data: 120870388
I1123 12:33:15.114284 28480 layer_factory.hpp:77] Creating layer inception_4b/relu_5x5
I1123 12:33:15.114289 28480 net.cpp:84] Creating Layer inception_4b/relu_5x5
I1123 12:33:15.114291 28480 net.cpp:406] inception_4b/relu_5x5 <- inception_4b/5x5
I1123 12:33:15.114295 28480 net.cpp:367] inception_4b/relu_5x5 -> inception_4b/5x5 (in-place)
I1123 12:33:15.114444 28480 net.cpp:122] Setting up inception_4b/relu_5x5
I1123 12:33:15.114451 28480 net.cpp:129] Top shape: 3 64 14 14 (37632)
I1123 12:33:15.114454 28480 net.cpp:137] Memory required for data: 121020916
I1123 12:33:15.114455 28480 layer_factory.hpp:77] Creating layer inception_4b/pool
I1123 12:33:15.114461 28480 net.cpp:84] Creating Layer inception_4b/pool
I1123 12:33:15.114464 28480 net.cpp:406] inception_4b/pool <- inception_4a/output_inception_4a/output_0_split_4
I1123 12:33:15.114468 28480 net.cpp:380] inception_4b/pool -> inception_4b/pool
I1123 12:33:15.114521 28480 net.cpp:122] Setting up inception_4b/pool
I1123 12:33:15.114527 28480 net.cpp:129] Top shape: 3 512 14 14 (301056)
I1123 12:33:15.114529 28480 net.cpp:137] Memory required for data: 122225140
I1123 12:33:15.114531 28480 layer_factory.hpp:77] Creating layer inception_4b/pool_proj
I1123 12:33:15.114538 28480 net.cpp:84] Creating Layer inception_4b/pool_proj
I1123 12:33:15.114542 28480 net.cpp:406] inception_4b/pool_proj <- inception_4b/pool
I1123 12:33:15.114547 28480 net.cpp:380] inception_4b/pool_proj -> inception_4b/pool_proj
I1123 12:33:15.116591 28480 net.cpp:122] Setting up inception_4b/pool_proj
I1123 12:33:15.116602 28480 net.cpp:129] Top shape: 3 64 14 14 (37632)
I1123 12:33:15.116605 28480 net.cpp:137] Memory required for data: 122375668
I1123 12:33:15.116610 28480 layer_factory.hpp:77] Creating layer inception_4b/relu_pool_proj
I1123 12:33:15.116614 28480 net.cpp:84] Creating Layer inception_4b/relu_pool_proj
I1123 12:33:15.116617 28480 net.cpp:406] inception_4b/relu_pool_proj <- inception_4b/pool_proj
I1123 12:33:15.116621 28480 net.cpp:367] inception_4b/relu_pool_proj -> inception_4b/pool_proj (in-place)
I1123 12:33:15.117223 28480 net.cpp:122] Setting up inception_4b/relu_pool_proj
I1123 12:33:15.117234 28480 net.cpp:129] Top shape: 3 64 14 14 (37632)
I1123 12:33:15.117236 28480 net.cpp:137] Memory required for data: 122526196
I1123 12:33:15.117239 28480 layer_factory.hpp:77] Creating layer inception_4b/output
I1123 12:33:15.117244 28480 net.cpp:84] Creating Layer inception_4b/output
I1123 12:33:15.117246 28480 net.cpp:406] inception_4b/output <- inception_4b/1x1
I1123 12:33:15.117249 28480 net.cpp:406] inception_4b/output <- inception_4b/3x3
I1123 12:33:15.117252 28480 net.cpp:406] inception_4b/output <- inception_4b/5x5
I1123 12:33:15.117256 28480 net.cpp:406] inception_4b/output <- inception_4b/pool_proj
I1123 12:33:15.117259 28480 net.cpp:380] inception_4b/output -> inception_4b/output
I1123 12:33:15.117288 28480 net.cpp:122] Setting up inception_4b/output
I1123 12:33:15.117295 28480 net.cpp:129] Top shape: 3 512 14 14 (301056)
I1123 12:33:15.117297 28480 net.cpp:137] Memory required for data: 123730420
I1123 12:33:15.117300 28480 layer_factory.hpp:77] Creating layer inception_4b/output_inception_4b/output_0_split
I1123 12:33:15.117303 28480 net.cpp:84] Creating Layer inception_4b/output_inception_4b/output_0_split
I1123 12:33:15.117305 28480 net.cpp:406] inception_4b/output_inception_4b/output_0_split <- inception_4b/output
I1123 12:33:15.117310 28480 net.cpp:380] inception_4b/output_inception_4b/output_0_split -> inception_4b/output_inception_4b/output_0_split_0
I1123 12:33:15.117323 28480 net.cpp:380] inception_4b/output_inception_4b/output_0_split -> inception_4b/output_inception_4b/output_0_split_1
I1123 12:33:15.117328 28480 net.cpp:380] inception_4b/output_inception_4b/output_0_split -> inception_4b/output_inception_4b/output_0_split_2
I1123 12:33:15.117332 28480 net.cpp:380] inception_4b/output_inception_4b/output_0_split -> inception_4b/output_inception_4b/output_0_split_3
I1123 12:33:15.117384 28480 net.cpp:122] Setting up inception_4b/output_inception_4b/output_0_split
I1123 12:33:15.117390 28480 net.cpp:129] Top shape: 3 512 14 14 (301056)
I1123 12:33:15.117393 28480 net.cpp:129] Top shape: 3 512 14 14 (301056)
I1123 12:33:15.117395 28480 net.cpp:129] Top shape: 3 512 14 14 (301056)
I1123 12:33:15.117398 28480 net.cpp:129] Top shape: 3 512 14 14 (301056)
I1123 12:33:15.117399 28480 net.cpp:137] Memory required for data: 128547316
I1123 12:33:15.117401 28480 layer_factory.hpp:77] Creating layer inception_4c/1x1
I1123 12:33:15.117410 28480 net.cpp:84] Creating Layer inception_4c/1x1
I1123 12:33:15.117413 28480 net.cpp:406] inception_4c/1x1 <- inception_4b/output_inception_4b/output_0_split_0
I1123 12:33:15.117418 28480 net.cpp:380] inception_4c/1x1 -> inception_4c/1x1
I1123 12:33:15.118746 28480 net.cpp:122] Setting up inception_4c/1x1
I1123 12:33:15.118757 28480 net.cpp:129] Top shape: 3 128 14 14 (75264)
I1123 12:33:15.118758 28480 net.cpp:137] Memory required for data: 128848372
I1123 12:33:15.118763 28480 layer_factory.hpp:77] Creating layer inception_4c/relu_1x1
I1123 12:33:15.118768 28480 net.cpp:84] Creating Layer inception_4c/relu_1x1
I1123 12:33:15.118772 28480 net.cpp:406] inception_4c/relu_1x1 <- inception_4c/1x1
I1123 12:33:15.118774 28480 net.cpp:367] inception_4c/relu_1x1 -> inception_4c/1x1 (in-place)
I1123 12:33:15.119343 28480 net.cpp:122] Setting up inception_4c/relu_1x1
I1123 12:33:15.119354 28480 net.cpp:129] Top shape: 3 128 14 14 (75264)
I1123 12:33:15.119355 28480 net.cpp:137] Memory required for data: 129149428
I1123 12:33:15.119357 28480 layer_factory.hpp:77] Creating layer inception_4c/3x3_reduce
I1123 12:33:15.119367 28480 net.cpp:84] Creating Layer inception_4c/3x3_reduce
I1123 12:33:15.119370 28480 net.cpp:406] inception_4c/3x3_reduce <- inception_4b/output_inception_4b/output_0_split_1
I1123 12:33:15.119374 28480 net.cpp:380] inception_4c/3x3_reduce -> inception_4c/3x3_reduce
I1123 12:33:15.121137 28480 net.cpp:122] Setting up inception_4c/3x3_reduce
I1123 12:33:15.121147 28480 net.cpp:129] Top shape: 3 128 14 14 (75264)
I1123 12:33:15.121150 28480 net.cpp:137] Memory required for data: 129450484
I1123 12:33:15.121155 28480 layer_factory.hpp:77] Creating layer inception_4c/relu_3x3_reduce
I1123 12:33:15.121158 28480 net.cpp:84] Creating Layer inception_4c/relu_3x3_reduce
I1123 12:33:15.121161 28480 net.cpp:406] inception_4c/relu_3x3_reduce <- inception_4c/3x3_reduce
I1123 12:33:15.121166 28480 net.cpp:367] inception_4c/relu_3x3_reduce -> inception_4c/3x3_reduce (in-place)
I1123 12:33:15.121304 28480 net.cpp:122] Setting up inception_4c/relu_3x3_reduce
I1123 12:33:15.121312 28480 net.cpp:129] Top shape: 3 128 14 14 (75264)
I1123 12:33:15.121315 28480 net.cpp:137] Memory required for data: 129751540
I1123 12:33:15.121316 28480 layer_factory.hpp:77] Creating layer inception_4c/3x3
I1123 12:33:15.121325 28480 net.cpp:84] Creating Layer inception_4c/3x3
I1123 12:33:15.121327 28480 net.cpp:406] inception_4c/3x3 <- inception_4c/3x3_reduce
I1123 12:33:15.121331 28480 net.cpp:380] inception_4c/3x3 -> inception_4c/3x3
I1123 12:33:15.124840 28480 net.cpp:122] Setting up inception_4c/3x3
I1123 12:33:15.124850 28480 net.cpp:129] Top shape: 3 256 14 14 (150528)
I1123 12:33:15.124853 28480 net.cpp:137] Memory required for data: 130353652
I1123 12:33:15.124867 28480 layer_factory.hpp:77] Creating layer inception_4c/relu_3x3
I1123 12:33:15.124872 28480 net.cpp:84] Creating Layer inception_4c/relu_3x3
I1123 12:33:15.124874 28480 net.cpp:406] inception_4c/relu_3x3 <- inception_4c/3x3
I1123 12:33:15.124888 28480 net.cpp:367] inception_4c/relu_3x3 -> inception_4c/3x3 (in-place)
I1123 12:33:15.125495 28480 net.cpp:122] Setting up inception_4c/relu_3x3
I1123 12:33:15.125505 28480 net.cpp:129] Top shape: 3 256 14 14 (150528)
I1123 12:33:15.125507 28480 net.cpp:137] Memory required for data: 130955764
I1123 12:33:15.125509 28480 layer_factory.hpp:77] Creating layer inception_4c/5x5_reduce
I1123 12:33:15.125519 28480 net.cpp:84] Creating Layer inception_4c/5x5_reduce
I1123 12:33:15.125521 28480 net.cpp:406] inception_4c/5x5_reduce <- inception_4b/output_inception_4b/output_0_split_2
I1123 12:33:15.125526 28480 net.cpp:380] inception_4c/5x5_reduce -> inception_4c/5x5_reduce
I1123 12:33:15.126632 28480 net.cpp:122] Setting up inception_4c/5x5_reduce
I1123 12:33:15.126643 28480 net.cpp:129] Top shape: 3 24 14 14 (14112)
I1123 12:33:15.126646 28480 net.cpp:137] Memory required for data: 131012212
I1123 12:33:15.126651 28480 layer_factory.hpp:77] Creating layer inception_4c/relu_5x5_reduce
I1123 12:33:15.126654 28480 net.cpp:84] Creating Layer inception_4c/relu_5x5_reduce
I1123 12:33:15.126657 28480 net.cpp:406] inception_4c/relu_5x5_reduce <- inception_4c/5x5_reduce
I1123 12:33:15.126662 28480 net.cpp:367] inception_4c/relu_5x5_reduce -> inception_4c/5x5_reduce (in-place)
I1123 12:33:15.127219 28480 net.cpp:122] Setting up inception_4c/relu_5x5_reduce
I1123 12:33:15.127228 28480 net.cpp:129] Top shape: 3 24 14 14 (14112)
I1123 12:33:15.127230 28480 net.cpp:137] Memory required for data: 131068660
I1123 12:33:15.127233 28480 layer_factory.hpp:77] Creating layer inception_4c/5x5
I1123 12:33:15.127240 28480 net.cpp:84] Creating Layer inception_4c/5x5
I1123 12:33:15.127243 28480 net.cpp:406] inception_4c/5x5 <- inception_4c/5x5_reduce
I1123 12:33:15.127249 28480 net.cpp:380] inception_4c/5x5 -> inception_4c/5x5
I1123 12:33:15.129276 28480 net.cpp:122] Setting up inception_4c/5x5
I1123 12:33:15.129287 28480 net.cpp:129] Top shape: 3 64 14 14 (37632)
I1123 12:33:15.129289 28480 net.cpp:137] Memory required for data: 131219188
I1123 12:33:15.129293 28480 layer_factory.hpp:77] Creating layer inception_4c/relu_5x5
I1123 12:33:15.129299 28480 net.cpp:84] Creating Layer inception_4c/relu_5x5
I1123 12:33:15.129302 28480 net.cpp:406] inception_4c/relu_5x5 <- inception_4c/5x5
I1123 12:33:15.129305 28480 net.cpp:367] inception_4c/relu_5x5 -> inception_4c/5x5 (in-place)
I1123 12:33:15.129448 28480 net.cpp:122] Setting up inception_4c/relu_5x5
I1123 12:33:15.129456 28480 net.cpp:129] Top shape: 3 64 14 14 (37632)
I1123 12:33:15.129458 28480 net.cpp:137] Memory required for data: 131369716
I1123 12:33:15.129461 28480 layer_factory.hpp:77] Creating layer inception_4c/pool
I1123 12:33:15.129465 28480 net.cpp:84] Creating Layer inception_4c/pool
I1123 12:33:15.129468 28480 net.cpp:406] inception_4c/pool <- inception_4b/output_inception_4b/output_0_split_3
I1123 12:33:15.129473 28480 net.cpp:380] inception_4c/pool -> inception_4c/pool
I1123 12:33:15.129514 28480 net.cpp:122] Setting up inception_4c/pool
I1123 12:33:15.129520 28480 net.cpp:129] Top shape: 3 512 14 14 (301056)
I1123 12:33:15.129523 28480 net.cpp:137] Memory required for data: 132573940
I1123 12:33:15.129524 28480 layer_factory.hpp:77] Creating layer inception_4c/pool_proj
I1123 12:33:15.129531 28480 net.cpp:84] Creating Layer inception_4c/pool_proj
I1123 12:33:15.129534 28480 net.cpp:406] inception_4c/pool_proj <- inception_4c/pool
I1123 12:33:15.129539 28480 net.cpp:380] inception_4c/pool_proj -> inception_4c/pool_proj
I1123 12:33:15.131140 28480 net.cpp:122] Setting up inception_4c/pool_proj
I1123 12:33:15.131151 28480 net.cpp:129] Top shape: 3 64 14 14 (37632)
I1123 12:33:15.131153 28480 net.cpp:137] Memory required for data: 132724468
I1123 12:33:15.131158 28480 layer_factory.hpp:77] Creating layer inception_4c/relu_pool_proj
I1123 12:33:15.131162 28480 net.cpp:84] Creating Layer inception_4c/relu_pool_proj
I1123 12:33:15.131165 28480 net.cpp:406] inception_4c/relu_pool_proj <- inception_4c/pool_proj
I1123 12:33:15.131168 28480 net.cpp:367] inception_4c/relu_pool_proj -> inception_4c/pool_proj (in-place)
I1123 12:33:15.131752 28480 net.cpp:122] Setting up inception_4c/relu_pool_proj
I1123 12:33:15.131762 28480 net.cpp:129] Top shape: 3 64 14 14 (37632)
I1123 12:33:15.131764 28480 net.cpp:137] Memory required for data: 132874996
I1123 12:33:15.131769 28480 layer_factory.hpp:77] Creating layer inception_4c/output
I1123 12:33:15.131774 28480 net.cpp:84] Creating Layer inception_4c/output
I1123 12:33:15.131778 28480 net.cpp:406] inception_4c/output <- inception_4c/1x1
I1123 12:33:15.131780 28480 net.cpp:406] inception_4c/output <- inception_4c/3x3
I1123 12:33:15.131783 28480 net.cpp:406] inception_4c/output <- inception_4c/5x5
I1123 12:33:15.131785 28480 net.cpp:406] inception_4c/output <- inception_4c/pool_proj
I1123 12:33:15.131789 28480 net.cpp:380] inception_4c/output -> inception_4c/output
I1123 12:33:15.131819 28480 net.cpp:122] Setting up inception_4c/output
I1123 12:33:15.131822 28480 net.cpp:129] Top shape: 3 512 14 14 (301056)
I1123 12:33:15.131824 28480 net.cpp:137] Memory required for data: 134079220
I1123 12:33:15.131827 28480 layer_factory.hpp:77] Creating layer inception_4c/output_inception_4c/output_0_split
I1123 12:33:15.131834 28480 net.cpp:84] Creating Layer inception_4c/output_inception_4c/output_0_split
I1123 12:33:15.131836 28480 net.cpp:406] inception_4c/output_inception_4c/output_0_split <- inception_4c/output
I1123 12:33:15.131840 28480 net.cpp:380] inception_4c/output_inception_4c/output_0_split -> inception_4c/output_inception_4c/output_0_split_0
I1123 12:33:15.131845 28480 net.cpp:380] inception_4c/output_inception_4c/output_0_split -> inception_4c/output_inception_4c/output_0_split_1
I1123 12:33:15.131850 28480 net.cpp:380] inception_4c/output_inception_4c/output_0_split -> inception_4c/output_inception_4c/output_0_split_2
I1123 12:33:15.131853 28480 net.cpp:380] inception_4c/output_inception_4c/output_0_split -> inception_4c/output_inception_4c/output_0_split_3
I1123 12:33:15.131907 28480 net.cpp:122] Setting up inception_4c/output_inception_4c/output_0_split
I1123 12:33:15.131913 28480 net.cpp:129] Top shape: 3 512 14 14 (301056)
I1123 12:33:15.131916 28480 net.cpp:129] Top shape: 3 512 14 14 (301056)
I1123 12:33:15.131918 28480 net.cpp:129] Top shape: 3 512 14 14 (301056)
I1123 12:33:15.131920 28480 net.cpp:129] Top shape: 3 512 14 14 (301056)
I1123 12:33:15.131923 28480 net.cpp:137] Memory required for data: 138896116
I1123 12:33:15.131925 28480 layer_factory.hpp:77] Creating layer inception_4d/1x1
I1123 12:33:15.131932 28480 net.cpp:84] Creating Layer inception_4d/1x1
I1123 12:33:15.131934 28480 net.cpp:406] inception_4d/1x1 <- inception_4c/output_inception_4c/output_0_split_0
I1123 12:33:15.131939 28480 net.cpp:380] inception_4d/1x1 -> inception_4d/1x1
I1123 12:33:15.133225 28480 net.cpp:122] Setting up inception_4d/1x1
I1123 12:33:15.133236 28480 net.cpp:129] Top shape: 3 112 14 14 (65856)
I1123 12:33:15.133239 28480 net.cpp:137] Memory required for data: 139159540
I1123 12:33:15.133244 28480 layer_factory.hpp:77] Creating layer inception_4d/relu_1x1
I1123 12:33:15.133247 28480 net.cpp:84] Creating Layer inception_4d/relu_1x1
I1123 12:33:15.133250 28480 net.cpp:406] inception_4d/relu_1x1 <- inception_4d/1x1
I1123 12:33:15.133255 28480 net.cpp:367] inception_4d/relu_1x1 -> inception_4d/1x1 (in-place)
I1123 12:33:15.133811 28480 net.cpp:122] Setting up inception_4d/relu_1x1
I1123 12:33:15.133821 28480 net.cpp:129] Top shape: 3 112 14 14 (65856)
I1123 12:33:15.133823 28480 net.cpp:137] Memory required for data: 139422964
I1123 12:33:15.133826 28480 layer_factory.hpp:77] Creating layer inception_4d/3x3_reduce
I1123 12:33:15.133833 28480 net.cpp:84] Creating Layer inception_4d/3x3_reduce
I1123 12:33:15.133836 28480 net.cpp:406] inception_4d/3x3_reduce <- inception_4c/output_inception_4c/output_0_split_1
I1123 12:33:15.133841 28480 net.cpp:380] inception_4d/3x3_reduce -> inception_4d/3x3_reduce
I1123 12:33:15.136034 28480 net.cpp:122] Setting up inception_4d/3x3_reduce
I1123 12:33:15.136046 28480 net.cpp:129] Top shape: 3 144 14 14 (84672)
I1123 12:33:15.136057 28480 net.cpp:137] Memory required for data: 139761652
I1123 12:33:15.136062 28480 layer_factory.hpp:77] Creating layer inception_4d/relu_3x3_reduce
I1123 12:33:15.136067 28480 net.cpp:84] Creating Layer inception_4d/relu_3x3_reduce
I1123 12:33:15.136070 28480 net.cpp:406] inception_4d/relu_3x3_reduce <- inception_4d/3x3_reduce
I1123 12:33:15.136075 28480 net.cpp:367] inception_4d/relu_3x3_reduce -> inception_4d/3x3_reduce (in-place)
I1123 12:33:15.136211 28480 net.cpp:122] Setting up inception_4d/relu_3x3_reduce
I1123 12:33:15.136219 28480 net.cpp:129] Top shape: 3 144 14 14 (84672)
I1123 12:33:15.136221 28480 net.cpp:137] Memory required for data: 140100340
I1123 12:33:15.136224 28480 layer_factory.hpp:77] Creating layer inception_4d/3x3
I1123 12:33:15.136230 28480 net.cpp:84] Creating Layer inception_4d/3x3
I1123 12:33:15.136232 28480 net.cpp:406] inception_4d/3x3 <- inception_4d/3x3_reduce
I1123 12:33:15.136238 28480 net.cpp:380] inception_4d/3x3 -> inception_4d/3x3
I1123 12:33:15.140094 28480 net.cpp:122] Setting up inception_4d/3x3
I1123 12:33:15.140105 28480 net.cpp:129] Top shape: 3 288 14 14 (169344)
I1123 12:33:15.140107 28480 net.cpp:137] Memory required for data: 140777716
I1123 12:33:15.140112 28480 layer_factory.hpp:77] Creating layer inception_4d/relu_3x3
I1123 12:33:15.140116 28480 net.cpp:84] Creating Layer inception_4d/relu_3x3
I1123 12:33:15.140120 28480 net.cpp:406] inception_4d/relu_3x3 <- inception_4d/3x3
I1123 12:33:15.140123 28480 net.cpp:367] inception_4d/relu_3x3 -> inception_4d/3x3 (in-place)
I1123 12:33:15.140691 28480 net.cpp:122] Setting up inception_4d/relu_3x3
I1123 12:33:15.140700 28480 net.cpp:129] Top shape: 3 288 14 14 (169344)
I1123 12:33:15.140702 28480 net.cpp:137] Memory required for data: 141455092
I1123 12:33:15.140704 28480 layer_factory.hpp:77] Creating layer inception_4d/5x5_reduce
I1123 12:33:15.140712 28480 net.cpp:84] Creating Layer inception_4d/5x5_reduce
I1123 12:33:15.140715 28480 net.cpp:406] inception_4d/5x5_reduce <- inception_4c/output_inception_4c/output_0_split_2
I1123 12:33:15.140722 28480 net.cpp:380] inception_4d/5x5_reduce -> inception_4d/5x5_reduce
I1123 12:33:15.141885 28480 net.cpp:122] Setting up inception_4d/5x5_reduce
I1123 12:33:15.141894 28480 net.cpp:129] Top shape: 3 32 14 14 (18816)
I1123 12:33:15.141897 28480 net.cpp:137] Memory required for data: 141530356
I1123 12:33:15.141901 28480 layer_factory.hpp:77] Creating layer inception_4d/relu_5x5_reduce
I1123 12:33:15.141906 28480 net.cpp:84] Creating Layer inception_4d/relu_5x5_reduce
I1123 12:33:15.141908 28480 net.cpp:406] inception_4d/relu_5x5_reduce <- inception_4d/5x5_reduce
I1123 12:33:15.141912 28480 net.cpp:367] inception_4d/relu_5x5_reduce -> inception_4d/5x5_reduce (in-place)
I1123 12:33:15.142472 28480 net.cpp:122] Setting up inception_4d/relu_5x5_reduce
I1123 12:33:15.142482 28480 net.cpp:129] Top shape: 3 32 14 14 (18816)
I1123 12:33:15.142484 28480 net.cpp:137] Memory required for data: 141605620
I1123 12:33:15.142488 28480 layer_factory.hpp:77] Creating layer inception_4d/5x5
I1123 12:33:15.142494 28480 net.cpp:84] Creating Layer inception_4d/5x5
I1123 12:33:15.142498 28480 net.cpp:406] inception_4d/5x5 <- inception_4d/5x5_reduce
I1123 12:33:15.142503 28480 net.cpp:380] inception_4d/5x5 -> inception_4d/5x5
I1123 12:33:15.144196 28480 net.cpp:122] Setting up inception_4d/5x5
I1123 12:33:15.144206 28480 net.cpp:129] Top shape: 3 64 14 14 (37632)
I1123 12:33:15.144208 28480 net.cpp:137] Memory required for data: 141756148
I1123 12:33:15.144212 28480 layer_factory.hpp:77] Creating layer inception_4d/relu_5x5
I1123 12:33:15.144217 28480 net.cpp:84] Creating Layer inception_4d/relu_5x5
I1123 12:33:15.144219 28480 net.cpp:406] inception_4d/relu_5x5 <- inception_4d/5x5
I1123 12:33:15.144224 28480 net.cpp:367] inception_4d/relu_5x5 -> inception_4d/5x5 (in-place)
I1123 12:33:15.144366 28480 net.cpp:122] Setting up inception_4d/relu_5x5
I1123 12:33:15.144376 28480 net.cpp:129] Top shape: 3 64 14 14 (37632)
I1123 12:33:15.144377 28480 net.cpp:137] Memory required for data: 141906676
I1123 12:33:15.144387 28480 layer_factory.hpp:77] Creating layer inception_4d/pool
I1123 12:33:15.144392 28480 net.cpp:84] Creating Layer inception_4d/pool
I1123 12:33:15.144395 28480 net.cpp:406] inception_4d/pool <- inception_4c/output_inception_4c/output_0_split_3
I1123 12:33:15.144399 28480 net.cpp:380] inception_4d/pool -> inception_4d/pool
I1123 12:33:15.144444 28480 net.cpp:122] Setting up inception_4d/pool
I1123 12:33:15.144450 28480 net.cpp:129] Top shape: 3 512 14 14 (301056)
I1123 12:33:15.144453 28480 net.cpp:137] Memory required for data: 143110900
I1123 12:33:15.144454 28480 layer_factory.hpp:77] Creating layer inception_4d/pool_proj
I1123 12:33:15.144462 28480 net.cpp:84] Creating Layer inception_4d/pool_proj
I1123 12:33:15.144465 28480 net.cpp:406] inception_4d/pool_proj <- inception_4d/pool
I1123 12:33:15.144470 28480 net.cpp:380] inception_4d/pool_proj -> inception_4d/pool_proj
I1123 12:33:15.146100 28480 net.cpp:122] Setting up inception_4d/pool_proj
I1123 12:33:15.146111 28480 net.cpp:129] Top shape: 3 64 14 14 (37632)
I1123 12:33:15.146112 28480 net.cpp:137] Memory required for data: 143261428
I1123 12:33:15.146117 28480 layer_factory.hpp:77] Creating layer inception_4d/relu_pool_proj
I1123 12:33:15.146122 28480 net.cpp:84] Creating Layer inception_4d/relu_pool_proj
I1123 12:33:15.146126 28480 net.cpp:406] inception_4d/relu_pool_proj <- inception_4d/pool_proj
I1123 12:33:15.146129 28480 net.cpp:367] inception_4d/relu_pool_proj -> inception_4d/pool_proj (in-place)
I1123 12:33:15.146783 28480 net.cpp:122] Setting up inception_4d/relu_pool_proj
I1123 12:33:15.146793 28480 net.cpp:129] Top shape: 3 64 14 14 (37632)
I1123 12:33:15.146795 28480 net.cpp:137] Memory required for data: 143411956
I1123 12:33:15.146798 28480 layer_factory.hpp:77] Creating layer inception_4d/output
I1123 12:33:15.146803 28480 net.cpp:84] Creating Layer inception_4d/output
I1123 12:33:15.146806 28480 net.cpp:406] inception_4d/output <- inception_4d/1x1
I1123 12:33:15.146809 28480 net.cpp:406] inception_4d/output <- inception_4d/3x3
I1123 12:33:15.146811 28480 net.cpp:406] inception_4d/output <- inception_4d/5x5
I1123 12:33:15.146814 28480 net.cpp:406] inception_4d/output <- inception_4d/pool_proj
I1123 12:33:15.146817 28480 net.cpp:380] inception_4d/output -> inception_4d/output
I1123 12:33:15.146847 28480 net.cpp:122] Setting up inception_4d/output
I1123 12:33:15.146852 28480 net.cpp:129] Top shape: 3 528 14 14 (310464)
I1123 12:33:15.146853 28480 net.cpp:137] Memory required for data: 144653812
I1123 12:33:15.146855 28480 layer_factory.hpp:77] Creating layer inception_4d/output_inception_4d/output_0_split
I1123 12:33:15.146860 28480 net.cpp:84] Creating Layer inception_4d/output_inception_4d/output_0_split
I1123 12:33:15.146863 28480 net.cpp:406] inception_4d/output_inception_4d/output_0_split <- inception_4d/output
I1123 12:33:15.146868 28480 net.cpp:380] inception_4d/output_inception_4d/output_0_split -> inception_4d/output_inception_4d/output_0_split_0
I1123 12:33:15.146873 28480 net.cpp:380] inception_4d/output_inception_4d/output_0_split -> inception_4d/output_inception_4d/output_0_split_1
I1123 12:33:15.146878 28480 net.cpp:380] inception_4d/output_inception_4d/output_0_split -> inception_4d/output_inception_4d/output_0_split_2
I1123 12:33:15.146883 28480 net.cpp:380] inception_4d/output_inception_4d/output_0_split -> inception_4d/output_inception_4d/output_0_split_3
I1123 12:33:15.146886 28480 net.cpp:380] inception_4d/output_inception_4d/output_0_split -> inception_4d/output_inception_4d/output_0_split_4
I1123 12:33:15.146952 28480 net.cpp:122] Setting up inception_4d/output_inception_4d/output_0_split
I1123 12:33:15.146958 28480 net.cpp:129] Top shape: 3 528 14 14 (310464)
I1123 12:33:15.146961 28480 net.cpp:129] Top shape: 3 528 14 14 (310464)
I1123 12:33:15.146963 28480 net.cpp:129] Top shape: 3 528 14 14 (310464)
I1123 12:33:15.146966 28480 net.cpp:129] Top shape: 3 528 14 14 (310464)
I1123 12:33:15.146968 28480 net.cpp:129] Top shape: 3 528 14 14 (310464)
I1123 12:33:15.146970 28480 net.cpp:137] Memory required for data: 150863092
I1123 12:33:15.146980 28480 layer_factory.hpp:77] Creating layer loss2/ave_pool
I1123 12:33:15.146986 28480 net.cpp:84] Creating Layer loss2/ave_pool
I1123 12:33:15.146987 28480 net.cpp:406] loss2/ave_pool <- inception_4d/output_inception_4d/output_0_split_0
I1123 12:33:15.146993 28480 net.cpp:380] loss2/ave_pool -> loss2/ave_pool
I1123 12:33:15.147148 28480 net.cpp:122] Setting up loss2/ave_pool
I1123 12:33:15.147156 28480 net.cpp:129] Top shape: 3 528 4 4 (25344)
I1123 12:33:15.147158 28480 net.cpp:137] Memory required for data: 150964468
I1123 12:33:15.147161 28480 layer_factory.hpp:77] Creating layer loss2/conv
I1123 12:33:15.147168 28480 net.cpp:84] Creating Layer loss2/conv
I1123 12:33:15.147171 28480 net.cpp:406] loss2/conv <- loss2/ave_pool
I1123 12:33:15.147177 28480 net.cpp:380] loss2/conv -> loss2/conv
I1123 12:33:15.149353 28480 net.cpp:122] Setting up loss2/conv
I1123 12:33:15.149365 28480 net.cpp:129] Top shape: 3 128 4 4 (6144)
I1123 12:33:15.149369 28480 net.cpp:137] Memory required for data: 150989044
I1123 12:33:15.149372 28480 layer_factory.hpp:77] Creating layer loss2/relu_conv
I1123 12:33:15.149376 28480 net.cpp:84] Creating Layer loss2/relu_conv
I1123 12:33:15.149379 28480 net.cpp:406] loss2/relu_conv <- loss2/conv
I1123 12:33:15.149382 28480 net.cpp:367] loss2/relu_conv -> loss2/conv (in-place)
I1123 12:33:15.149521 28480 net.cpp:122] Setting up loss2/relu_conv
I1123 12:33:15.149529 28480 net.cpp:129] Top shape: 3 128 4 4 (6144)
I1123 12:33:15.149531 28480 net.cpp:137] Memory required for data: 151013620
I1123 12:33:15.149534 28480 layer_factory.hpp:77] Creating layer loss2/fc
I1123 12:33:15.149539 28480 net.cpp:84] Creating Layer loss2/fc
I1123 12:33:15.149541 28480 net.cpp:406] loss2/fc <- loss2/conv
I1123 12:33:15.149546 28480 net.cpp:380] loss2/fc -> loss2/fc
I1123 12:33:15.159656 28480 net.cpp:122] Setting up loss2/fc
I1123 12:33:15.159673 28480 net.cpp:129] Top shape: 3 1024 (3072)
I1123 12:33:15.159677 28480 net.cpp:137] Memory required for data: 151025908
I1123 12:33:15.159682 28480 layer_factory.hpp:77] Creating layer loss2/relu_fc
I1123 12:33:15.159689 28480 net.cpp:84] Creating Layer loss2/relu_fc
I1123 12:33:15.159692 28480 net.cpp:406] loss2/relu_fc <- loss2/fc
I1123 12:33:15.159695 28480 net.cpp:367] loss2/relu_fc -> loss2/fc (in-place)
I1123 12:33:15.160312 28480 net.cpp:122] Setting up loss2/relu_fc
I1123 12:33:15.160322 28480 net.cpp:129] Top shape: 3 1024 (3072)
I1123 12:33:15.160325 28480 net.cpp:137] Memory required for data: 151038196
I1123 12:33:15.160326 28480 layer_factory.hpp:77] Creating layer loss2/drop_fc
I1123 12:33:15.160332 28480 net.cpp:84] Creating Layer loss2/drop_fc
I1123 12:33:15.160336 28480 net.cpp:406] loss2/drop_fc <- loss2/fc
I1123 12:33:15.160341 28480 net.cpp:367] loss2/drop_fc -> loss2/fc (in-place)
I1123 12:33:15.160372 28480 net.cpp:122] Setting up loss2/drop_fc
I1123 12:33:15.160377 28480 net.cpp:129] Top shape: 3 1024 (3072)
I1123 12:33:15.160379 28480 net.cpp:137] Memory required for data: 151050484
I1123 12:33:15.160382 28480 layer_factory.hpp:77] Creating layer loss2/classifier-gai
I1123 12:33:15.160387 28480 net.cpp:84] Creating Layer loss2/classifier-gai
I1123 12:33:15.160390 28480 net.cpp:406] loss2/classifier-gai <- loss2/fc
I1123 12:33:15.160393 28480 net.cpp:380] loss2/classifier-gai -> loss2/classifier-gai
I1123 12:33:15.160567 28480 net.cpp:122] Setting up loss2/classifier-gai
I1123 12:33:15.160574 28480 net.cpp:129] Top shape: 3 16 (48)
I1123 12:33:15.160576 28480 net.cpp:137] Memory required for data: 151050676
I1123 12:33:15.160580 28480 layer_factory.hpp:77] Creating layer lt2
I1123 12:33:15.160585 28480 net.cpp:84] Creating Layer lt2
I1123 12:33:15.160588 28480 net.cpp:406] lt2 <- loss2/classifier-gai
I1123 12:33:15.160590 28480 net.cpp:406] lt2 <- label_data_1_split_1
I1123 12:33:15.160594 28480 net.cpp:380] lt2 -> lt2
I1123 12:33:15.160600 28480 layer_factory.hpp:77] Creating layer lt2
I1123 12:33:15.161264 28480 net.cpp:122] Setting up lt2
I1123 12:33:15.161273 28480 net.cpp:129] Top shape: (1)
I1123 12:33:15.161275 28480 net.cpp:132]     with loss weight 0.3
I1123 12:33:15.161294 28480 net.cpp:137] Memory required for data: 151050680
I1123 12:33:15.161298 28480 layer_factory.hpp:77] Creating layer inception_4e/1x1
I1123 12:33:15.161306 28480 net.cpp:84] Creating Layer inception_4e/1x1
I1123 12:33:15.161309 28480 net.cpp:406] inception_4e/1x1 <- inception_4d/output_inception_4d/output_0_split_1
I1123 12:33:15.161315 28480 net.cpp:380] inception_4e/1x1 -> inception_4e/1x1
I1123 12:33:15.162937 28480 net.cpp:122] Setting up inception_4e/1x1
I1123 12:33:15.162948 28480 net.cpp:129] Top shape: 3 256 14 14 (150528)
I1123 12:33:15.162950 28480 net.cpp:137] Memory required for data: 151652792
I1123 12:33:15.162955 28480 layer_factory.hpp:77] Creating layer inception_4e/relu_1x1
I1123 12:33:15.162959 28480 net.cpp:84] Creating Layer inception_4e/relu_1x1
I1123 12:33:15.162961 28480 net.cpp:406] inception_4e/relu_1x1 <- inception_4e/1x1
I1123 12:33:15.162966 28480 net.cpp:367] inception_4e/relu_1x1 -> inception_4e/1x1 (in-place)
I1123 12:33:15.163530 28480 net.cpp:122] Setting up inception_4e/relu_1x1
I1123 12:33:15.163540 28480 net.cpp:129] Top shape: 3 256 14 14 (150528)
I1123 12:33:15.163542 28480 net.cpp:137] Memory required for data: 152254904
I1123 12:33:15.163544 28480 layer_factory.hpp:77] Creating layer inception_4e/3x3_reduce
I1123 12:33:15.163552 28480 net.cpp:84] Creating Layer inception_4e/3x3_reduce
I1123 12:33:15.163554 28480 net.cpp:406] inception_4e/3x3_reduce <- inception_4d/output_inception_4d/output_0_split_2
I1123 12:33:15.163560 28480 net.cpp:380] inception_4e/3x3_reduce -> inception_4e/3x3_reduce
I1123 12:33:15.166240 28480 net.cpp:122] Setting up inception_4e/3x3_reduce
I1123 12:33:15.166251 28480 net.cpp:129] Top shape: 3 160 14 14 (94080)
I1123 12:33:15.166254 28480 net.cpp:137] Memory required for data: 152631224
I1123 12:33:15.166259 28480 layer_factory.hpp:77] Creating layer inception_4e/relu_3x3_reduce
I1123 12:33:15.166263 28480 net.cpp:84] Creating Layer inception_4e/relu_3x3_reduce
I1123 12:33:15.166266 28480 net.cpp:406] inception_4e/relu_3x3_reduce <- inception_4e/3x3_reduce
I1123 12:33:15.166270 28480 net.cpp:367] inception_4e/relu_3x3_reduce -> inception_4e/3x3_reduce (in-place)
I1123 12:33:15.166409 28480 net.cpp:122] Setting up inception_4e/relu_3x3_reduce
I1123 12:33:15.166416 28480 net.cpp:129] Top shape: 3 160 14 14 (94080)
I1123 12:33:15.166419 28480 net.cpp:137] Memory required for data: 153007544
I1123 12:33:15.166420 28480 layer_factory.hpp:77] Creating layer inception_4e/3x3
I1123 12:33:15.166427 28480 net.cpp:84] Creating Layer inception_4e/3x3
I1123 12:33:15.166430 28480 net.cpp:406] inception_4e/3x3 <- inception_4e/3x3_reduce
I1123 12:33:15.166435 28480 net.cpp:380] inception_4e/3x3 -> inception_4e/3x3
I1123 12:33:15.170670 28480 net.cpp:122] Setting up inception_4e/3x3
I1123 12:33:15.170680 28480 net.cpp:129] Top shape: 3 320 14 14 (188160)
I1123 12:33:15.170683 28480 net.cpp:137] Memory required for data: 153760184
I1123 12:33:15.170688 28480 layer_factory.hpp:77] Creating layer inception_4e/relu_3x3
I1123 12:33:15.170693 28480 net.cpp:84] Creating Layer inception_4e/relu_3x3
I1123 12:33:15.170696 28480 net.cpp:406] inception_4e/relu_3x3 <- inception_4e/3x3
I1123 12:33:15.170699 28480 net.cpp:367] inception_4e/relu_3x3 -> inception_4e/3x3 (in-place)
I1123 12:33:15.171267 28480 net.cpp:122] Setting up inception_4e/relu_3x3
I1123 12:33:15.171277 28480 net.cpp:129] Top shape: 3 320 14 14 (188160)
I1123 12:33:15.171278 28480 net.cpp:137] Memory required for data: 154512824
I1123 12:33:15.171281 28480 layer_factory.hpp:77] Creating layer inception_4e/5x5_reduce
I1123 12:33:15.171288 28480 net.cpp:84] Creating Layer inception_4e/5x5_reduce
I1123 12:33:15.171290 28480 net.cpp:406] inception_4e/5x5_reduce <- inception_4d/output_inception_4d/output_0_split_3
I1123 12:33:15.171295 28480 net.cpp:380] inception_4e/5x5_reduce -> inception_4e/5x5_reduce
I1123 12:33:15.172464 28480 net.cpp:122] Setting up inception_4e/5x5_reduce
I1123 12:33:15.172475 28480 net.cpp:129] Top shape: 3 32 14 14 (18816)
I1123 12:33:15.172485 28480 net.cpp:137] Memory required for data: 154588088
I1123 12:33:15.172490 28480 layer_factory.hpp:77] Creating layer inception_4e/relu_5x5_reduce
I1123 12:33:15.172494 28480 net.cpp:84] Creating Layer inception_4e/relu_5x5_reduce
I1123 12:33:15.172497 28480 net.cpp:406] inception_4e/relu_5x5_reduce <- inception_4e/5x5_reduce
I1123 12:33:15.172502 28480 net.cpp:367] inception_4e/relu_5x5_reduce -> inception_4e/5x5_reduce (in-place)
I1123 12:33:15.173075 28480 net.cpp:122] Setting up inception_4e/relu_5x5_reduce
I1123 12:33:15.173086 28480 net.cpp:129] Top shape: 3 32 14 14 (18816)
I1123 12:33:15.173089 28480 net.cpp:137] Memory required for data: 154663352
I1123 12:33:15.173090 28480 layer_factory.hpp:77] Creating layer inception_4e/5x5
I1123 12:33:15.173122 28480 net.cpp:84] Creating Layer inception_4e/5x5
I1123 12:33:15.173125 28480 net.cpp:406] inception_4e/5x5 <- inception_4e/5x5_reduce
I1123 12:33:15.173130 28480 net.cpp:380] inception_4e/5x5 -> inception_4e/5x5
I1123 12:33:15.175050 28480 net.cpp:122] Setting up inception_4e/5x5
I1123 12:33:15.175060 28480 net.cpp:129] Top shape: 3 128 14 14 (75264)
I1123 12:33:15.175062 28480 net.cpp:137] Memory required for data: 154964408
I1123 12:33:15.175067 28480 layer_factory.hpp:77] Creating layer inception_4e/relu_5x5
I1123 12:33:15.175071 28480 net.cpp:84] Creating Layer inception_4e/relu_5x5
I1123 12:33:15.175073 28480 net.cpp:406] inception_4e/relu_5x5 <- inception_4e/5x5
I1123 12:33:15.175078 28480 net.cpp:367] inception_4e/relu_5x5 -> inception_4e/5x5 (in-place)
I1123 12:33:15.175225 28480 net.cpp:122] Setting up inception_4e/relu_5x5
I1123 12:33:15.175232 28480 net.cpp:129] Top shape: 3 128 14 14 (75264)
I1123 12:33:15.175235 28480 net.cpp:137] Memory required for data: 155265464
I1123 12:33:15.175236 28480 layer_factory.hpp:77] Creating layer inception_4e/pool
I1123 12:33:15.175242 28480 net.cpp:84] Creating Layer inception_4e/pool
I1123 12:33:15.175246 28480 net.cpp:406] inception_4e/pool <- inception_4d/output_inception_4d/output_0_split_4
I1123 12:33:15.175251 28480 net.cpp:380] inception_4e/pool -> inception_4e/pool
I1123 12:33:15.175294 28480 net.cpp:122] Setting up inception_4e/pool
I1123 12:33:15.175302 28480 net.cpp:129] Top shape: 3 528 14 14 (310464)
I1123 12:33:15.175303 28480 net.cpp:137] Memory required for data: 156507320
I1123 12:33:15.175305 28480 layer_factory.hpp:77] Creating layer inception_4e/pool_proj
I1123 12:33:15.175312 28480 net.cpp:84] Creating Layer inception_4e/pool_proj
I1123 12:33:15.175314 28480 net.cpp:406] inception_4e/pool_proj <- inception_4e/pool
I1123 12:33:15.175319 28480 net.cpp:380] inception_4e/pool_proj -> inception_4e/pool_proj
I1123 12:33:15.177089 28480 net.cpp:122] Setting up inception_4e/pool_proj
I1123 12:33:15.177100 28480 net.cpp:129] Top shape: 3 128 14 14 (75264)
I1123 12:33:15.177103 28480 net.cpp:137] Memory required for data: 156808376
I1123 12:33:15.177108 28480 layer_factory.hpp:77] Creating layer inception_4e/relu_pool_proj
I1123 12:33:15.177111 28480 net.cpp:84] Creating Layer inception_4e/relu_pool_proj
I1123 12:33:15.177114 28480 net.cpp:406] inception_4e/relu_pool_proj <- inception_4e/pool_proj
I1123 12:33:15.177120 28480 net.cpp:367] inception_4e/relu_pool_proj -> inception_4e/pool_proj (in-place)
I1123 12:33:15.177682 28480 net.cpp:122] Setting up inception_4e/relu_pool_proj
I1123 12:33:15.177691 28480 net.cpp:129] Top shape: 3 128 14 14 (75264)
I1123 12:33:15.177693 28480 net.cpp:137] Memory required for data: 157109432
I1123 12:33:15.177695 28480 layer_factory.hpp:77] Creating layer inception_4e/output
I1123 12:33:15.177701 28480 net.cpp:84] Creating Layer inception_4e/output
I1123 12:33:15.177705 28480 net.cpp:406] inception_4e/output <- inception_4e/1x1
I1123 12:33:15.177707 28480 net.cpp:406] inception_4e/output <- inception_4e/3x3
I1123 12:33:15.177711 28480 net.cpp:406] inception_4e/output <- inception_4e/5x5
I1123 12:33:15.177712 28480 net.cpp:406] inception_4e/output <- inception_4e/pool_proj
I1123 12:33:15.177716 28480 net.cpp:380] inception_4e/output -> inception_4e/output
I1123 12:33:15.177757 28480 net.cpp:122] Setting up inception_4e/output
I1123 12:33:15.177763 28480 net.cpp:129] Top shape: 3 832 14 14 (489216)
I1123 12:33:15.177765 28480 net.cpp:137] Memory required for data: 159066296
I1123 12:33:15.177767 28480 layer_factory.hpp:77] Creating layer pool4/3x3_s2
I1123 12:33:15.177772 28480 net.cpp:84] Creating Layer pool4/3x3_s2
I1123 12:33:15.177774 28480 net.cpp:406] pool4/3x3_s2 <- inception_4e/output
I1123 12:33:15.177779 28480 net.cpp:380] pool4/3x3_s2 -> pool4/3x3_s2
I1123 12:33:15.177819 28480 net.cpp:122] Setting up pool4/3x3_s2
I1123 12:33:15.177825 28480 net.cpp:129] Top shape: 3 832 7 7 (122304)
I1123 12:33:15.177827 28480 net.cpp:137] Memory required for data: 159555512
I1123 12:33:15.177829 28480 layer_factory.hpp:77] Creating layer pool4/3x3_s2_pool4/3x3_s2_0_split
I1123 12:33:15.177834 28480 net.cpp:84] Creating Layer pool4/3x3_s2_pool4/3x3_s2_0_split
I1123 12:33:15.177835 28480 net.cpp:406] pool4/3x3_s2_pool4/3x3_s2_0_split <- pool4/3x3_s2
I1123 12:33:15.177839 28480 net.cpp:380] pool4/3x3_s2_pool4/3x3_s2_0_split -> pool4/3x3_s2_pool4/3x3_s2_0_split_0
I1123 12:33:15.177845 28480 net.cpp:380] pool4/3x3_s2_pool4/3x3_s2_0_split -> pool4/3x3_s2_pool4/3x3_s2_0_split_1
I1123 12:33:15.177848 28480 net.cpp:380] pool4/3x3_s2_pool4/3x3_s2_0_split -> pool4/3x3_s2_pool4/3x3_s2_0_split_2
I1123 12:33:15.177852 28480 net.cpp:380] pool4/3x3_s2_pool4/3x3_s2_0_split -> pool4/3x3_s2_pool4/3x3_s2_0_split_3
I1123 12:33:15.177911 28480 net.cpp:122] Setting up pool4/3x3_s2_pool4/3x3_s2_0_split
I1123 12:33:15.177916 28480 net.cpp:129] Top shape: 3 832 7 7 (122304)
I1123 12:33:15.177918 28480 net.cpp:129] Top shape: 3 832 7 7 (122304)
I1123 12:33:15.177922 28480 net.cpp:129] Top shape: 3 832 7 7 (122304)
I1123 12:33:15.177923 28480 net.cpp:129] Top shape: 3 832 7 7 (122304)
I1123 12:33:15.177925 28480 net.cpp:137] Memory required for data: 161512376
I1123 12:33:15.177927 28480 layer_factory.hpp:77] Creating layer inception_5a/1x1
I1123 12:33:15.177934 28480 net.cpp:84] Creating Layer inception_5a/1x1
I1123 12:33:15.177937 28480 net.cpp:406] inception_5a/1x1 <- pool4/3x3_s2_pool4/3x3_s2_0_split_0
I1123 12:33:15.177942 28480 net.cpp:380] inception_5a/1x1 -> inception_5a/1x1
I1123 12:33:15.180251 28480 net.cpp:122] Setting up inception_5a/1x1
I1123 12:33:15.180263 28480 net.cpp:129] Top shape: 3 256 7 7 (37632)
I1123 12:33:15.180264 28480 net.cpp:137] Memory required for data: 161662904
I1123 12:33:15.180269 28480 layer_factory.hpp:77] Creating layer inception_5a/relu_1x1
I1123 12:33:15.180274 28480 net.cpp:84] Creating Layer inception_5a/relu_1x1
I1123 12:33:15.180276 28480 net.cpp:406] inception_5a/relu_1x1 <- inception_5a/1x1
I1123 12:33:15.180280 28480 net.cpp:367] inception_5a/relu_1x1 -> inception_5a/1x1 (in-place)
I1123 12:33:15.180850 28480 net.cpp:122] Setting up inception_5a/relu_1x1
I1123 12:33:15.180860 28480 net.cpp:129] Top shape: 3 256 7 7 (37632)
I1123 12:33:15.180862 28480 net.cpp:137] Memory required for data: 161813432
I1123 12:33:15.180865 28480 layer_factory.hpp:77] Creating layer inception_5a/3x3_reduce
I1123 12:33:15.180872 28480 net.cpp:84] Creating Layer inception_5a/3x3_reduce
I1123 12:33:15.180874 28480 net.cpp:406] inception_5a/3x3_reduce <- pool4/3x3_s2_pool4/3x3_s2_0_split_1
I1123 12:33:15.180881 28480 net.cpp:380] inception_5a/3x3_reduce -> inception_5a/3x3_reduce
I1123 12:33:15.183352 28480 net.cpp:122] Setting up inception_5a/3x3_reduce
I1123 12:33:15.183363 28480 net.cpp:129] Top shape: 3 160 7 7 (23520)
I1123 12:33:15.183365 28480 net.cpp:137] Memory required for data: 161907512
I1123 12:33:15.183370 28480 layer_factory.hpp:77] Creating layer inception_5a/relu_3x3_reduce
I1123 12:33:15.183374 28480 net.cpp:84] Creating Layer inception_5a/relu_3x3_reduce
I1123 12:33:15.183377 28480 net.cpp:406] inception_5a/relu_3x3_reduce <- inception_5a/3x3_reduce
I1123 12:33:15.183382 28480 net.cpp:367] inception_5a/relu_3x3_reduce -> inception_5a/3x3_reduce (in-place)
I1123 12:33:15.183523 28480 net.cpp:122] Setting up inception_5a/relu_3x3_reduce
I1123 12:33:15.183531 28480 net.cpp:129] Top shape: 3 160 7 7 (23520)
I1123 12:33:15.183540 28480 net.cpp:137] Memory required for data: 162001592
I1123 12:33:15.183543 28480 layer_factory.hpp:77] Creating layer inception_5a/3x3
I1123 12:33:15.183552 28480 net.cpp:84] Creating Layer inception_5a/3x3
I1123 12:33:15.183553 28480 net.cpp:406] inception_5a/3x3 <- inception_5a/3x3_reduce
I1123 12:33:15.183559 28480 net.cpp:380] inception_5a/3x3 -> inception_5a/3x3
I1123 12:33:15.187809 28480 net.cpp:122] Setting up inception_5a/3x3
I1123 12:33:15.187821 28480 net.cpp:129] Top shape: 3 320 7 7 (47040)
I1123 12:33:15.187824 28480 net.cpp:137] Memory required for data: 162189752
I1123 12:33:15.187829 28480 layer_factory.hpp:77] Creating layer inception_5a/relu_3x3
I1123 12:33:15.187834 28480 net.cpp:84] Creating Layer inception_5a/relu_3x3
I1123 12:33:15.187836 28480 net.cpp:406] inception_5a/relu_3x3 <- inception_5a/3x3
I1123 12:33:15.187840 28480 net.cpp:367] inception_5a/relu_3x3 -> inception_5a/3x3 (in-place)
I1123 12:33:15.188410 28480 net.cpp:122] Setting up inception_5a/relu_3x3
I1123 12:33:15.188419 28480 net.cpp:129] Top shape: 3 320 7 7 (47040)
I1123 12:33:15.188421 28480 net.cpp:137] Memory required for data: 162377912
I1123 12:33:15.188424 28480 layer_factory.hpp:77] Creating layer inception_5a/5x5_reduce
I1123 12:33:15.188432 28480 net.cpp:84] Creating Layer inception_5a/5x5_reduce
I1123 12:33:15.188436 28480 net.cpp:406] inception_5a/5x5_reduce <- pool4/3x3_s2_pool4/3x3_s2_0_split_2
I1123 12:33:15.188441 28480 net.cpp:380] inception_5a/5x5_reduce -> inception_5a/5x5_reduce
I1123 12:33:15.190157 28480 net.cpp:122] Setting up inception_5a/5x5_reduce
I1123 12:33:15.190168 28480 net.cpp:129] Top shape: 3 32 7 7 (4704)
I1123 12:33:15.190171 28480 net.cpp:137] Memory required for data: 162396728
I1123 12:33:15.190176 28480 layer_factory.hpp:77] Creating layer inception_5a/relu_5x5_reduce
I1123 12:33:15.190181 28480 net.cpp:84] Creating Layer inception_5a/relu_5x5_reduce
I1123 12:33:15.190184 28480 net.cpp:406] inception_5a/relu_5x5_reduce <- inception_5a/5x5_reduce
I1123 12:33:15.190188 28480 net.cpp:367] inception_5a/relu_5x5_reduce -> inception_5a/5x5_reduce (in-place)
I1123 12:33:15.190759 28480 net.cpp:122] Setting up inception_5a/relu_5x5_reduce
I1123 12:33:15.190769 28480 net.cpp:129] Top shape: 3 32 7 7 (4704)
I1123 12:33:15.190771 28480 net.cpp:137] Memory required for data: 162415544
I1123 12:33:15.190774 28480 layer_factory.hpp:77] Creating layer inception_5a/5x5
I1123 12:33:15.190783 28480 net.cpp:84] Creating Layer inception_5a/5x5
I1123 12:33:15.190785 28480 net.cpp:406] inception_5a/5x5 <- inception_5a/5x5_reduce
I1123 12:33:15.190789 28480 net.cpp:380] inception_5a/5x5 -> inception_5a/5x5
I1123 12:33:15.192749 28480 net.cpp:122] Setting up inception_5a/5x5
I1123 12:33:15.192759 28480 net.cpp:129] Top shape: 3 128 7 7 (18816)
I1123 12:33:15.192761 28480 net.cpp:137] Memory required for data: 162490808
I1123 12:33:15.192766 28480 layer_factory.hpp:77] Creating layer inception_5a/relu_5x5
I1123 12:33:15.192770 28480 net.cpp:84] Creating Layer inception_5a/relu_5x5
I1123 12:33:15.192773 28480 net.cpp:406] inception_5a/relu_5x5 <- inception_5a/5x5
I1123 12:33:15.192777 28480 net.cpp:367] inception_5a/relu_5x5 -> inception_5a/5x5 (in-place)
I1123 12:33:15.192919 28480 net.cpp:122] Setting up inception_5a/relu_5x5
I1123 12:33:15.192927 28480 net.cpp:129] Top shape: 3 128 7 7 (18816)
I1123 12:33:15.192929 28480 net.cpp:137] Memory required for data: 162566072
I1123 12:33:15.192931 28480 layer_factory.hpp:77] Creating layer inception_5a/pool
I1123 12:33:15.192939 28480 net.cpp:84] Creating Layer inception_5a/pool
I1123 12:33:15.192941 28480 net.cpp:406] inception_5a/pool <- pool4/3x3_s2_pool4/3x3_s2_0_split_3
I1123 12:33:15.192945 28480 net.cpp:380] inception_5a/pool -> inception_5a/pool
I1123 12:33:15.192992 28480 net.cpp:122] Setting up inception_5a/pool
I1123 12:33:15.192998 28480 net.cpp:129] Top shape: 3 832 7 7 (122304)
I1123 12:33:15.193001 28480 net.cpp:137] Memory required for data: 163055288
I1123 12:33:15.193002 28480 layer_factory.hpp:77] Creating layer inception_5a/pool_proj
I1123 12:33:15.193019 28480 net.cpp:84] Creating Layer inception_5a/pool_proj
I1123 12:33:15.193022 28480 net.cpp:406] inception_5a/pool_proj <- inception_5a/pool
I1123 12:33:15.193028 28480 net.cpp:380] inception_5a/pool_proj -> inception_5a/pool_proj
I1123 12:33:15.195410 28480 net.cpp:122] Setting up inception_5a/pool_proj
I1123 12:33:15.195421 28480 net.cpp:129] Top shape: 3 128 7 7 (18816)
I1123 12:33:15.195423 28480 net.cpp:137] Memory required for data: 163130552
I1123 12:33:15.195428 28480 layer_factory.hpp:77] Creating layer inception_5a/relu_pool_proj
I1123 12:33:15.195432 28480 net.cpp:84] Creating Layer inception_5a/relu_pool_proj
I1123 12:33:15.195436 28480 net.cpp:406] inception_5a/relu_pool_proj <- inception_5a/pool_proj
I1123 12:33:15.195441 28480 net.cpp:367] inception_5a/relu_pool_proj -> inception_5a/pool_proj (in-place)
I1123 12:33:15.196013 28480 net.cpp:122] Setting up inception_5a/relu_pool_proj
I1123 12:33:15.196023 28480 net.cpp:129] Top shape: 3 128 7 7 (18816)
I1123 12:33:15.196025 28480 net.cpp:137] Memory required for data: 163205816
I1123 12:33:15.196028 28480 layer_factory.hpp:77] Creating layer inception_5a/output
I1123 12:33:15.196033 28480 net.cpp:84] Creating Layer inception_5a/output
I1123 12:33:15.196035 28480 net.cpp:406] inception_5a/output <- inception_5a/1x1
I1123 12:33:15.196038 28480 net.cpp:406] inception_5a/output <- inception_5a/3x3
I1123 12:33:15.196041 28480 net.cpp:406] inception_5a/output <- inception_5a/5x5
I1123 12:33:15.196043 28480 net.cpp:406] inception_5a/output <- inception_5a/pool_proj
I1123 12:33:15.196048 28480 net.cpp:380] inception_5a/output -> inception_5a/output
I1123 12:33:15.196081 28480 net.cpp:122] Setting up inception_5a/output
I1123 12:33:15.196087 28480 net.cpp:129] Top shape: 3 832 7 7 (122304)
I1123 12:33:15.196089 28480 net.cpp:137] Memory required for data: 163695032
I1123 12:33:15.196091 28480 layer_factory.hpp:77] Creating layer inception_5a/output_inception_5a/output_0_split
I1123 12:33:15.196096 28480 net.cpp:84] Creating Layer inception_5a/output_inception_5a/output_0_split
I1123 12:33:15.196099 28480 net.cpp:406] inception_5a/output_inception_5a/output_0_split <- inception_5a/output
I1123 12:33:15.196104 28480 net.cpp:380] inception_5a/output_inception_5a/output_0_split -> inception_5a/output_inception_5a/output_0_split_0
I1123 12:33:15.196108 28480 net.cpp:380] inception_5a/output_inception_5a/output_0_split -> inception_5a/output_inception_5a/output_0_split_1
I1123 12:33:15.196113 28480 net.cpp:380] inception_5a/output_inception_5a/output_0_split -> inception_5a/output_inception_5a/output_0_split_2
I1123 12:33:15.196117 28480 net.cpp:380] inception_5a/output_inception_5a/output_0_split -> inception_5a/output_inception_5a/output_0_split_3
I1123 12:33:15.196179 28480 net.cpp:122] Setting up inception_5a/output_inception_5a/output_0_split
I1123 12:33:15.196185 28480 net.cpp:129] Top shape: 3 832 7 7 (122304)
I1123 12:33:15.196187 28480 net.cpp:129] Top shape: 3 832 7 7 (122304)
I1123 12:33:15.196190 28480 net.cpp:129] Top shape: 3 832 7 7 (122304)
I1123 12:33:15.196192 28480 net.cpp:129] Top shape: 3 832 7 7 (122304)
I1123 12:33:15.196194 28480 net.cpp:137] Memory required for data: 165651896
I1123 12:33:15.196197 28480 layer_factory.hpp:77] Creating layer inception_5b/1x1
I1123 12:33:15.196203 28480 net.cpp:84] Creating Layer inception_5b/1x1
I1123 12:33:15.196205 28480 net.cpp:406] inception_5b/1x1 <- inception_5a/output_inception_5a/output_0_split_0
I1123 12:33:15.196210 28480 net.cpp:380] inception_5b/1x1 -> inception_5b/1x1
I1123 12:33:15.199137 28480 net.cpp:122] Setting up inception_5b/1x1
I1123 12:33:15.199148 28480 net.cpp:129] Top shape: 3 384 7 7 (56448)
I1123 12:33:15.199151 28480 net.cpp:137] Memory required for data: 165877688
I1123 12:33:15.199156 28480 layer_factory.hpp:77] Creating layer inception_5b/relu_1x1
I1123 12:33:15.199159 28480 net.cpp:84] Creating Layer inception_5b/relu_1x1
I1123 12:33:15.199162 28480 net.cpp:406] inception_5b/relu_1x1 <- inception_5b/1x1
I1123 12:33:15.199175 28480 net.cpp:367] inception_5b/relu_1x1 -> inception_5b/1x1 (in-place)
I1123 12:33:15.199754 28480 net.cpp:122] Setting up inception_5b/relu_1x1
I1123 12:33:15.199764 28480 net.cpp:129] Top shape: 3 384 7 7 (56448)
I1123 12:33:15.199766 28480 net.cpp:137] Memory required for data: 166103480
I1123 12:33:15.199769 28480 layer_factory.hpp:77] Creating layer inception_5b/3x3_reduce
I1123 12:33:15.199775 28480 net.cpp:84] Creating Layer inception_5b/3x3_reduce
I1123 12:33:15.199779 28480 net.cpp:406] inception_5b/3x3_reduce <- inception_5a/output_inception_5a/output_0_split_1
I1123 12:33:15.199784 28480 net.cpp:380] inception_5b/3x3_reduce -> inception_5b/3x3_reduce
I1123 12:33:15.202412 28480 net.cpp:122] Setting up inception_5b/3x3_reduce
I1123 12:33:15.202425 28480 net.cpp:129] Top shape: 3 192 7 7 (28224)
I1123 12:33:15.202426 28480 net.cpp:137] Memory required for data: 166216376
I1123 12:33:15.202431 28480 layer_factory.hpp:77] Creating layer inception_5b/relu_3x3_reduce
I1123 12:33:15.202435 28480 net.cpp:84] Creating Layer inception_5b/relu_3x3_reduce
I1123 12:33:15.202438 28480 net.cpp:406] inception_5b/relu_3x3_reduce <- inception_5b/3x3_reduce
I1123 12:33:15.202442 28480 net.cpp:367] inception_5b/relu_3x3_reduce -> inception_5b/3x3_reduce (in-place)
I1123 12:33:15.202587 28480 net.cpp:122] Setting up inception_5b/relu_3x3_reduce
I1123 12:33:15.202595 28480 net.cpp:129] Top shape: 3 192 7 7 (28224)
I1123 12:33:15.202597 28480 net.cpp:137] Memory required for data: 166329272
I1123 12:33:15.202600 28480 layer_factory.hpp:77] Creating layer inception_5b/3x3
I1123 12:33:15.202607 28480 net.cpp:84] Creating Layer inception_5b/3x3
I1123 12:33:15.202610 28480 net.cpp:406] inception_5b/3x3 <- inception_5b/3x3_reduce
I1123 12:33:15.202615 28480 net.cpp:380] inception_5b/3x3 -> inception_5b/3x3
I1123 12:33:15.207919 28480 net.cpp:122] Setting up inception_5b/3x3
I1123 12:33:15.207932 28480 net.cpp:129] Top shape: 3 384 7 7 (56448)
I1123 12:33:15.207934 28480 net.cpp:137] Memory required for data: 166555064
I1123 12:33:15.207939 28480 layer_factory.hpp:77] Creating layer inception_5b/relu_3x3
I1123 12:33:15.207943 28480 net.cpp:84] Creating Layer inception_5b/relu_3x3
I1123 12:33:15.207947 28480 net.cpp:406] inception_5b/relu_3x3 <- inception_5b/3x3
I1123 12:33:15.207952 28480 net.cpp:367] inception_5b/relu_3x3 -> inception_5b/3x3 (in-place)
I1123 12:33:15.208531 28480 net.cpp:122] Setting up inception_5b/relu_3x3
I1123 12:33:15.208541 28480 net.cpp:129] Top shape: 3 384 7 7 (56448)
I1123 12:33:15.208544 28480 net.cpp:137] Memory required for data: 166780856
I1123 12:33:15.208546 28480 layer_factory.hpp:77] Creating layer inception_5b/5x5_reduce
I1123 12:33:15.208554 28480 net.cpp:84] Creating Layer inception_5b/5x5_reduce
I1123 12:33:15.208557 28480 net.cpp:406] inception_5b/5x5_reduce <- inception_5a/output_inception_5a/output_0_split_2
I1123 12:33:15.208562 28480 net.cpp:380] inception_5b/5x5_reduce -> inception_5b/5x5_reduce
I1123 12:33:15.210335 28480 net.cpp:122] Setting up inception_5b/5x5_reduce
I1123 12:33:15.210346 28480 net.cpp:129] Top shape: 3 48 7 7 (7056)
I1123 12:33:15.210348 28480 net.cpp:137] Memory required for data: 166809080
I1123 12:33:15.210355 28480 layer_factory.hpp:77] Creating layer inception_5b/relu_5x5_reduce
I1123 12:33:15.210358 28480 net.cpp:84] Creating Layer inception_5b/relu_5x5_reduce
I1123 12:33:15.210361 28480 net.cpp:406] inception_5b/relu_5x5_reduce <- inception_5b/5x5_reduce
I1123 12:33:15.210366 28480 net.cpp:367] inception_5b/relu_5x5_reduce -> inception_5b/5x5_reduce (in-place)
I1123 12:33:15.210948 28480 net.cpp:122] Setting up inception_5b/relu_5x5_reduce
I1123 12:33:15.210958 28480 net.cpp:129] Top shape: 3 48 7 7 (7056)
I1123 12:33:15.210960 28480 net.cpp:137] Memory required for data: 166837304
I1123 12:33:15.210963 28480 layer_factory.hpp:77] Creating layer inception_5b/5x5
I1123 12:33:15.210970 28480 net.cpp:84] Creating Layer inception_5b/5x5
I1123 12:33:15.210974 28480 net.cpp:406] inception_5b/5x5 <- inception_5b/5x5_reduce
I1123 12:33:15.210979 28480 net.cpp:380] inception_5b/5x5 -> inception_5b/5x5
I1123 12:33:15.213181 28480 net.cpp:122] Setting up inception_5b/5x5
I1123 12:33:15.213192 28480 net.cpp:129] Top shape: 3 128 7 7 (18816)
I1123 12:33:15.213194 28480 net.cpp:137] Memory required for data: 166912568
I1123 12:33:15.213199 28480 layer_factory.hpp:77] Creating layer inception_5b/relu_5x5
I1123 12:33:15.213203 28480 net.cpp:84] Creating Layer inception_5b/relu_5x5
I1123 12:33:15.213207 28480 net.cpp:406] inception_5b/relu_5x5 <- inception_5b/5x5
I1123 12:33:15.213212 28480 net.cpp:367] inception_5b/relu_5x5 -> inception_5b/5x5 (in-place)
I1123 12:33:15.213356 28480 net.cpp:122] Setting up inception_5b/relu_5x5
I1123 12:33:15.213363 28480 net.cpp:129] Top shape: 3 128 7 7 (18816)
I1123 12:33:15.213366 28480 net.cpp:137] Memory required for data: 166987832
I1123 12:33:15.213367 28480 layer_factory.hpp:77] Creating layer inception_5b/pool
I1123 12:33:15.213372 28480 net.cpp:84] Creating Layer inception_5b/pool
I1123 12:33:15.213376 28480 net.cpp:406] inception_5b/pool <- inception_5a/output_inception_5a/output_0_split_3
I1123 12:33:15.213380 28480 net.cpp:380] inception_5b/pool -> inception_5b/pool
I1123 12:33:15.213428 28480 net.cpp:122] Setting up inception_5b/pool
I1123 12:33:15.213433 28480 net.cpp:129] Top shape: 3 832 7 7 (122304)
I1123 12:33:15.213435 28480 net.cpp:137] Memory required for data: 167477048
I1123 12:33:15.213438 28480 layer_factory.hpp:77] Creating layer inception_5b/pool_proj
I1123 12:33:15.213445 28480 net.cpp:84] Creating Layer inception_5b/pool_proj
I1123 12:33:15.213449 28480 net.cpp:406] inception_5b/pool_proj <- inception_5b/pool
I1123 12:33:15.213452 28480 net.cpp:380] inception_5b/pool_proj -> inception_5b/pool_proj
I1123 12:33:15.216253 28480 net.cpp:122] Setting up inception_5b/pool_proj
I1123 12:33:15.216264 28480 net.cpp:129] Top shape: 3 128 7 7 (18816)
I1123 12:33:15.216267 28480 net.cpp:137] Memory required for data: 167552312
I1123 12:33:15.216271 28480 layer_factory.hpp:77] Creating layer inception_5b/relu_pool_proj
I1123 12:33:15.216276 28480 net.cpp:84] Creating Layer inception_5b/relu_pool_proj
I1123 12:33:15.216279 28480 net.cpp:406] inception_5b/relu_pool_proj <- inception_5b/pool_proj
I1123 12:33:15.216282 28480 net.cpp:367] inception_5b/relu_pool_proj -> inception_5b/pool_proj (in-place)
I1123 12:33:15.216861 28480 net.cpp:122] Setting up inception_5b/relu_pool_proj
I1123 12:33:15.216871 28480 net.cpp:129] Top shape: 3 128 7 7 (18816)
I1123 12:33:15.216874 28480 net.cpp:137] Memory required for data: 167627576
I1123 12:33:15.216876 28480 layer_factory.hpp:77] Creating layer inception_5b/output
I1123 12:33:15.216881 28480 net.cpp:84] Creating Layer inception_5b/output
I1123 12:33:15.216884 28480 net.cpp:406] inception_5b/output <- inception_5b/1x1
I1123 12:33:15.216887 28480 net.cpp:406] inception_5b/output <- inception_5b/3x3
I1123 12:33:15.216891 28480 net.cpp:406] inception_5b/output <- inception_5b/5x5
I1123 12:33:15.216893 28480 net.cpp:406] inception_5b/output <- inception_5b/pool_proj
I1123 12:33:15.216898 28480 net.cpp:380] inception_5b/output -> inception_5b/output
I1123 12:33:15.216930 28480 net.cpp:122] Setting up inception_5b/output
I1123 12:33:15.216936 28480 net.cpp:129] Top shape: 3 1024 7 7 (150528)
I1123 12:33:15.216938 28480 net.cpp:137] Memory required for data: 168229688
I1123 12:33:15.216940 28480 layer_factory.hpp:77] Creating layer pool5/7x7_s1
I1123 12:33:15.216946 28480 net.cpp:84] Creating Layer pool5/7x7_s1
I1123 12:33:15.216948 28480 net.cpp:406] pool5/7x7_s1 <- inception_5b/output
I1123 12:33:15.216953 28480 net.cpp:380] pool5/7x7_s1 -> pool5/7x7_s1
I1123 12:33:15.217115 28480 net.cpp:122] Setting up pool5/7x7_s1
I1123 12:33:15.217123 28480 net.cpp:129] Top shape: 3 1024 1 1 (3072)
I1123 12:33:15.217126 28480 net.cpp:137] Memory required for data: 168241976
I1123 12:33:15.217128 28480 layer_factory.hpp:77] Creating layer pool5/drop_7x7_s1
I1123 12:33:15.217133 28480 net.cpp:84] Creating Layer pool5/drop_7x7_s1
I1123 12:33:15.217136 28480 net.cpp:406] pool5/drop_7x7_s1 <- pool5/7x7_s1
I1123 12:33:15.217139 28480 net.cpp:367] pool5/drop_7x7_s1 -> pool5/7x7_s1 (in-place)
I1123 12:33:15.217178 28480 net.cpp:122] Setting up pool5/drop_7x7_s1
I1123 12:33:15.217185 28480 net.cpp:129] Top shape: 3 1024 1 1 (3072)
I1123 12:33:15.217187 28480 net.cpp:137] Memory required for data: 168254264
I1123 12:33:15.217190 28480 layer_factory.hpp:77] Creating layer loss3/classifier-gai
I1123 12:33:15.217195 28480 net.cpp:84] Creating Layer loss3/classifier-gai
I1123 12:33:15.217197 28480 net.cpp:406] loss3/classifier-gai <- pool5/7x7_s1
I1123 12:33:15.217202 28480 net.cpp:380] loss3/classifier-gai -> loss3/classifier-gai
I1123 12:33:15.217396 28480 net.cpp:122] Setting up loss3/classifier-gai
I1123 12:33:15.217401 28480 net.cpp:129] Top shape: 3 16 (48)
I1123 12:33:15.217403 28480 net.cpp:137] Memory required for data: 168254456
I1123 12:33:15.217407 28480 layer_factory.hpp:77] Creating layer loss
I1123 12:33:15.217412 28480 net.cpp:84] Creating Layer loss
I1123 12:33:15.217416 28480 net.cpp:406] loss <- loss3/classifier-gai
I1123 12:33:15.217418 28480 net.cpp:406] loss <- label_data_1_split_2
I1123 12:33:15.217422 28480 net.cpp:380] loss -> loss
…
I1123 12:33:15.234040 28480 net.cpp:51] Initializing net from parameters: 
name: "GoogleNet"
state {
  phase: TEST
}
layer {
  name: "data"
  type: "Data"
  top: "data"
  top: "label"
  include {
    phase: TEST
  }
  transform_param {
    mirror: true
    crop_size: 224
    mean_file: "/home/nssg/unclezhannssg/Downloads/anzhuangcaffe/caffe-master/examples/myfilen/res/mean.binaryproto"
  }
  data_param {
    source: "/home/nssg/unclezhannssg/Downloads/anzhuangcaffe/caffe-master/examples/myfilen/res/img_val_lmdb"
    batch_size: 3
    backend: LMDB
  }
}
layer {
  name: "conv1/7x7_s2"
  type: "Convolution"
  bottom: "data"
  top: "conv1/7x7_s2"
  param {
    lr_mult: 1
    decay_mult: 1
  }
  param {
    lr_mult: 2
    decay_mult: 0
  }
  convolution_param {
    num_output: 64
    pad: 3
    kernel_size: 7
    stride: 2
    weight_filler {
      type: "xavier"
    }
    bias_filler {
      type: "constant"
      value: 0.2
    }
  }
}
layer {
  name: "conv1/relu_7x7"
  type: "ReLU"
  bottom: "conv1/7x7_s2"
  top: "conv1/7x7_s2"
}
layer {
  name: "pool1/3x3_s2"
  type: "Pooling"
  bottom: "conv1/7x7_s2"
  top: "pool1/3x3_s2"
  pooling_param {
    pool: MAX
    kernel_size: 3
    stride: 2
  }
}
layer {
  name: "pool1/norm1"
  type: "LRN"
  bottom: "pool1/3x3_s2"
  top: "pool1/norm1"
  lrn_param {
    local_size: 5
    alpha: 0.0001
    beta: 0.75
  }
}
layer {
  name: "conv2/3x3_reduce"
  type: "Convolution"
  bottom: "pool1/norm1"
  top: "conv2/3x3_reduce"
  param {
    lr_mult: 1
    decay_mult: 1
  }
  param {
    lr_mult: 2
    decay_mult: 0
  }
  convolution_param {
    num_output: 64
    kernel_size: 1
    weight_filler {
      type: "xavier"
    }
    bias_filler {
      type: "constant"
      value: 0.2
    }
  }
}
layer {
  name: "conv2/relu_3x3_reduce"
  type: "ReLU"
  bottom: "conv2/3x3_reduce"
  top: "conv2/3x3_reduce"
}
layer {
  name: "conv2/3x3"
  type: "Convolution"
  bottom: "conv2/3x3_reduce"
  top: "conv2/3x3"
  param {
    lr_mult: 1
    decay_mult: 1
  }
  param {
    lr_mult: 2
    decay_mult: 0
  }
  convolution_param {
    num_output: 192
    pad: 1
    kernel_size: 3
    weight_filler {
      type: "xavier"
    }
    bias_filler {
      type: "constant"
      value: 0.2
    }
  }
}
layer {
  name: "conv2/relu_3x3"
  type: "ReLU"
  bottom: "conv2/3x3"
  top: "conv2/3x3"
}
layer {
  name: "conv2/norm2"
  type: "LRN"
  bottom: "conv2/3x3"
  top: "conv2/norm2"
  lrn_param {
    local_size: 5
    alpha: 0.0001
    beta: 0.75
  }
}
layer {
  name: "pool2/3x3_s2"
  type: "Pooling"
  bottom: "conv2/norm2"
  top: "pool2/3x3_s2"
  pooling_param {
    pool: MAX
    kernel_size: 3
    stride: 2
  }
}
layer {
  name: "inception_3a/1x1"
  type: "Convolution"
  bottom: "pool2/3x3_s2"
  top: "inception_3a/1x1"
  param {
    lr_mult: 1
    decay_mult: 1
  }
  param {
    lr_mult: 2
    decay_mult: 0
  }
  convolution_param {
    num_output: 64
    kernel_size: 1
    weight_filler {
      type: "xavier"
    }
    bias_filler {
      type: "constant"
      value: 0.2
    }
  }
}
layer {
  name: "inception_3a/relu_1x1"
  type: "ReLU"
  bottom: "inception_3a/1x1"
  top: "inception_3a/1x1"
}
layer {
  name: "inception_3a/3x3_reduce"
  type: "Convolution"
  bottom: "pool2/3x3_s2"
  top: "inception_3a/3x3_reduce"
  param {
    lr_mult: 1
    decay_mult: 1
  }
  param {
    lr_mult: 2
    decay_mult: 0
  }
  convolution_param {
    num_output: 96
    kernel_size: 1
    weight_filler {
      type: "xavier"
    }
    bias_filler {
      type: "constant"
      value: 0.2
    }
  }
}
layer {
  name: "inception_3a/relu_3x3_reduce"
  type: "ReLU"
  bottom: "inception_3a/3x3_reduce"
  top: "inception_3a/3x3_reduce"
}
layer {
  name: "inception_3a/3x3"
  type: "Convolution"
  bottom: "inception_3a/3x3_reduce"
  top: "inception_3a/3x3"
  param {
    lr_mult: 1
    decay_mult: 1
  }
  param {
    lr_mult: 2
    decay_mult: 0
  }
  convolution_param {
    num_output: 128
    pad: 1
    kernel_size: 3
    weight_filler {
      type: "xavier"
    }
    bias_filler {
      type: "constant"
      value: 0.2
    }
  }
}
layer {
  name: "inception_3a/relu_3x3"
  type: "ReLU"
  bottom: "inception_3a/3x3"
  top: "inception_3a/3x3"
}
layer {
  name: "inception_3a/5x5_reduce"
  type: "Convolution"
  bottom: "pool2/3x3_s2"
  top: "inception_3a/5x5_reduce"
  param {
    lr_mult: 1
    decay_mult: 1
  }
  param {
    lr_mult: 2
    decay_mult: 0
  }
  convolution_param {
    num_output: 16
    kernel_size: 1
    weight_filler {
      type: "xavier"
    }
    bias_filler {
      type: "constant"
      value: 0.2
    }
  }
}
layer {
  name: "inception_3a/relu_5x5_reduce"
  type: "ReLU"
  bottom: "inception_3a/5x5_reduce"
  top: "inception_3a/5x5_reduce"
}
layer {
  name: "inception_3a/5x5"
  type: "Convolution"
  bottom: "inception_3a/5x5_reduce"
  top: "inception_3a/5x5"
  param {
    lr_mult: 1
    decay_mult: 1
  }
  param {
    lr_mult: 2
    decay_mult: 0
  }
  convolution_param {
    num_output: 32
    pad: 2
    kernel_size: 5
    weight_filler {
      type: "xavier"
    }
    bias_filler {
      type: "constant"
      value: 0.2
    }
  }
}
layer {
  name: "inception_3a/relu_5x5"
  type: "ReLU"
  bottom: "inception_3a/5x5"
  top: "inception_3a/5x5"
}
layer {
  name: "inception_3a/pool"
  type: "Pooling"
  bottom: "pool2/3x3_s2"
  top: "inception_3a/pool"
  pooling_param {
    pool: MAX
    kernel_size: 3
    stride: 1
    pad: 1
  }
}
layer {
  name: "inception_3a/pool_proj"
  type: "Convolution"
  bottom: "inception_3a/pool"
  top: "inception_3a/pool_proj"
  param {
    lr_mult: 1
    decay_mult: 1
  }
  param {
    lr_mult: 2
    decay_mult: 0
  }
  convolution_param {
    num_output: 32
    kernel_size: 1
    weight_filler {
      type: "xavier"
    }
    bias_filler {
      type: "constant"
      value: 0.2
    }
  }
}
layer {
  name: "inception_3a/relu_pool_proj"
  type: "ReLU"
  bottom: "inception_3a/pool_proj"
  top: "inception_3a/pool_proj"
}
layer {
  name: "inception_3a/output"
  type: "Concat"
  bottom: "inception_3a/1x1"
  bottom: "inception_3a/3x3"
  bottom: "inception_3a/5x5"
  bottom: "inception_3a/pool_proj"
  top: "inception_3a/output"
}
layer {
  name: "inception_3b/1x1"
  type: "Convolution"
  bottom: "inception_3a/output"
  top: "inception_3b/1x1"
  param {
    lr_mult: 1
    decay_mult: 1
  }
  param {
    lr_mult: 2
    decay_mult: 0
  }
  convolution_param {
    num_output: 128
    kernel_size: 1
    weight_filler {
      type: "xavier"
    }
    bias_filler {
      type: "constant"
      value: 0.2
    }
  }
}
layer {
  name: "inception_3b/relu_1x1"
  type: "ReLU"
  bottom: "inception_3b/1x1"
  top: "inception_3b/1x1"
}
layer {
  name: "inception_3b/3x3_reduce"
  type: "Convolution"
  bottom: "inception_3a/output"
  top: "inception_3b/3x3_reduce"
  param {
    lr_mult: 1
    decay_mult: 1
  }
  param {
    lr_mult: 2
    decay_mult: 0
  }
  convolution_param {
    num_output: 128
    kernel_size: 1
    weight_filler {
      type: "xavier"
    }
    bias_filler {
      type: "constant"
      value: 0.2
    }
  }
}
layer {
  name: "inception_3b/relu_3x3_reduce"
  type: "ReLU"
  bottom: "inception_3b/3x3_reduce"
  top: "inception_3b/3x3_reduce"
}
layer {
  name: "inception_3b/3x3"
  type: "Convolution"
  bottom: "inception_3b/3x3_reduce"
  top: "inception_3b/3x3"
  param {
    lr_mult: 1
    decay_mult: 1
  }
  param {
    lr_mult: 2
    decay_mult: 0
  }
  convolution_param {
    num_output: 192
    pad: 1
    kernel_size: 3
    weight_filler {
      type: "xavier"
    }
    bias_filler {
      type: "constant"
      value: 0.2
    }
  }
}
layer {
  name: "inception_3b/relu_3x3"
  type: "ReLU"
  bottom: "inception_3b/3x3"
  top: "inception_3b/3x3"
}
layer {
  name: "inception_3b/5x5_reduce"
  type: "Convolution"
  bottom: "inception_3a/output"
  top: "inception_3b/5x5_reduce"
  param {
    lr_mult: 1
    decay_mult: 1
  }
  param {
    lr_mult: 2
    decay_mult: 0
  }
  convolution_param {
    num_output: 32
    kernel_size: 1
    weight_filler {
      type: "xavier"
    }
    bias_filler {
      type: "constant"
      value: 0.2
    }
  }
}
layer {
  name: "inception_3b/relu_5x5_reduce"
  type: "ReLU"
  bottom: "inception_3b/5x5_reduce"
  top: "inception_3b/5x5_reduce"
}
layer {
  name: "inception_3b/5x5"
  type: "Convolution"
  bottom: "inception_3b/5x5_reduce"
  top: "inception_3b/5x5"
  param {
    lr_mult: 1
    decay_mult: 1
  }
  param {
    lr_mult: 2
    decay_mult: 0
  }
  convolution_param {
    num_output: 96
    pad: 2
    kernel_size: 5
    weight_filler {
      type: "xavier"
    }
    bias_filler {
      type: "constant"
      value: 0.2
    }
  }
}
layer {
  name: "inception_3b/relu_5x5"
  type: "ReLU"
  bottom: "inception_3b/5x5"
  top: "inception_3b/5x5"
}
layer {
  name: "inception_3b/pool"
  type: "Pooling"
  bottom: "inception_3a/output"
  top: "inception_3b/pool"
  pooling_param {
    pool: MAX
    kernel_size: 3
    stride: 1
    pad: 1
  }
}
layer {
  name: "inception_3b/pool_proj"
  type: "Convolution"
  bottom: "inception_3b/pool"
  top: "inception_3b/pool_proj"
  param {
    lr_mult: 1
    decay_mult: 1
  }
  param {
    lr_mult: 2
    decay_mult: 0
  }
  convolution_param {
    num_output: 64
    kernel_size: 1
    weight_filler {
      type: "xavier"
    }
    bias_filler {
      type: "constant"
      value: 0.2
    }
  }
}
layer {
  name: "inception_3b/relu_pool_proj"
  type: "ReLU"
  bottom: "inception_3b/pool_proj"
  top: "inception_3b/pool_proj"
}
layer {
  name: "inception_3b/output"
  type: "Concat"
  bottom: "inception_3b/1x1"
  bottom: "inception_3b/3x3"
  bottom: "inception_3b/5x5"
  bottom: "inception_3b/pool_proj"
  top: "inception_3b/output"
}
layer {
  name: "pool3/3x3_s2"
  type: "Pooling"
  bottom: "inception_3b/output"
  top: "pool3/3x3_s2"
  pooling_param {
    pool: MAX
    kernel_size: 3
    stride: 2
  }
}
layer {
  name: "inception_4a/1x1"
  type: "Convolution"
  bottom: "pool3/3x3_s2"
  top: "inception_4a/1x1"
  param {
    lr_mult: 1
    decay_mult: 1
  }
  param {
    lr_mult: 2
    decay_mult: 0
  }
  convolution_param {
    num_output: 192
    kernel_size: 1
    weight_filler {
      type: "xavier"
    }
    bias_filler {
      type: "constant"
      value: 0.2
    }
  }
}
layer {
  name: "inception_4a/relu_1x1"
  type: "ReLU"
  bottom: "inception_4a/1x1"
  top: "inception_4a/1x1"
}
layer {
  name: "inception_4a/3x3_reduce"
  type: "Convolution"
  bottom: "pool3/3x3_s2"
  top: "inception_4a/3x3_reduce"
  param {
    lr_mult: 1
    decay_mult: 1
  }
  param {
    lr_mult: 2
    decay_mult: 0
  }
  convolution_param {
    num_output: 96
    kernel_size: 1
    weight_filler {
      type: "xavier"
    }
    bias_filler {
      type: "constant"
      value: 0.2
    }
  }
}
layer {
  name: "inception_4a/relu_3x3_reduce"
  type: "ReLU"
  bottom: "inception_4a/3x3_reduce"
  top: "inception_4a/3x3_reduce"
}
layer {
  name: "inception_4a/3x3"
  type: "Convolution"
  bottom: "inception_4a/3x3_reduce"
  top: "inception_4a/3x3"
  param {
    lr_mult: 1
    decay_mult: 1
  }
  param {
    lr_mult: 2
    decay_mult: 0
  }
  convolution_param {
    num_output: 208
    pad: 1
    kernel_size: 3
    weight_filler {
      type: "xavier"
    }
    bias_filler {
      type: "constant"
      value: 0.2
    }
  }
}
layer {
  name: "inception_4a/relu_3x3"
  type: "ReLU"
  bottom: "inception_4a/3x3"
  top: "inception_4a/3x3"
}
layer {
  name: "inception_4a/5x5_reduce"
  type: "Convolution"
  bottom: "pool3/3x3_s2"
  top: "inception_4a/5x5_reduce"
  param {
    lr_mult: 1
    decay_mult: 1
  }
  param {
    lr_mult: 2
    decay_mult: 0
  }
  convolution_param {
    num_output: 16
    kernel_size: 1
    weight_filler {
      type: "xavier"
    }
    bias_filler {
      type: "constant"
      value: 0.2
    }
  }
}
layer {
  name: "inception_4a/relu_5x5_reduce"
  type: "ReLU"
  bottom: "inception_4a/5x5_reduce"
  top: "inception_4a/5x5_reduce"
}
layer {
  name: "inception_4a/5x5"
  type: "Convolution"
  bottom: "inception_4a/5x5_reduce"
  top: "inception_4a/5x5"
  param {
    lr_mult: 1
    decay_mult: 1
  }
  param {
    lr_mult: 2
    decay_mult: 0
  }
  convolution_param {
    num_output: 48
    pad: 2
    kernel_size: 5
    weight_filler {
      type: "xavier"
    }
    bias_filler {
      type: "constant"
      value: 0.2
    }
  }
}
layer {
  name: "inception_4a/relu_5x5"
  type: "ReLU"
  bottom: "inception_4a/5x5"
  top: "inception_4a/5x5"
}
layer {
  name: "inception_4a/pool"
  type: "Pooling"
  bottom: "pool3/3x3_s2"
  top: "inception_4a/pool"
  pooling_param {
    pool: MAX
    kernel_size: 3
    stride: 1
    pad: 1
  }
}
layer {
  name: "inception_4a/pool_proj"
  type: "Convolution"
  bottom: "inception_4a/pool"
  top: "inception_4a/pool_proj"
  param {
    lr_mult: 1
    decay_mult: 1
  }
  param {
    lr_mult: 2
    decay_mult: 0
  }
  convolution_param {
    num_output: 64
    kernel_size: 1
    weight_filler {
      type: "xavier"
    }
    bias_filler {
      type: "constant"
      value: 0.2
    }
  }
}
layer {
  name: "inception_4a/relu_pool_proj"
  type: "ReLU"
  bottom: "inception_4a/pool_proj"
  top: "inception_4a/pool_proj"
}
layer {
  name: "inception_4a/output"
  type: "Concat"
  bottom: "inception_4a/1x1"
  bottom: "inception_4a/3x3"
  bottom: "inception_4a/5x5"
  bottom: "inception_4a/pool_proj"
  top: "inception_4a/output"
}
layer {
  name: "loss1/ave_pool"
  type: "Pooling"
  bottom: "inception_4a/output"
  top: "loss1/ave_pool"
  pooling_param {
    pool: AVE
    kernel_size: 5
    stride: 3
  }
}
layer {
  name: "loss1/conv"
  type: "Convolution"
  bottom: "loss1/ave_pool"
  top: "loss1/conv"
  param {
    lr_mult: 1
    decay_mult: 1
  }
  param {
    lr_mult: 2
    decay_mult: 0
  }
  convolution_param {
    num_output: 128
    kernel_size: 1
    weight_filler {
      type: "xavier"
    }
    bias_filler {
      type: "constant"
      value: 0.2
    }
  }
}
layer {
  name: "loss1/relu_conv"
  type: "ReLU"
  bottom: "loss1/conv"
  top: "loss1/conv"
}
layer {
  name: "loss1/fc"
  type: "InnerProduct"
  bottom: "loss1/conv"
  top: "loss1/fc"
  param {
    lr_mult: 1
    decay_mult: 1
  }
  param {
    lr_mult: 2
    decay_mult: 0
  }
  inner_product_param {
    num_output: 1024
    weight_filler {
      type: "xavier"
    }
    bias_filler {
      type: "constant"
      value: 0.2
    }
  }
}
layer {
  name: "loss1/relu_fc"
  type: "ReLU"
  bottom: "loss1/fc"
  top: "loss1/fc"
}
layer {
  name: "loss1/drop_fc"
  type: "Dropout"
  bottom: "loss1/fc"
  top: "loss1/fc"
  dropout_param {
    dropout_ratio: 0.7
  }
}
layer {
  name: "loss1/classifier-gai"
  type: "InnerProduct"
  bottom: "loss1/fc"
  top: "loss1/classifier-gai"
  param {
    lr_mult: 20
    decay_mult: 1
  }
  param {
    lr_mult: 30
    decay_mult: 0
  }
  inner_product_param {
    num_output: 16
    weight_filler {
      type: "xavier"
    }
    bias_filler {
      type: "constant"
      value: 0
    }
  }
}
layer {
  name: "loss1/loss"
  type: "SoftmaxWithLoss"
  bottom: "loss1/classifier-gai"
  bottom: "label"
  top: "lt1"
  loss_weight: 0.3
}
layer {
  name: "lt1p1"
  type: "Accuracy"
  bottom: "loss1/classifier-gai"
  bottom: "label"
  top: "lt1p1"
  include {
    phase: TEST
  }
}
layer {
  name: "lt1p5"
  type: "Accuracy"
  bottom: "loss1/classifier-gai"
  bottom: "label"
  top: "lt1p5"
  include {
…
I1123 12:33:15.356953 28480 net.cpp:406] inception_4c/relu_5x5 <- inception_4c/5x5
I1123 12:33:15.356957 28480 net.cpp:367] inception_4c/relu_5x5 -> inception_4c/5x5 (in-place)
I1123 12:33:15.357123 28480 net.cpp:122] Setting up inception_4c/relu_5x5
I1123 12:33:15.357131 28480 net.cpp:129] Top shape: 3 64 14 14 (37632)
I1123 12:33:15.357133 28480 net.cpp:137] Memory required for data: 131370360
I1123 12:33:15.357136 28480 layer_factory.hpp:77] Creating layer inception_4c/pool
I1123 12:33:15.357142 28480 net.cpp:84] Creating Layer inception_4c/pool
I1123 12:33:15.357144 28480 net.cpp:406] inception_4c/pool <- inception_4b/output_inception_4b/output_0_split_3
I1123 12:33:15.357149 28480 net.cpp:380] inception_4c/pool -> inception_4c/pool
I1123 12:33:15.357209 28480 net.cpp:122] Setting up inception_4c/pool
I1123 12:33:15.357216 28480 net.cpp:129] Top shape: 3 512 14 14 (301056)
I1123 12:33:15.357218 28480 net.cpp:137] Memory required for data: 132574584
I1123 12:33:15.357220 28480 layer_factory.hpp:77] Creating layer inception_4c/pool_proj
I1123 12:33:15.357226 28480 net.cpp:84] Creating Layer inception_4c/pool_proj
I1123 12:33:15.357229 28480 net.cpp:406] inception_4c/pool_proj <- inception_4c/pool
I1123 12:33:15.357234 28480 net.cpp:380] inception_4c/pool_proj -> inception_4c/pool_proj
I1123 12:33:15.359071 28480 net.cpp:122] Setting up inception_4c/pool_proj
I1123 12:33:15.359081 28480 net.cpp:129] Top shape: 3 64 14 14 (37632)
I1123 12:33:15.359083 28480 net.cpp:137] Memory required for data: 132725112
I1123 12:33:15.359087 28480 layer_factory.hpp:77] Creating layer inception_4c/relu_pool_proj
I1123 12:33:15.359092 28480 net.cpp:84] Creating Layer inception_4c/relu_pool_proj
I1123 12:33:15.359096 28480 net.cpp:406] inception_4c/relu_pool_proj <- inception_4c/pool_proj
I1123 12:33:15.359099 28480 net.cpp:367] inception_4c/relu_pool_proj -> inception_4c/pool_proj (in-place)
I1123 12:33:15.359694 28480 net.cpp:122] Setting up inception_4c/relu_pool_proj
I1123 12:33:15.359704 28480 net.cpp:129] Top shape: 3 64 14 14 (37632)
I1123 12:33:15.359707 28480 net.cpp:137] Memory required for data: 132875640
I1123 12:33:15.359709 28480 layer_factory.hpp:77] Creating layer inception_4c/output
I1123 12:33:15.359714 28480 net.cpp:84] Creating Layer inception_4c/output
I1123 12:33:15.359716 28480 net.cpp:406] inception_4c/output <- inception_4c/1x1
I1123 12:33:15.359719 28480 net.cpp:406] inception_4c/output <- inception_4c/3x3
I1123 12:33:15.359722 28480 net.cpp:406] inception_4c/output <- inception_4c/5x5
I1123 12:33:15.359724 28480 net.cpp:406] inception_4c/output <- inception_4c/pool_proj
I1123 12:33:15.359728 28480 net.cpp:380] inception_4c/output -> inception_4c/output
I1123 12:33:15.359771 28480 net.cpp:122] Setting up inception_4c/output
I1123 12:33:15.359778 28480 net.cpp:129] Top shape: 3 512 14 14 (301056)
I1123 12:33:15.359781 28480 net.cpp:137] Memory required for data: 134079864
I1123 12:33:15.359782 28480 layer_factory.hpp:77] Creating layer inception_4c/output_inception_4c/output_0_split
I1123 12:33:15.359787 28480 net.cpp:84] Creating Layer inception_4c/output_inception_4c/output_0_split
I1123 12:33:15.359789 28480 net.cpp:406] inception_4c/output_inception_4c/output_0_split <- inception_4c/output
I1123 12:33:15.359793 28480 net.cpp:380] inception_4c/output_inception_4c/output_0_split -> inception_4c/output_inception_4c/output_0_split_0
I1123 12:33:15.359799 28480 net.cpp:380] inception_4c/output_inception_4c/output_0_split -> inception_4c/output_inception_4c/output_0_split_1
I1123 12:33:15.359804 28480 net.cpp:380] inception_4c/output_inception_4c/output_0_split -> inception_4c/output_inception_4c/output_0_split_2
I1123 12:33:15.359817 28480 net.cpp:380] inception_4c/output_inception_4c/output_0_split -> inception_4c/output_inception_4c/output_0_split_3
I1123 12:33:15.359905 28480 net.cpp:122] Setting up inception_4c/output_inception_4c/output_0_split
I1123 12:33:15.359912 28480 net.cpp:129] Top shape: 3 512 14 14 (301056)
I1123 12:33:15.359915 28480 net.cpp:129] Top shape: 3 512 14 14 (301056)
I1123 12:33:15.359917 28480 net.cpp:129] Top shape: 3 512 14 14 (301056)
I1123 12:33:15.359920 28480 net.cpp:129] Top shape: 3 512 14 14 (301056)
I1123 12:33:15.359921 28480 net.cpp:137] Memory required for data: 138896760
I1123 12:33:15.359925 28480 layer_factory.hpp:77] Creating layer inception_4d/1x1
I1123 12:33:15.359931 28480 net.cpp:84] Creating Layer inception_4d/1x1
I1123 12:33:15.359935 28480 net.cpp:406] inception_4d/1x1 <- inception_4c/output_inception_4c/output_0_split_0
I1123 12:33:15.359938 28480 net.cpp:380] inception_4d/1x1 -> inception_4d/1x1
I1123 12:33:15.361872 28480 net.cpp:122] Setting up inception_4d/1x1
I1123 12:33:15.361884 28480 net.cpp:129] Top shape: 3 112 14 14 (65856)
I1123 12:33:15.361886 28480 net.cpp:137] Memory required for data: 139160184
I1123 12:33:15.361891 28480 layer_factory.hpp:77] Creating layer inception_4d/relu_1x1
I1123 12:33:15.361896 28480 net.cpp:84] Creating Layer inception_4d/relu_1x1
I1123 12:33:15.361898 28480 net.cpp:406] inception_4d/relu_1x1 <- inception_4d/1x1
I1123 12:33:15.361901 28480 net.cpp:367] inception_4d/relu_1x1 -> inception_4d/1x1 (in-place)
I1123 12:33:15.362507 28480 net.cpp:122] Setting up inception_4d/relu_1x1
I1123 12:33:15.362517 28480 net.cpp:129] Top shape: 3 112 14 14 (65856)
I1123 12:33:15.362519 28480 net.cpp:137] Memory required for data: 139423608
I1123 12:33:15.362522 28480 layer_factory.hpp:77] Creating layer inception_4d/3x3_reduce
I1123 12:33:15.362530 28480 net.cpp:84] Creating Layer inception_4d/3x3_reduce
I1123 12:33:15.362534 28480 net.cpp:406] inception_4d/3x3_reduce <- inception_4c/output_inception_4c/output_0_split_1
I1123 12:33:15.362538 28480 net.cpp:380] inception_4d/3x3_reduce -> inception_4d/3x3_reduce
I1123 12:33:15.364564 28480 net.cpp:122] Setting up inception_4d/3x3_reduce
I1123 12:33:15.364575 28480 net.cpp:129] Top shape: 3 144 14 14 (84672)
I1123 12:33:15.364578 28480 net.cpp:137] Memory required for data: 139762296
I1123 12:33:15.364583 28480 layer_factory.hpp:77] Creating layer inception_4d/relu_3x3_reduce
I1123 12:33:15.364586 28480 net.cpp:84] Creating Layer inception_4d/relu_3x3_reduce
I1123 12:33:15.364589 28480 net.cpp:406] inception_4d/relu_3x3_reduce <- inception_4d/3x3_reduce
I1123 12:33:15.364593 28480 net.cpp:367] inception_4d/relu_3x3_reduce -> inception_4d/3x3_reduce (in-place)
I1123 12:33:15.364761 28480 net.cpp:122] Setting up inception_4d/relu_3x3_reduce
I1123 12:33:15.364769 28480 net.cpp:129] Top shape: 3 144 14 14 (84672)
I1123 12:33:15.364773 28480 net.cpp:137] Memory required for data: 140100984
I1123 12:33:15.364774 28480 layer_factory.hpp:77] Creating layer inception_4d/3x3
I1123 12:33:15.364783 28480 net.cpp:84] Creating Layer inception_4d/3x3
I1123 12:33:15.364785 28480 net.cpp:406] inception_4d/3x3 <- inception_4d/3x3_reduce
I1123 12:33:15.364790 28480 net.cpp:380] inception_4d/3x3 -> inception_4d/3x3
I1123 12:33:15.368860 28480 net.cpp:122] Setting up inception_4d/3x3
I1123 12:33:15.368872 28480 net.cpp:129] Top shape: 3 288 14 14 (169344)
I1123 12:33:15.368875 28480 net.cpp:137] Memory required for data: 140778360
I1123 12:33:15.368880 28480 layer_factory.hpp:77] Creating layer inception_4d/relu_3x3
I1123 12:33:15.368885 28480 net.cpp:84] Creating Layer inception_4d/relu_3x3
I1123 12:33:15.368887 28480 net.cpp:406] inception_4d/relu_3x3 <- inception_4d/3x3
I1123 12:33:15.368892 28480 net.cpp:367] inception_4d/relu_3x3 -> inception_4d/3x3 (in-place)
I1123 12:33:15.369501 28480 net.cpp:122] Setting up inception_4d/relu_3x3
I1123 12:33:15.369513 28480 net.cpp:129] Top shape: 3 288 14 14 (169344)
I1123 12:33:15.369514 28480 net.cpp:137] Memory required for data: 141455736
I1123 12:33:15.369518 28480 layer_factory.hpp:77] Creating layer inception_4d/5x5_reduce
I1123 12:33:15.369534 28480 net.cpp:84] Creating Layer inception_4d/5x5_reduce
I1123 12:33:15.369537 28480 net.cpp:406] inception_4d/5x5_reduce <- inception_4c/output_inception_4c/output_0_split_2
I1123 12:33:15.369544 28480 net.cpp:380] inception_4d/5x5_reduce -> inception_4d/5x5_reduce
I1123 12:33:15.370920 28480 net.cpp:122] Setting up inception_4d/5x5_reduce
I1123 12:33:15.370932 28480 net.cpp:129] Top shape: 3 32 14 14 (18816)
I1123 12:33:15.370934 28480 net.cpp:137] Memory required for data: 141531000
I1123 12:33:15.370939 28480 layer_factory.hpp:77] Creating layer inception_4d/relu_5x5_reduce
I1123 12:33:15.370944 28480 net.cpp:84] Creating Layer inception_4d/relu_5x5_reduce
I1123 12:33:15.370946 28480 net.cpp:406] inception_4d/relu_5x5_reduce <- inception_4d/5x5_reduce
I1123 12:33:15.370949 28480 net.cpp:367] inception_4d/relu_5x5_reduce -> inception_4d/5x5_reduce (in-place)
I1123 12:33:15.371549 28480 net.cpp:122] Setting up inception_4d/relu_5x5_reduce
I1123 12:33:15.371559 28480 net.cpp:129] Top shape: 3 32 14 14 (18816)
I1123 12:33:15.371562 28480 net.cpp:137] Memory required for data: 141606264
I1123 12:33:15.371563 28480 layer_factory.hpp:77] Creating layer inception_4d/5x5
I1123 12:33:15.371570 28480 net.cpp:84] Creating Layer inception_4d/5x5
I1123 12:33:15.371573 28480 net.cpp:406] inception_4d/5x5 <- inception_4d/5x5_reduce
I1123 12:33:15.371578 28480 net.cpp:380] inception_4d/5x5 -> inception_4d/5x5
I1123 12:33:15.373528 28480 net.cpp:122] Setting up inception_4d/5x5
I1123 12:33:15.373540 28480 net.cpp:129] Top shape: 3 64 14 14 (37632)
I1123 12:33:15.373543 28480 net.cpp:137] Memory required for data: 141756792
I1123 12:33:15.373548 28480 layer_factory.hpp:77] Creating layer inception_4d/relu_5x5
I1123 12:33:15.373551 28480 net.cpp:84] Creating Layer inception_4d/relu_5x5
I1123 12:33:15.373553 28480 net.cpp:406] inception_4d/relu_5x5 <- inception_4d/5x5
I1123 12:33:15.373558 28480 net.cpp:367] inception_4d/relu_5x5 -> inception_4d/5x5 (in-place)
I1123 12:33:15.373726 28480 net.cpp:122] Setting up inception_4d/relu_5x5
I1123 12:33:15.373734 28480 net.cpp:129] Top shape: 3 64 14 14 (37632)
I1123 12:33:15.373736 28480 net.cpp:137] Memory required for data: 141907320
I1123 12:33:15.373739 28480 layer_factory.hpp:77] Creating layer inception_4d/pool
I1123 12:33:15.373744 28480 net.cpp:84] Creating Layer inception_4d/pool
I1123 12:33:15.373746 28480 net.cpp:406] inception_4d/pool <- inception_4c/output_inception_4c/output_0_split_3
I1123 12:33:15.373751 28480 net.cpp:380] inception_4d/pool -> inception_4d/pool
I1123 12:33:15.373816 28480 net.cpp:122] Setting up inception_4d/pool
I1123 12:33:15.373822 28480 net.cpp:129] Top shape: 3 512 14 14 (301056)
I1123 12:33:15.373824 28480 net.cpp:137] Memory required for data: 143111544
I1123 12:33:15.373826 28480 layer_factory.hpp:77] Creating layer inception_4d/pool_proj
I1123 12:33:15.373832 28480 net.cpp:84] Creating Layer inception_4d/pool_proj
I1123 12:33:15.373836 28480 net.cpp:406] inception_4d/pool_proj <- inception_4d/pool
I1123 12:33:15.373842 28480 net.cpp:380] inception_4d/pool_proj -> inception_4d/pool_proj
I1123 12:33:15.375710 28480 net.cpp:122] Setting up inception_4d/pool_proj
I1123 12:33:15.375726 28480 net.cpp:129] Top shape: 3 64 14 14 (37632)
I1123 12:33:15.375730 28480 net.cpp:137] Memory required for data: 143262072
I1123 12:33:15.375736 28480 layer_factory.hpp:77] Creating layer inception_4d/relu_pool_proj
I1123 12:33:15.375742 28480 net.cpp:84] Creating Layer inception_4d/relu_pool_proj
I1123 12:33:15.375746 28480 net.cpp:406] inception_4d/relu_pool_proj <- inception_4d/pool_proj
I1123 12:33:15.375751 28480 net.cpp:367] inception_4d/relu_pool_proj -> inception_4d/pool_proj (in-place)
I1123 12:33:15.376372 28480 net.cpp:122] Setting up inception_4d/relu_pool_proj
I1123 12:33:15.376381 28480 net.cpp:129] Top shape: 3 64 14 14 (37632)
I1123 12:33:15.376384 28480 net.cpp:137] Memory required for data: 143412600
I1123 12:33:15.376386 28480 layer_factory.hpp:77] Creating layer inception_4d/output
I1123 12:33:15.376399 28480 net.cpp:84] Creating Layer inception_4d/output
I1123 12:33:15.376402 28480 net.cpp:406] inception_4d/output <- inception_4d/1x1
I1123 12:33:15.376405 28480 net.cpp:406] inception_4d/output <- inception_4d/3x3
I1123 12:33:15.376408 28480 net.cpp:406] inception_4d/output <- inception_4d/5x5
I1123 12:33:15.376410 28480 net.cpp:406] inception_4d/output <- inception_4d/pool_proj
I1123 12:33:15.376415 28480 net.cpp:380] inception_4d/output -> inception_4d/output
I1123 12:33:15.376456 28480 net.cpp:122] Setting up inception_4d/output
I1123 12:33:15.376463 28480 net.cpp:129] Top shape: 3 528 14 14 (310464)
I1123 12:33:15.376466 28480 net.cpp:137] Memory required for data: 144654456
I1123 12:33:15.376467 28480 layer_factory.hpp:77] Creating layer inception_4d/output_inception_4d/output_0_split
I1123 12:33:15.376473 28480 net.cpp:84] Creating Layer inception_4d/output_inception_4d/output_0_split
I1123 12:33:15.376476 28480 net.cpp:406] inception_4d/output_inception_4d/output_0_split <- inception_4d/output
I1123 12:33:15.376480 28480 net.cpp:380] inception_4d/output_inception_4d/output_0_split -> inception_4d/output_inception_4d/output_0_split_0
I1123 12:33:15.376485 28480 net.cpp:380] inception_4d/output_inception_4d/output_0_split -> inception_4d/output_inception_4d/output_0_split_1
I1123 12:33:15.376490 28480 net.cpp:380] inception_4d/output_inception_4d/output_0_split -> inception_4d/output_inception_4d/output_0_split_2
I1123 12:33:15.376494 28480 net.cpp:380] inception_4d/output_inception_4d/output_0_split -> inception_4d/output_inception_4d/output_0_split_3
I1123 12:33:15.376498 28480 net.cpp:380] inception_4d/output_inception_4d/output_0_split -> inception_4d/output_inception_4d/output_0_split_4
I1123 12:33:15.376606 28480 net.cpp:122] Setting up inception_4d/output_inception_4d/output_0_split
I1123 12:33:15.376613 28480 net.cpp:129] Top shape: 3 528 14 14 (310464)
I1123 12:33:15.376616 28480 net.cpp:129] Top shape: 3 528 14 14 (310464)
I1123 12:33:15.376618 28480 net.cpp:129] Top shape: 3 528 14 14 (310464)
I1123 12:33:15.376621 28480 net.cpp:129] Top shape: 3 528 14 14 (310464)
I1123 12:33:15.376623 28480 net.cpp:129] Top shape: 3 528 14 14 (310464)
I1123 12:33:15.376626 28480 net.cpp:137] Memory required for data: 150863736
I1123 12:33:15.376627 28480 layer_factory.hpp:77] Creating layer loss2/ave_pool
I1123 12:33:15.376631 28480 net.cpp:84] Creating Layer loss2/ave_pool
I1123 12:33:15.376634 28480 net.cpp:406] loss2/ave_pool <- inception_4d/output_inception_4d/output_0_split_0
I1123 12:33:15.376639 28480 net.cpp:380] loss2/ave_pool -> loss2/ave_pool
I1123 12:33:15.376832 28480 net.cpp:122] Setting up loss2/ave_pool
I1123 12:33:15.376842 28480 net.cpp:129] Top shape: 3 528 4 4 (25344)
I1123 12:33:15.376843 28480 net.cpp:137] Memory required for data: 150965112
I1123 12:33:15.376847 28480 layer_factory.hpp:77] Creating layer loss2/conv
I1123 12:33:15.376857 28480 net.cpp:84] Creating Layer loss2/conv
I1123 12:33:15.376863 28480 net.cpp:406] loss2/conv <- loss2/ave_pool
I1123 12:33:15.376869 28480 net.cpp:380] loss2/conv -> loss2/conv
I1123 12:33:15.380023 28480 net.cpp:122] Setting up loss2/conv
I1123 12:33:15.380034 28480 net.cpp:129] Top shape: 3 128 4 4 (6144)
I1123 12:33:15.380038 28480 net.cpp:137] Memory required for data: 150989688
I1123 12:33:15.380043 28480 layer_factory.hpp:77] Creating layer loss2/relu_conv
I1123 12:33:15.380048 28480 net.cpp:84] Creating Layer loss2/relu_conv
I1123 12:33:15.380050 28480 net.cpp:406] loss2/relu_conv <- loss2/conv
I1123 12:33:15.380054 28480 net.cpp:367] loss2/relu_conv -> loss2/conv (in-place)
I1123 12:33:15.380653 28480 net.cpp:122] Setting up loss2/relu_conv
I1123 12:33:15.380663 28480 net.cpp:129] Top shape: 3 128 4 4 (6144)
I1123 12:33:15.380666 28480 net.cpp:137] Memory required for data: 151014264
I1123 12:33:15.380668 28480 layer_factory.hpp:77] Creating layer loss2/fc
I1123 12:33:15.380676 28480 net.cpp:84] Creating Layer loss2/fc
I1123 12:33:15.380677 28480 net.cpp:406] loss2/fc <- loss2/conv
I1123 12:33:15.380681 28480 net.cpp:380] loss2/fc -> loss2/fc
I1123 12:33:15.390780 28480 net.cpp:122] Setting up loss2/fc
I1123 12:33:15.390795 28480 net.cpp:129] Top shape: 3 1024 (3072)
I1123 12:33:15.390797 28480 net.cpp:137] Memory required for data: 151026552
I1123 12:33:15.390803 28480 layer_factory.hpp:77] Creating layer loss2/relu_fc
I1123 12:33:15.390807 28480 net.cpp:84] Creating Layer loss2/relu_fc
I1123 12:33:15.390810 28480 net.cpp:406] loss2/relu_fc <- loss2/fc
I1123 12:33:15.390815 28480 net.cpp:367] loss2/relu_fc -> loss2/fc (in-place)
I1123 12:33:15.391000 28480 net.cpp:122] Setting up loss2/relu_fc
I1123 12:33:15.391008 28480 net.cpp:129] Top shape: 3 1024 (3072)
I1123 12:33:15.391010 28480 net.cpp:137] Memory required for data: 151038840
I1123 12:33:15.391012 28480 layer_factory.hpp:77] Creating layer loss2/drop_fc
I1123 12:33:15.391018 28480 net.cpp:84] Creating Layer loss2/drop_fc
I1123 12:33:15.391021 28480 net.cpp:406] loss2/drop_fc <- loss2/fc
I1123 12:33:15.391024 28480 net.cpp:367] loss2/drop_fc -> loss2/fc (in-place)
I1123 12:33:15.391064 28480 net.cpp:122] Setting up loss2/drop_fc
I1123 12:33:15.391070 28480 net.cpp:129] Top shape: 3 1024 (3072)
I1123 12:33:15.391072 28480 net.cpp:137] Memory required for data: 151051128
I1123 12:33:15.391074 28480 layer_factory.hpp:77] Creating layer loss2/classifier-gai
I1123 12:33:15.391080 28480 net.cpp:84] Creating Layer loss2/classifier-gai
I1123 12:33:15.391083 28480 net.cpp:406] loss2/classifier-gai <- loss2/fc
I1123 12:33:15.391088 28480 net.cpp:380] loss2/classifier-gai -> loss2/classifier-gai
I1123 12:33:15.391314 28480 net.cpp:122] Setting up loss2/classifier-gai
I1123 12:33:15.391320 28480 net.cpp:129] Top shape: 3 16 (48)
I1123 12:33:15.391322 28480 net.cpp:137] Memory required for data: 151051320
I1123 12:33:15.391326 28480 layer_factory.hpp:77] Creating layer loss2/classifier-gai_loss2/classifier-gai_0_split
I1123 12:33:15.391331 28480 net.cpp:84] Creating Layer loss2/classifier-gai_loss2/classifier-gai_0_split
I1123 12:33:15.391335 28480 net.cpp:406] loss2/classifier-gai_loss2/classifier-gai_0_split <- loss2/classifier-gai
I1123 12:33:15.391338 28480 net.cpp:380] loss2/classifier-gai_loss2/classifier-gai_0_split -> loss2/classifier-gai_loss2/classifier-gai_0_split_0
I1123 12:33:15.391343 28480 net.cpp:380] loss2/classifier-gai_loss2/classifier-gai_0_split -> loss2/classifier-gai_loss2/classifier-gai_0_split_1
I1123 12:33:15.391347 28480 net.cpp:380] loss2/classifier-gai_loss2/classifier-gai_0_split -> loss2/classifier-gai_loss2/classifier-gai_0_split_2
I1123 12:33:15.391418 28480 net.cpp:122] Setting up loss2/classifier-gai_loss2/classifier-gai_0_split
I1123 12:33:15.391423 28480 net.cpp:129] Top shape: 3 16 (48)
I1123 12:33:15.391427 28480 net.cpp:129] Top shape: 3 16 (48)
I1123 12:33:15.391428 28480 net.cpp:129] Top shape: 3 16 (48)
I1123 12:33:15.391429 28480 net.cpp:137] Memory required for data: 151051896
I1123 12:33:15.391432 28480 layer_factory.hpp:77] Creating layer lt2
I1123 12:33:15.391436 28480 net.cpp:84] Creating Layer lt2
I1123 12:33:15.391438 28480 net.cpp:406] lt2 <- loss2/classifier-gai_loss2/classifier-gai_0_split_0
I1123 12:33:15.391443 28480 net.cpp:406] lt2 <- label_data_1_split_3
I1123 12:33:15.391448 28480 net.cpp:380] lt2 -> lt2
…
I1123 12:33:15.392299 28480 net.cpp:122] Setting up lt2p5
I1123 12:33:15.392302 28480 net.cpp:129] Top shape: (1)
I1123 12:33:15.392304 28480 net.cpp:137] Memory required for data: 151051908
I1123 12:33:15.392307 28480 layer_factory.hpp:77] Creating layer inception_4e/1x1
I1123 12:33:15.392313 28480 net.cpp:84] Creating Layer inception_4e/1x1
I1123 12:33:15.392316 28480 net.cpp:406] inception_4e/1x1 <- inception_4d/output_inception_4d/output_0_split_1
I1123 12:33:15.392321 28480 net.cpp:380] inception_4e/1x1 -> inception_4e/1x1
I1123 12:33:15.394618 28480 net.cpp:122] Setting up inception_4e/1x1
I1123 12:33:15.394630 28480 net.cpp:129] Top shape: 3 256 14 14 (150528)
I1123 12:33:15.394632 28480 net.cpp:137] Memory required for data: 151654020
I1123 12:33:15.394637 28480 layer_factory.hpp:77] Creating layer inception_4e/relu_1x1
I1123 12:33:15.394641 28480 net.cpp:84] Creating Layer inception_4e/relu_1x1
I1123 12:33:15.394644 28480 net.cpp:406] inception_4e/relu_1x1 <- inception_4e/1x1
I1123 12:33:15.394651 28480 net.cpp:367] inception_4e/relu_1x1 -> inception_4e/1x1 (in-place)
I1123 12:33:15.395316 28480 net.cpp:122] Setting up inception_4e/relu_1x1
I1123 12:33:15.395326 28480 net.cpp:129] Top shape: 3 256 14 14 (150528)
I1123 12:33:15.395328 28480 net.cpp:137] Memory required for data: 152256132
I1123 12:33:15.395331 28480 layer_factory.hpp:77] Creating layer inception_4e/3x3_reduce
I1123 12:33:15.395362 28480 net.cpp:84] Creating Layer inception_4e/3x3_reduce
I1123 12:33:15.395367 28480 net.cpp:406] inception_4e/3x3_reduce <- inception_4d/output_inception_4d/output_0_split_2
I1123 12:33:15.395372 28480 net.cpp:380] inception_4e/3x3_reduce -> inception_4e/3x3_reduce
I1123 12:33:15.398284 28480 net.cpp:122] Setting up inception_4e/3x3_reduce
I1123 12:33:15.398295 28480 net.cpp:129] Top shape: 3 160 14 14 (94080)
I1123 12:33:15.398298 28480 net.cpp:137] Memory required for data: 152632452
I1123 12:33:15.398303 28480 layer_factory.hpp:77] Creating layer inception_4e/relu_3x3_reduce
I1123 12:33:15.398309 28480 net.cpp:84] Creating Layer inception_4e/relu_3x3_reduce
I1123 12:33:15.398313 28480 net.cpp:406] inception_4e/relu_3x3_reduce <- inception_4e/3x3_reduce
I1123 12:33:15.398317 28480 net.cpp:367] inception_4e/relu_3x3_reduce -> inception_4e/3x3_reduce (in-place)
I1123 12:33:15.398485 28480 net.cpp:122] Setting up inception_4e/relu_3x3_reduce
I1123 12:33:15.398494 28480 net.cpp:129] Top shape: 3 160 14 14 (94080)
I1123 12:33:15.398496 28480 net.cpp:137] Memory required for data: 153008772
I1123 12:33:15.398499 28480 layer_factory.hpp:77] Creating layer inception_4e/3x3
I1123 12:33:15.398506 28480 net.cpp:84] Creating Layer inception_4e/3x3
I1123 12:33:15.398509 28480 net.cpp:406] inception_4e/3x3 <- inception_4e/3x3_reduce
I1123 12:33:15.398514 28480 net.cpp:380] inception_4e/3x3 -> inception_4e/3x3
I1123 12:33:15.402812 28480 net.cpp:122] Setting up inception_4e/3x3
I1123 12:33:15.402823 28480 net.cpp:129] Top shape: 3 320 14 14 (188160)
I1123 12:33:15.402827 28480 net.cpp:137] Memory required for data: 153761412
I1123 12:33:15.402832 28480 layer_factory.hpp:77] Creating layer inception_4e/relu_3x3
I1123 12:33:15.402837 28480 net.cpp:84] Creating Layer inception_4e/relu_3x3
I1123 12:33:15.402839 28480 net.cpp:406] inception_4e/relu_3x3 <- inception_4e/3x3
I1123 12:33:15.402842 28480 net.cpp:367] inception_4e/relu_3x3 -> inception_4e/3x3 (in-place)
I1123 12:33:15.403455 28480 net.cpp:122] Setting up inception_4e/relu_3x3
I1123 12:33:15.403463 28480 net.cpp:129] Top shape: 3 320 14 14 (188160)
I1123 12:33:15.403466 28480 net.cpp:137] Memory required for data: 154514052
I1123 12:33:15.403468 28480 layer_factory.hpp:77] Creating layer inception_4e/5x5_reduce
I1123 12:33:15.403486 28480 net.cpp:84] Creating Layer inception_4e/5x5_reduce
I1123 12:33:15.403491 28480 net.cpp:406] inception_4e/5x5_reduce <- inception_4d/output_inception_4d/output_0_split_3
I1123 12:33:15.403496 28480 net.cpp:380] inception_4e/5x5_reduce -> inception_4e/5x5_reduce
I1123 12:33:15.404703 28480 net.cpp:122] Setting up inception_4e/5x5_reduce
I1123 12:33:15.404713 28480 net.cpp:129] Top shape: 3 32 14 14 (18816)
I1123 12:33:15.404716 28480 net.cpp:137] Memory required for data: 154589316
I1123 12:33:15.404721 28480 layer_factory.hpp:77] Creating layer inception_4e/relu_5x5_reduce
I1123 12:33:15.404724 28480 net.cpp:84] Creating Layer inception_4e/relu_5x5_reduce
I1123 12:33:15.404727 28480 net.cpp:406] inception_4e/relu_5x5_reduce <- inception_4e/5x5_reduce
I1123 12:33:15.404731 28480 net.cpp:367] inception_4e/relu_5x5_reduce -> inception_4e/5x5_reduce (in-place)
I1123 12:33:15.405331 28480 net.cpp:122] Setting up inception_4e/relu_5x5_reduce
I1123 12:33:15.405341 28480 net.cpp:129] Top shape: 3 32 14 14 (18816)
I1123 12:33:15.405344 28480 net.cpp:137] Memory required for data: 154664580
I1123 12:33:15.405345 28480 layer_factory.hpp:77] Creating layer inception_4e/5x5
I1123 12:33:15.405352 28480 net.cpp:84] Creating Layer inception_4e/5x5
I1123 12:33:15.405355 28480 net.cpp:406] inception_4e/5x5 <- inception_4e/5x5_reduce
I1123 12:33:15.405360 28480 net.cpp:380] inception_4e/5x5 -> inception_4e/5x5
I1123 12:33:15.407315 28480 net.cpp:122] Setting up inception_4e/5x5
I1123 12:33:15.407325 28480 net.cpp:129] Top shape: 3 128 14 14 (75264)
I1123 12:33:15.407327 28480 net.cpp:137] Memory required for data: 154965636
I1123 12:33:15.407331 28480 layer_factory.hpp:77] Creating layer inception_4e/relu_5x5
I1123 12:33:15.407338 28480 net.cpp:84] Creating Layer inception_4e/relu_5x5
I1123 12:33:15.407341 28480 net.cpp:406] inception_4e/relu_5x5 <- inception_4e/5x5
I1123 12:33:15.407344 28480 net.cpp:367] inception_4e/relu_5x5 -> inception_4e/5x5 (in-place)
I1123 12:33:15.407519 28480 net.cpp:122] Setting up inception_4e/relu_5x5
I1123 12:33:15.407527 28480 net.cpp:129] Top shape: 3 128 14 14 (75264)
I1123 12:33:15.407529 28480 net.cpp:137] Memory required for data: 155266692
I1123 12:33:15.407532 28480 layer_factory.hpp:77] Creating layer inception_4e/pool
I1123 12:33:15.407537 28480 net.cpp:84] Creating Layer inception_4e/pool
I1123 12:33:15.407541 28480 net.cpp:406] inception_4e/pool <- inception_4d/output_inception_4d/output_0_split_4
I1123 12:33:15.407546 28480 net.cpp:380] inception_4e/pool -> inception_4e/pool
I1123 12:33:15.407582 28480 net.cpp:122] Setting up inception_4e/pool
I1123 12:33:15.407586 28480 net.cpp:129] Top shape: 3 528 14 14 (310464)
I1123 12:33:15.407588 28480 net.cpp:137] Memory required for data: 156508548
I1123 12:33:15.407590 28480 layer_factory.hpp:77] Creating layer inception_4e/pool_proj
I1123 12:33:15.407598 28480 net.cpp:84] Creating Layer inception_4e/pool_proj
I1123 12:33:15.407603 28480 net.cpp:406] inception_4e/pool_proj <- inception_4e/pool
I1123 12:33:15.407606 28480 net.cpp:380] inception_4e/pool_proj -> inception_4e/pool_proj
I1123 12:33:15.409443 28480 net.cpp:122] Setting up inception_4e/pool_proj
I1123 12:33:15.409453 28480 net.cpp:129] Top shape: 3 128 14 14 (75264)
I1123 12:33:15.409456 28480 net.cpp:137] Memory required for data: 156809604
I1123 12:33:15.409461 28480 layer_factory.hpp:77] Creating layer inception_4e/relu_pool_proj
I1123 12:33:15.409466 28480 net.cpp:84] Creating Layer inception_4e/relu_pool_proj
I1123 12:33:15.409468 28480 net.cpp:406] inception_4e/relu_pool_proj <- inception_4e/pool_proj
I1123 12:33:15.409472 28480 net.cpp:367] inception_4e/relu_pool_proj -> inception_4e/pool_proj (in-place)
I1123 12:33:15.410079 28480 net.cpp:122] Setting up inception_4e/relu_pool_proj
I1123 12:33:15.410089 28480 net.cpp:129] Top shape: 3 128 14 14 (75264)
I1123 12:33:15.410090 28480 net.cpp:137] Memory required for data: 157110660
I1123 12:33:15.410092 28480 layer_factory.hpp:77] Creating layer inception_4e/output
I1123 12:33:15.410099 28480 net.cpp:84] Creating Layer inception_4e/output
I1123 12:33:15.410109 28480 net.cpp:406] inception_4e/output <- inception_4e/1x1
I1123 12:33:15.410114 28480 net.cpp:406] inception_4e/output <- inception_4e/3x3
I1123 12:33:15.410115 28480 net.cpp:406] inception_4e/output <- inception_4e/5x5
I1123 12:33:15.410118 28480 net.cpp:406] inception_4e/output <- inception_4e/pool_proj
I1123 12:33:15.410122 28480 net.cpp:380] inception_4e/output -> inception_4e/output
I1123 12:33:15.410147 28480 net.cpp:122] Setting up inception_4e/output
I1123 12:33:15.410151 28480 net.cpp:129] Top shape: 3 832 14 14 (489216)
I1123 12:33:15.410153 28480 net.cpp:137] Memory required for data: 159067524
I1123 12:33:15.410156 28480 layer_factory.hpp:77] Creating layer pool4/3x3_s2
I1123 12:33:15.410161 28480 net.cpp:84] Creating Layer pool4/3x3_s2
I1123 12:33:15.410163 28480 net.cpp:406] pool4/3x3_s2 <- inception_4e/output
I1123 12:33:15.410167 28480 net.cpp:380] pool4/3x3_s2 -> pool4/3x3_s2
I1123 12:33:15.410197 28480 net.cpp:122] Setting up pool4/3x3_s2
I1123 12:33:15.410203 28480 net.cpp:129] Top shape: 3 832 7 7 (122304)
I1123 12:33:15.410205 28480 net.cpp:137] Memory required for data: 159556740
I1123 12:33:15.410207 28480 layer_factory.hpp:77] Creating layer pool4/3x3_s2_pool4/3x3_s2_0_split
I1123 12:33:15.410212 28480 net.cpp:84] Creating Layer pool4/3x3_s2_pool4/3x3_s2_0_split
I1123 12:33:15.410214 28480 net.cpp:406] pool4/3x3_s2_pool4/3x3_s2_0_split <- pool4/3x3_s2
I1123 12:33:15.410219 28480 net.cpp:380] pool4/3x3_s2_pool4/3x3_s2_0_split -> pool4/3x3_s2_pool4/3x3_s2_0_split_0
I1123 12:33:15.410223 28480 net.cpp:380] pool4/3x3_s2_pool4/3x3_s2_0_split -> pool4/3x3_s2_pool4/3x3_s2_0_split_1
I1123 12:33:15.410228 28480 net.cpp:380] pool4/3x3_s2_pool4/3x3_s2_0_split -> pool4/3x3_s2_pool4/3x3_s2_0_split_2
I1123 12:33:15.410233 28480 net.cpp:380] pool4/3x3_s2_pool4/3x3_s2_0_split -> pool4/3x3_s2_pool4/3x3_s2_0_split_3
I1123 12:33:15.410296 28480 net.cpp:122] Setting up pool4/3x3_s2_pool4/3x3_s2_0_split
I1123 12:33:15.410302 28480 net.cpp:129] Top shape: 3 832 7 7 (122304)
I1123 12:33:15.410305 28480 net.cpp:129] Top shape: 3 832 7 7 (122304)
I1123 12:33:15.410307 28480 net.cpp:129] Top shape: 3 832 7 7 (122304)
I1123 12:33:15.410310 28480 net.cpp:129] Top shape: 3 832 7 7 (122304)
I1123 12:33:15.410312 28480 net.cpp:137] Memory required for data: 161513604
I1123 12:33:15.410315 28480 layer_factory.hpp:77] Creating layer inception_5a/1x1
I1123 12:33:15.410320 28480 net.cpp:84] Creating Layer inception_5a/1x1
I1123 12:33:15.410322 28480 net.cpp:406] inception_5a/1x1 <- pool4/3x3_s2_pool4/3x3_s2_0_split_0
I1123 12:33:15.410326 28480 net.cpp:380] inception_5a/1x1 -> inception_5a/1x1
I1123 12:33:15.412714 28480 net.cpp:122] Setting up inception_5a/1x1
I1123 12:33:15.412725 28480 net.cpp:129] Top shape: 3 256 7 7 (37632)
I1123 12:33:15.412729 28480 net.cpp:137] Memory required for data: 161664132
I1123 12:33:15.412734 28480 layer_factory.hpp:77] Creating layer inception_5a/relu_1x1
I1123 12:33:15.412737 28480 net.cpp:84] Creating Layer inception_5a/relu_1x1
I1123 12:33:15.412740 28480 net.cpp:406] inception_5a/relu_1x1 <- inception_5a/1x1
I1123 12:33:15.412744 28480 net.cpp:367] inception_5a/relu_1x1 -> inception_5a/1x1 (in-place)
I1123 12:33:15.413409 28480 net.cpp:122] Setting up inception_5a/relu_1x1
I1123 12:33:15.413419 28480 net.cpp:129] Top shape: 3 256 7 7 (37632)
I1123 12:33:15.413421 28480 net.cpp:137] Memory required for data: 161814660
I1123 12:33:15.413424 28480 layer_factory.hpp:77] Creating layer inception_5a/3x3_reduce
I1123 12:33:15.413430 28480 net.cpp:84] Creating Layer inception_5a/3x3_reduce
I1123 12:33:15.413434 28480 net.cpp:406] inception_5a/3x3_reduce <- pool4/3x3_s2_pool4/3x3_s2_0_split_1
I1123 12:33:15.413439 28480 net.cpp:380] inception_5a/3x3_reduce -> inception_5a/3x3_reduce
I1123 12:33:15.415971 28480 net.cpp:122] Setting up inception_5a/3x3_reduce
I1123 12:33:15.415983 28480 net.cpp:129] Top shape: 3 160 7 7 (23520)
I1123 12:33:15.415985 28480 net.cpp:137] Memory required for data: 161908740
I1123 12:33:15.415989 28480 layer_factory.hpp:77] Creating layer inception_5a/relu_3x3_reduce
I1123 12:33:15.416002 28480 net.cpp:84] Creating Layer inception_5a/relu_3x3_reduce
I1123 12:33:15.416005 28480 net.cpp:406] inception_5a/relu_3x3_reduce <- inception_5a/3x3_reduce
I1123 12:33:15.416009 28480 net.cpp:367] inception_5a/relu_3x3_reduce -> inception_5a/3x3_reduce (in-place)
I1123 12:33:15.416606 28480 net.cpp:122] Setting up inception_5a/relu_3x3_reduce
I1123 12:33:15.416616 28480 net.cpp:129] Top shape: 3 160 7 7 (23520)
I1123 12:33:15.416618 28480 net.cpp:137] Memory required for data: 162002820
I1123 12:33:15.416621 28480 layer_factory.hpp:77] Creating layer inception_5a/3x3
I1123 12:33:15.416628 28480 net.cpp:84] Creating Layer inception_5a/3x3
I1123 12:33:15.416631 28480 net.cpp:406] inception_5a/3x3 <- inception_5a/3x3_reduce
I1123 12:33:15.416637 28480 net.cpp:380] inception_5a/3x3 -> inception_5a/3x3
I1123 12:33:15.421766 28480 net.cpp:122] Setting up inception_5a/3x3
I1123 12:33:15.421778 28480 net.cpp:129] Top shape: 3 320 7 7 (47040)
I1123 12:33:15.421782 28480 net.cpp:137] Memory required for data: 162190980
I1123 12:33:15.421787 28480 layer_factory.hpp:77] Creating layer inception_5a/relu_3x3
I1123 12:33:15.421792 28480 net.cpp:84] Creating Layer inception_5a/relu_3x3
I1123 12:33:15.421793 28480 net.cpp:406] inception_5a/relu_3x3 <- inception_5a/3x3
I1123 12:33:15.421798 28480 net.cpp:367] inception_5a/relu_3x3 -> inception_5a/3x3 (in-place)
I1123 12:33:15.422410 28480 net.cpp:122] Setting up inception_5a/relu_3x3
I1123 12:33:15.422421 28480 net.cpp:129] Top shape: 3 320 7 7 (47040)
I1123 12:33:15.422423 28480 net.cpp:137] Memory required for data: 162379140
I1123 12:33:15.422425 28480 layer_factory.hpp:77] Creating layer inception_5a/5x5_reduce
I1123 12:33:15.422435 28480 net.cpp:84] Creating Layer inception_5a/5x5_reduce
I1123 12:33:15.422437 28480 net.cpp:406] inception_5a/5x5_reduce <- pool4/3x3_s2_pool4/3x3_s2_0_split_2
I1123 12:33:15.422442 28480 net.cpp:380] inception_5a/5x5_reduce -> inception_5a/5x5_reduce
I1123 12:33:15.424134 28480 net.cpp:122] Setting up inception_5a/5x5_reduce
I1123 12:33:15.424144 28480 net.cpp:129] Top shape: 3 32 7 7 (4704)
I1123 12:33:15.424146 28480 net.cpp:137] Memory required for data: 162397956
I1123 12:33:15.424151 28480 layer_factory.hpp:77] Creating layer inception_5a/relu_5x5_reduce
I1123 12:33:15.424156 28480 net.cpp:84] Creating Layer inception_5a/relu_5x5_reduce
I1123 12:33:15.424159 28480 net.cpp:406] inception_5a/relu_5x5_reduce <- inception_5a/5x5_reduce
I1123 12:33:15.424163 28480 net.cpp:367] inception_5a/relu_5x5_reduce -> inception_5a/5x5_reduce (in-place)
I1123 12:33:15.424778 28480 net.cpp:122] Setting up inception_5a/relu_5x5_reduce
I1123 12:33:15.424788 28480 net.cpp:129] Top shape: 3 32 7 7 (4704)
I1123 12:33:15.424790 28480 net.cpp:137] Memory required for data: 162416772
I1123 12:33:15.424793 28480 layer_factory.hpp:77] Creating layer inception_5a/5x5
I1123 12:33:15.424801 28480 net.cpp:84] Creating Layer inception_5a/5x5
I1123 12:33:15.424804 28480 net.cpp:406] inception_5a/5x5 <- inception_5a/5x5_reduce
I1123 12:33:15.424809 28480 net.cpp:380] inception_5a/5x5 -> inception_5a/5x5
I1123 12:33:15.426798 28480 net.cpp:122] Setting up inception_5a/5x5
I1123 12:33:15.426808 28480 net.cpp:129] Top shape: 3 128 7 7 (18816)
I1123 12:33:15.426811 28480 net.cpp:137] Memory required for data: 162492036
I1123 12:33:15.426815 28480 layer_factory.hpp:77] Creating layer inception_5a/relu_5x5
I1123 12:33:15.426820 28480 net.cpp:84] Creating Layer inception_5a/relu_5x5
I1123 12:33:15.426822 28480 net.cpp:406] inception_5a/relu_5x5 <- inception_5a/5x5
I1123 12:33:15.426827 28480 net.cpp:367] inception_5a/relu_5x5 -> inception_5a/5x5 (in-place)
I1123 12:33:15.427007 28480 net.cpp:122] Setting up inception_5a/relu_5x5
I1123 12:33:15.427016 28480 net.cpp:129] Top shape: 3 128 7 7 (18816)
I1123 12:33:15.427017 28480 net.cpp:137] Memory required for data: 162567300
I1123 12:33:15.427021 28480 layer_factory.hpp:77] Creating layer inception_5a/pool
I1123 12:33:15.427024 28480 net.cpp:84] Creating Layer inception_5a/pool
I1123 12:33:15.427037 28480 net.cpp:406] inception_5a/pool <- pool4/3x3_s2_pool4/3x3_s2_0_split_3
I1123 12:33:15.427042 28480 net.cpp:380] inception_5a/pool -> inception_5a/pool
I1123 12:33:15.427079 28480 net.cpp:122] Setting up inception_5a/pool
I1123 12:33:15.427085 28480 net.cpp:129] Top shape: 3 832 7 7 (122304)
I1123 12:33:15.427088 28480 net.cpp:137] Memory required for data: 163056516
I1123 12:33:15.427089 28480 layer_factory.hpp:77] Creating layer inception_5a/pool_proj
I1123 12:33:15.427096 28480 net.cpp:84] Creating Layer inception_5a/pool_proj
I1123 12:33:15.427099 28480 net.cpp:406] inception_5a/pool_proj <- inception_5a/pool
I1123 12:33:15.427103 28480 net.cpp:380] inception_5a/pool_proj -> inception_5a/pool_proj
I1123 12:33:15.429522 28480 net.cpp:122] Setting up inception_5a/pool_proj
I1123 12:33:15.429534 28480 net.cpp:129] Top shape: 3 128 7 7 (18816)
I1123 12:33:15.429538 28480 net.cpp:137] Memory required for data: 163131780
I1123 12:33:15.429541 28480 layer_factory.hpp:77] Creating layer inception_5a/relu_pool_proj
I1123 12:33:15.429546 28480 net.cpp:84] Creating Layer inception_5a/relu_pool_proj
I1123 12:33:15.429548 28480 net.cpp:406] inception_5a/relu_pool_proj <- inception_5a/pool_proj
I1123 12:33:15.429553 28480 net.cpp:367] inception_5a/relu_pool_proj -> inception_5a/pool_proj (in-place)
I1123 12:33:15.430163 28480 net.cpp:122] Setting up inception_5a/relu_pool_proj
I1123 12:33:15.430173 28480 net.cpp:129] Top shape: 3 128 7 7 (18816)
I1123 12:33:15.430176 28480 net.cpp:137] Memory required for data: 163207044
I1123 12:33:15.430178 28480 layer_factory.hpp:77] Creating layer inception_5a/output
I1123 12:33:15.430183 28480 net.cpp:84] Creating Layer inception_5a/output
I1123 12:33:15.430186 28480 net.cpp:406] inception_5a/output <- inception_5a/1x1
I1123 12:33:15.430189 28480 net.cpp:406] inception_5a/output <- inception_5a/3x3
I1123 12:33:15.430192 28480 net.cpp:406] inception_5a/output <- inception_5a/5x5
I1123 12:33:15.430196 28480 net.cpp:406] inception_5a/output <- inception_5a/pool_proj
I1123 12:33:15.430200 28480 net.cpp:380] inception_5a/output -> inception_5a/output
I1123 12:33:15.430225 28480 net.cpp:122] Setting up inception_5a/output
I1123 12:33:15.430233 28480 net.cpp:129] Top shape: 3 832 7 7 (122304)
I1123 12:33:15.430234 28480 net.cpp:137] Memory required for data: 163696260
I1123 12:33:15.430236 28480 layer_factory.hpp:77] Creating layer inception_5a/output_inception_5a/output_0_split
I1123 12:33:15.430241 28480 net.cpp:84] Creating Layer inception_5a/output_inception_5a/output_0_split
I1123 12:33:15.430244 28480 net.cpp:406] inception_5a/output_inception_5a/output_0_split <- inception_5a/output
I1123 12:33:15.430248 28480 net.cpp:380] inception_5a/output_inception_5a/output_0_split -> inception_5a/output_inception_5a/output_0_split_0
I1123 12:33:15.430254 28480 net.cpp:380] inception_5a/output_inception_5a/output_0_split -> inception_5a/output_inception_5a/output_0_split_1
I1123 12:33:15.430258 28480 net.cpp:380] inception_5a/output_inception_5a/output_0_split -> inception_5a/output_inception_5a/output_0_split_2
I1123 12:33:15.430263 28480 net.cpp:380] inception_5a/output_inception_5a/output_0_split -> inception_5a/output_inception_5a/output_0_split_3
I1123 12:33:15.430310 28480 net.cpp:122] Setting up inception_5a/output_inception_5a/output_0_split
I1123 12:33:15.430315 28480 net.cpp:129] Top shape: 3 832 7 7 (122304)
I1123 12:33:15.430317 28480 net.cpp:129] Top shape: 3 832 7 7 (122304)
I1123 12:33:15.430320 28480 net.cpp:129] Top shape: 3 832 7 7 (122304)
I1123 12:33:15.430322 28480 net.cpp:129] Top shape: 3 832 7 7 (122304)
I1123 12:33:15.430325 28480 net.cpp:137] Memory required for data: 165653124
I1123 12:33:15.430325 28480 layer_factory.hpp:77] Creating layer inception_5b/1x1
I1123 12:33:15.430332 28480 net.cpp:84] Creating Layer inception_5b/1x1
I1123 12:33:15.430335 28480 net.cpp:406] inception_5b/1x1 <- inception_5a/output_inception_5a/output_0_split_0
I1123 12:33:15.430341 28480 net.cpp:380] inception_5b/1x1 -> inception_5b/1x1
I1123 12:33:15.433291 28480 net.cpp:122] Setting up inception_5b/1x1
I1123 12:33:15.433311 28480 net.cpp:129] Top shape: 3 384 7 7 (56448)
I1123 12:33:15.433313 28480 net.cpp:137] Memory required for data: 165878916
I1123 12:33:15.433318 28480 layer_factory.hpp:77] Creating layer inception_5b/relu_1x1
I1123 12:33:15.433323 28480 net.cpp:84] Creating Layer inception_5b/relu_1x1
I1123 12:33:15.433326 28480 net.cpp:406] inception_5b/relu_1x1 <- inception_5b/1x1
I1123 12:33:15.433329 28480 net.cpp:367] inception_5b/relu_1x1 -> inception_5b/1x1 (in-place)
I1123 12:33:15.433926 28480 net.cpp:122] Setting up inception_5b/relu_1x1
I1123 12:33:15.433938 28480 net.cpp:129] Top shape: 3 384 7 7 (56448)
I1123 12:33:15.433939 28480 net.cpp:137] Memory required for data: 166104708
I1123 12:33:15.433941 28480 layer_factory.hpp:77] Creating layer inception_5b/3x3_reduce
I1123 12:33:15.433948 28480 net.cpp:84] Creating Layer inception_5b/3x3_reduce
I1123 12:33:15.433953 28480 net.cpp:406] inception_5b/3x3_reduce <- inception_5a/output_inception_5a/output_0_split_1
I1123 12:33:15.433956 28480 net.cpp:380] inception_5b/3x3_reduce -> inception_5b/3x3_reduce
I1123 12:33:15.436571 28480 net.cpp:122] Setting up inception_5b/3x3_reduce
I1123 12:33:15.436583 28480 net.cpp:129] Top shape: 3 192 7 7 (28224)
I1123 12:33:15.436585 28480 net.cpp:137] Memory required for data: 166217604
I1123 12:33:15.436590 28480 layer_factory.hpp:77] Creating layer inception_5b/relu_3x3_reduce
I1123 12:33:15.436596 28480 net.cpp:84] Creating Layer inception_5b/relu_3x3_reduce
I1123 12:33:15.436600 28480 net.cpp:406] inception_5b/relu_3x3_reduce <- inception_5b/3x3_reduce
I1123 12:33:15.436604 28480 net.cpp:367] inception_5b/relu_3x3_reduce -> inception_5b/3x3_reduce (in-place)
I1123 12:33:15.436781 28480 net.cpp:122] Setting up inception_5b/relu_3x3_reduce
I1123 12:33:15.436791 28480 net.cpp:129] Top shape: 3 192 7 7 (28224)
I1123 12:33:15.436794 28480 net.cpp:137] Memory required for data: 166330500
I1123 12:33:15.436795 28480 layer_factory.hpp:77] Creating layer inception_5b/3x3
I1123 12:33:15.436803 28480 net.cpp:84] Creating Layer inception_5b/3x3
I1123 12:33:15.436806 28480 net.cpp:406] inception_5b/3x3 <- inception_5b/3x3_reduce
I1123 12:33:15.436810 28480 net.cpp:380] inception_5b/3x3 -> inception_5b/3x3
I1123 12:33:15.442224 28480 net.cpp:122] Setting up inception_5b/3x3
I1123 12:33:15.442235 28480 net.cpp:129] Top shape: 3 384 7 7 (56448)
I1123 12:33:15.442239 28480 net.cpp:137] Memory required for data: 166556292
I1123 12:33:15.442243 28480 layer_factory.hpp:77] Creating layer inception_5b/relu_3x3
I1123 12:33:15.442248 28480 net.cpp:84] Creating Layer inception_5b/relu_3x3
I1123 12:33:15.442250 28480 net.cpp:406] inception_5b/relu_3x3 <- inception_5b/3x3
I1123 12:33:15.442256 28480 net.cpp:367] inception_5b/relu_3x3 -> inception_5b/3x3 (in-place)
I1123 12:33:15.442868 28480 net.cpp:122] Setting up inception_5b/relu_3x3
I1123 12:33:15.442878 28480 net.cpp:129] Top shape: 3 384 7 7 (56448)
I1123 12:33:15.442880 28480 net.cpp:137] Memory required for data: 166782084
I1123 12:33:15.442883 28480 layer_factory.hpp:77] Creating layer inception_5b/5x5_reduce
I1123 12:33:15.442890 28480 net.cpp:84] Creating Layer inception_5b/5x5_reduce
I1123 12:33:15.442893 28480 net.cpp:406] inception_5b/5x5_reduce <- inception_5a/output_inception_5a/output_0_split_2
I1123 12:33:15.442898 28480 net.cpp:380] inception_5b/5x5_reduce -> inception_5b/5x5_reduce
I1123 12:33:15.444233 28480 net.cpp:122] Setting up inception_5b/5x5_reduce
I1123 12:33:15.444243 28480 net.cpp:129] Top shape: 3 48 7 7 (7056)
I1123 12:33:15.444245 28480 net.cpp:137] Memory required for data: 166810308
I1123 12:33:15.444250 28480 layer_factory.hpp:77] Creating layer inception_5b/relu_5x5_reduce
I1123 12:33:15.444257 28480 net.cpp:84] Creating Layer inception_5b/relu_5x5_reduce
I1123 12:33:15.444259 28480 net.cpp:406] inception_5b/relu_5x5_reduce <- inception_5b/5x5_reduce
I1123 12:33:15.444263 28480 net.cpp:367] inception_5b/relu_5x5_reduce -> inception_5b/5x5_reduce (in-place)
I1123 12:33:15.445291 28480 net.cpp:122] Setting up inception_5b/relu_5x5_reduce
I1123 12:33:15.445312 28480 net.cpp:129] Top shape: 3 48 7 7 (7056)
I1123 12:33:15.445313 28480 net.cpp:137] Memory required for data: 166838532
I1123 12:33:15.445315 28480 layer_factory.hpp:77] Creating layer inception_5b/5x5
I1123 12:33:15.445325 28480 net.cpp:84] Creating Layer inception_5b/5x5
I1123 12:33:15.445328 28480 net.cpp:406] inception_5b/5x5 <- inception_5b/5x5_reduce
I1123 12:33:15.445333 28480 net.cpp:380] inception_5b/5x5 -> inception_5b/5x5
I1123 12:33:15.447556 28480 net.cpp:122] Setting up inception_5b/5x5
I1123 12:33:15.447566 28480 net.cpp:129] Top shape: 3 128 7 7 (18816)
I1123 12:33:15.447568 28480 net.cpp:137] Memory required for data: 166913796
I1123 12:33:15.447573 28480 layer_factory.hpp:77] Creating layer inception_5b/relu_5x5
I1123 12:33:15.447577 28480 net.cpp:84] Creating Layer inception_5b/relu_5x5
I1123 12:33:15.447580 28480 net.cpp:406] inception_5b/relu_5x5 <- inception_5b/5x5
I1123 12:33:15.447584 28480 net.cpp:367] inception_5b/relu_5x5 -> inception_5b/5x5 (in-place)
I1123 12:33:15.447757 28480 net.cpp:122] Setting up inception_5b/relu_5x5
I1123 12:33:15.447765 28480 net.cpp:129] Top shape: 3 128 7 7 (18816)
I1123 12:33:15.447767 28480 net.cpp:137] Memory required for data: 166989060
I1123 12:33:15.447769 28480 layer_factory.hpp:77] Creating layer inception_5b/pool
I1123 12:33:15.447774 28480 net.cpp:84] Creating Layer inception_5b/pool
I1123 12:33:15.447777 28480 net.cpp:406] inception_5b/pool <- inception_5a/output_inception_5a/output_0_split_3
I1123 12:33:15.447782 28480 net.cpp:380] inception_5b/pool -> inception_5b/pool
I1123 12:33:15.447819 28480 net.cpp:122] Setting up inception_5b/pool
I1123 12:33:15.447825 28480 net.cpp:129] Top shape: 3 832 7 7 (122304)
I1123 12:33:15.447827 28480 net.cpp:137] Memory required for data: 167478276
I1123 12:33:15.447829 28480 layer_factory.hpp:77] Creating layer inception_5b/pool_proj
I1123 12:33:15.447837 28480 net.cpp:84] Creating Layer inception_5b/pool_proj
I1123 12:33:15.447840 28480 net.cpp:406] inception_5b/pool_proj <- inception_5b/pool
I1123 12:33:15.447844 28480 net.cpp:380] inception_5b/pool_proj -> inception_5b/pool_proj
I1123 12:33:15.450291 28480 net.cpp:122] Setting up inception_5b/pool_proj
I1123 12:33:15.450302 28480 net.cpp:129] Top shape: 3 128 7 7 (18816)
I1123 12:33:15.450304 28480 net.cpp:137] Memory required for data: 167553540
I1123 12:33:15.450309 28480 layer_factory.hpp:77] Creating layer inception_5b/relu_pool_proj
I1123 12:33:15.450315 28480 net.cpp:84] Creating Layer inception_5b/relu_pool_proj
I1123 12:33:15.450318 28480 net.cpp:406] inception_5b/relu_pool_proj <- inception_5b/pool_proj
I1123 12:33:15.450321 28480 net.cpp:367] inception_5b/relu_pool_proj -> inception_5b/pool_proj (in-place)
I1123 12:33:15.450937 28480 net.cpp:122] Setting up inception_5b/relu_pool_proj
I1123 12:33:15.450948 28480 net.cpp:129] Top shape: 3 128 7 7 (18816)
I1123 12:33:15.450950 28480 net.cpp:137] Memory required for data: 167628804
I1123 12:33:15.450953 28480 layer_factory.hpp:77] Creating layer inception_5b/output
I1123 12:33:15.450958 28480 net.cpp:84] Creating Layer inception_5b/output
I1123 12:33:15.450960 28480 net.cpp:406] inception_5b/output <- inception_5b/1x1
I1123 12:33:15.450963 28480 net.cpp:406] inception_5b/output <- inception_5b/3x3
I1123 12:33:15.450966 28480 net.cpp:406] inception_5b/output <- inception_5b/5x5
I1123 12:33:15.450968 28480 net.cpp:406] inception_5b/output <- inception_5b/pool_proj
I1123 12:33:15.450973 28480 net.cpp:380] inception_5b/output -> inception_5b/output
I1123 12:33:15.450999 28480 net.cpp:122] Setting up inception_5b/output
I1123 12:33:15.451004 28480 net.cpp:129] Top shape: 3 1024 7 7 (150528)
I1123 12:33:15.451006 28480 net.cpp:137] Memory required for data: 168230916
I1123 12:33:15.451009 28480 layer_factory.hpp:77] Creating layer pool5/7x7_s1
I1123 12:33:15.451014 28480 net.cpp:84] Creating Layer pool5/7x7_s1
I1123 12:33:15.451016 28480 net.cpp:406] pool5/7x7_s1 <- inception_5b/output
I1123 12:33:15.451021 28480 net.cpp:380] pool5/7x7_s1 -> pool5/7x7_s1
I1123 12:33:15.451210 28480 net.cpp:122] Setting up pool5/7x7_s1
I1123 12:33:15.451227 28480 net.cpp:129] Top shape: 3 1024 1 1 (3072)
I1123 12:33:15.451230 28480 net.cpp:137] Memory required for data: 168243204
I1123 12:33:15.451231 28480 layer_factory.hpp:77] Creating layer pool5/drop_7x7_s1
I1123 12:33:15.451238 28480 net.cpp:84] Creating Layer pool5/drop_7x7_s1
I1123 12:33:15.451241 28480 net.cpp:406] pool5/drop_7x7_s1 <- pool5/7x7_s1
I1123 12:33:15.451246 28480 net.cpp:367] pool5/drop_7x7_s1 -> pool5/7x7_s1 (in-place)
I1123 12:33:15.451267 28480 net.cpp:122] Setting up pool5/drop_7x7_s1
I1123 12:33:15.451272 28480 net.cpp:129] Top shape: 3 1024 1 1 (3072)
I1123 12:33:15.451273 28480 net.cpp:137] Memory required for data: 168255492
I1123 12:33:15.451275 28480 layer_factory.hpp:77] Creating layer loss3/classifier-gai
I1123 12:33:15.451282 28480 net.cpp:84] Creating Layer loss3/classifier-gai
I1123 12:33:15.451284 28480 net.cpp:406] loss3/classifier-gai <- pool5/7x7_s1
I1123 12:33:15.451288 28480 net.cpp:380] loss3/classifier-gai -> loss3/classifier-gai
I1123 12:33:15.451452 28480 net.cpp:122] Setting up loss3/classifier-gai
I1123 12:33:15.451458 28480 net.cpp:129] Top shape: 3 16 (48)
I1123 12:33:15.451460 28480 net.cpp:137] Memory required for data: 168255684
I1123 12:33:15.451464 28480 layer_factory.hpp:77] Creating layer loss3/classifier-gai_loss3/classifier-gai_0_split
I1123 12:33:15.451468 28480 net.cpp:84] Creating Layer loss3/classifier-gai_loss3/classifier-gai_0_split
I1123 12:33:15.451472 28480 net.cpp:406] loss3/classifier-gai_loss3/classifier-gai_0_split <- loss3/classifier-gai
I1123 12:33:15.451477 28480 net.cpp:380] loss3/classifier-gai_loss3/classifier-gai_0_split -> loss3/classifier-gai_loss3/classifier-gai_0_split_0
I1123 12:33:15.451480 28480 net.cpp:380] loss3/classifier-gai_loss3/classifier-gai_0_split -> loss3/classifier-gai_loss3/classifier-gai_0_split_1
I1123 12:33:15.451514 28480 net.cpp:122] Setting up loss3/classifier-gai_loss3/classifier-gai_0_split
I1123 12:33:15.451519 28480 net.cpp:129] Top shape: 3 16 (48)
I1123 12:33:15.451520 28480 net.cpp:129] Top shape: 3 16 (48)
I1123 12:33:15.451522 28480 net.cpp:137] Memory required for data: 168256068
I1123 12:33:15.451524 28480 layer_factory.hpp:77] Creating layer loss
I1123 12:33:15.451529 28480 net.cpp:84] Creating Layer loss
I1123 12:33:15.451531 28480 net.cpp:406] loss <- loss3/classifier-gai_loss3/classifier-gai_0_split_0
I1123 12:33:15.451535 28480 net.cpp:406] loss <- label_data_1_split_6
I1123 12:33:15.451539 28480 net.cpp:380] loss -> loss
…
