…
I1123 11:43:14.306882 19447 net.cpp:51] Initializing net from parameters: 
state {
  phase: TRAIN
  level: 0
  stage: ""
}
layer {
  name: "Data1"
  type: "Data"
  top: "Data1"
  top: "label"
  include {
    phase: TRAIN
  }
  transform_param {
    mirror: false
    crop_size: 224
    mean_file: "/home/nssg/unclezhannssg/Downloads/anzhuangcaffe/caffe-master/examples/myfilen/DenseNet13/mean.binaryproto"
  }
  data_param {
    source: "/home/nssg/unclezhannssg/Downloads/anzhuangcaffe/caffe-master/examples/myfilen/DenseNet13/img_train_lmdb"
    batch_size: 3
    backend: LMDB
  }
}
layer {
  name: "Convolution1_3x3"
  type: "Convolution"
  bottom: "Data1"
  top: "Convolution1_3x3"
  convolution_param {
    num_output: 16
    bias_term: false
    pad: 1
    kernel_size: 3
    stride: 2
    weight_filler {
      type: "msra"
    }
    bias_filler {
      type: "constant"
    }
  }
}
layer {
  name: "Convolution1"
  type: "Convolution"
  bottom: "Convolution1_3x3"
  top: "Convolution1"
  convolution_param {
    num_output: 16
    bias_term: false
    pad: 1
    kernel_size: 3
    stride: 2
    weight_filler {
      type: "msra"
    }
    bias_filler {
      type: "constant"
    }
  }
}
layer {
  name: "BatchNorm1"
  type: "BatchNorm"
  bottom: "Convolution1"
  top: "BatchNorm1"
  batch_norm_param {
    use_global_stats: false
  }
}
layer {
  name: "Scale1"
  type: "Scale"
  bottom: "BatchNorm1"
  top: "BatchNorm1"
  scale_param {
    bias_term: true
  }
}
layer {
  name: "ReLU1"
  type: "ReLU"
  bottom: "BatchNorm1"
  top: "BatchNorm1"
}
layer {
  name: "Convolution2"
  type: "Convolution"
  bottom: "BatchNorm1"
  top: "Convolution2"
  convolution_param {
    num_output: 12
    bias_term: false
    pad: 1
    kernel_size: 3
    stride: 1
    weight_filler {
      type: "msra"
    }
    bias_filler {
      type: "constant"
    }
  }
}
layer {
  name: "Dropout1"
  type: "Dropout"
  bottom: "Convolution2"
  top: "Dropout1"
  dropout_param {
    dropout_ratio: 0.2
  }
}
layer {
  name: "Concat1"
  type: "Concat"
  bottom: "Convolution1"
  bottom: "Dropout1"
  top: "Concat1"
  concat_param {
    axis: 1
  }
}
layer {
  name: "BatchNorm2"
  type: "BatchNorm"
  bottom: "Concat1"
  top: "BatchNorm2"
  scale_param {
    bias_term: true
  }
}
layer {
  name: "Scale2"
  type: "Scale"
  bottom: "BatchNorm2"
  top: "BatchNorm2"
  scale_param {
    filler {
      value: 1
    }
    bias_term: true
    bias_filler {
      value: 0
    }
  }
}
layer {
  name: "ReLU2"
  type: "ReLU"
  bottom: "BatchNorm2"
  top: "BatchNorm2"
}
layer {
  name: "Convolution3"
  type: "Convolution"
  bottom: "BatchNorm2"
  top: "Convolution3"
  convolution_param {
    num_output: 12
    bias_term: false
    pad: 1
    kernel_size: 3
    stride: 1
    weight_filler {
      type: "msra"
    }
    bias_filler {
      type: "constant"
    }
  }
}
layer {
  name: "Dropout2"
  type: "Dropout"
  bottom: "Convolution3"
  top: "Dropout2"
  dropout_param {
    dropout_ratio: 0.2
  }
}
layer {
  name: "Concat2"
  type: "Concat"
  bottom: "Concat1"
  bottom: "Dropout2"
  top: "Concat2"
  concat_param {
    axis: 1
  }
}
layer {
  name: "BatchNorm3"
  type: "BatchNorm"
  bottom: "Concat2"
  top: "BatchNorm3"
  batch_norm_param {
    use_global_stats: false
  }
}
layer {
  name: "Scale3"
  type: "Scale"
  bottom: "BatchNorm3"
  top: "BatchNorm3"
  scale_param {
    filler {
      value: 1
    }
    bias_term: true
    bias_filler {
      value: 0
    }
  }
}
layer {
  name: "ReLU3"
  type: "ReLU"
  bottom: "BatchNorm3"
  top: "BatchNorm3"
}
layer {
  name: "Convolution4"
  type: "Convolution"
  bottom: "BatchNorm3"
  top: "Convolution4"
  convolution_param {
    num_output: 12
    bias_term: false
    pad: 1
    kernel_size: 3
    stride: 1
    weight_filler {
      type: "msra"
    }
    bias_filler {
      type: "constant"
    }
  }
}
layer {
  name: "Dropout3"
  type: "Dropout"
  bottom: "Convolution4"
  top: "Dropout3"
  dropout_param {
    dropout_ratio: 0.2
  }
}
layer {
  name: "Concat3"
  type: "Concat"
  bottom: "Concat2"
  bottom: "Dropout3"
  top: "Concat3"
  concat_param {
    axis: 1
  }
}
layer {
  name: "BatchNorm4"
  type: "BatchNorm"
  bottom: "Concat3"
  top: "BatchNorm4"
  batch_norm_param {
    use_global_stats: false
  }
}
layer {
  name: "Scale4"
  type: "Scale"
  bottom: "BatchNorm4"
  top: "BatchNorm4"
  scale_param {
    filler {
      value: 1
    }
    bias_term: true
    bias_filler {
      value: 0
    }
  }
}
layer {
  name: "ReLU4"
  type: "ReLU"
  bottom: "BatchNorm4"
  top: "BatchNorm4"
}
layer {
  name: "Convolution5"
  type: "Convolution"
  bottom: "BatchNorm4"
  top: "Convolution5"
  convolution_param {
    num_output: 12
    bias_term: false
    pad: 1
    kernel_size: 3
    stride: 1
    weight_filler {
      type: "msra"
    }
    bias_filler {
      type: "constant"
    }
  }
}
layer {
  name: "Dropout4"
  type: "Dropout"
  bottom: "Convolution5"
  top: "Dropout4"
  dropout_param {
    dropout_ratio: 0.2
  }
}
layer {
  name: "Concat4"
  type: "Concat"
  bottom: "Concat3"
  bottom: "Dropout4"
  top: "Concat4"
  concat_param {
    axis: 1
  }
}
layer {
  name: "BatchNorm5"
  type: "BatchNorm"
  bottom: "Concat4"
  top: "BatchNorm5"
  batch_norm_param {
    use_global_stats: false
  }
}
layer {
  name: "Scale5"
  type: "Scale"
  bottom: "BatchNorm5"
  top: "BatchNorm5"
  scale_param {
    filler {
      value: 1
    }
    bias_term: true
    bias_filler {
      value: 0
    }
  }
}
layer {
  name: "ReLU5"
  type: "ReLU"
  bottom: "BatchNorm5"
  top: "BatchNorm5"
}
layer {
  name: "Convolution6"
  type: "Convolution"
  bottom: "BatchNorm5"
  top: "Convolution6"
  convolution_param {
    num_output: 12
    bias_term: false
    pad: 1
    kernel_size: 3
    stride: 1
    weight_filler {
      type: "msra"
    }
    bias_filler {
      type: "constant"
    }
  }
}
layer {
  name: "Dropout5"
  type: "Dropout"
  bottom: "Convolution6"
  top: "Dropout5"
  dropout_param {
    dropout_ratio: 0.2
  }
}
layer {
  name: "Concat5"
  type: "Concat"
  bottom: "Concat4"
  bottom: "Dropout5"
  top: "Concat5"
  concat_param {
    axis: 1
  }
}
layer {
  name: "BatchNorm6"
  type: "BatchNorm"
  bottom: "Concat5"
  top: "BatchNorm6"
  batch_norm_param {
    use_global_stats: false
  }
}
layer {
  name: "Scale6"
  type: "Scale"
  bottom: "BatchNorm6"
  top: "BatchNorm6"
  scale_param {
    filler {
      value: 1
    }
    bias_term: true
    bias_filler {
      value: 0
    }
  }
}
layer {
  name: "ReLU6"
  type: "ReLU"
  bottom: "BatchNorm6"
  top: "BatchNorm6"
}
layer {
  name: "Convolution7"
  type: "Convolution"
  bottom: "BatchNorm6"
  top: "Convolution7"
  convolution_param {
    num_output: 12
    bias_term: false
    pad: 1
    kernel_size: 3
    stride: 1
    weight_filler {
      type: "msra"
    }
    bias_filler {
      type: "constant"
    }
  }
}
layer {
  name: "Dropout6"
  type: "Dropout"
  bottom: "Convolution7"
  top: "Dropout6"
  dropout_param {
    dropout_ratio: 0.2
  }
}
layer {
  name: "Concat6"
  type: "Concat"
  bottom: "Concat5"
  bottom: "Dropout6"
  top: "Concat6"
  concat_param {
    axis: 1
  }
}
layer {
  name: "BatchNorm7"
  type: "BatchNorm"
  bottom: "Concat6"
  top: "BatchNorm7"
  batch_norm_param {
    use_global_stats: false
  }
}
layer {
  name: "Scale7"
  type: "Scale"
  bottom: "BatchNorm7"
  top: "BatchNorm7"
  scale_param {
    filler {
      value: 1
    }
    bias_term: true
    bias_filler {
      value: 0
    }
  }
}
layer {
  name: "ReLU7"
  type: "ReLU"
  bottom: "BatchNorm7"
  top: "BatchNorm7"
}
layer {
  name: "Convolution8"
  type: "Convolution"
  bottom: "BatchNorm7"
  top: "Convolution8"
  convolution_param {
    num_output: 12
    bias_term: false
    pad: 1
    kernel_size: 3
    stride: 1
    weight_filler {
      type: "msra"
    }
    bias_filler {
      type: "constant"
    }
  }
}
layer {
  name: "Dropout7"
  type: "Dropout"
  bottom: "Convolution8"
  top: "Dropout7"
  dropout_param {
    dropout_ratio: 0.2
  }
}
layer {
  name: "Concat7"
  type: "Concat"
  bottom: "Concat6"
  bottom: "Dropout7"
  top: "Concat7"
  concat_param {
    axis: 1
  }
}
layer {
  name: "BatchNorm8"
  type: "BatchNorm"
  bottom: "Concat7"
  top: "BatchNorm8"
  batch_norm_param {
    use_global_stats: false
  }
}
layer {
  name: "Scale8"
  type: "Scale"
  bottom: "BatchNorm8"
  top: "BatchNorm8"
  scale_param {
    filler {
      value: 1
    }
    bias_term: true
    bias_filler {
      value: 0
    }
  }
}
layer {
  name: "ReLU8"
  type: "ReLU"
  bottom: "BatchNorm8"
  top: "BatchNorm8"
}
layer {
  name: "Convolution9"
  type: "Convolution"
  bottom: "BatchNorm8"
  top: "Convolution9"
  convolution_param {
    num_output: 12
    bias_term: false
    pad: 1
    kernel_size: 3
    stride: 1
    weight_filler {
      type: "msra"
    }
    bias_filler {
      type: "constant"
    }
  }
}
layer {
  name: "Dropout8"
  type: "Dropout"
  bottom: "Convolution9"
  top: "Dropout8"
  dropout_param {
    dropout_ratio: 0.2
  }
}
layer {
  name: "Concat8"
  type: "Concat"
  bottom: "Concat7"
  bottom: "Dropout8"
  top: "Concat8"
  concat_param {
    axis: 1
  }
}
layer {
  name: "BatchNorm9"
  type: "BatchNorm"
  bottom: "Concat8"
  top: "BatchNorm9"
  batch_norm_param {
    use_global_stats: false
  }
}
layer {
  name: "Scale9"
  type: "Scale"
  bottom: "BatchNorm9"
  top: "BatchNorm9"
  scale_param {
    filler {
      value: 1
    }
    bias_term: true
    bias_filler {
      value: 0
    }
  }
}
layer {
  name: "ReLU9"
  type: "ReLU"
  bottom: "BatchNorm9"
  top: "BatchNorm9"
}
layer {
  name: "Convolution10"
  type: "Convolution"
  bottom: "BatchNorm9"
  top: "Convolution10"
  convolution_param {
    num_output: 12
    bias_term: false
    pad: 1
    kernel_size: 3
    stride: 1
    weight_filler {
      type: "msra"
    }
    bias_filler {
      type: "constant"
    }
  }
}
layer {
  name: "Dropout9"
  type: "Dropout"
  bottom: "Convolution10"
  top: "Dropout9"
  dropout_param {
    dropout_ratio: 0.2
  }
}
layer {
  name: "Concat9"
  type: "Concat"
  bottom: "Concat8"
  bottom: "Dropout9"
  top: "Concat9"
  concat_param {
    axis: 1
  }
}
layer {
  name: "BatchNorm10"
  type: "BatchNorm"
  bottom: "Concat9"
  top: "BatchNorm10"
  batch_norm_param {
    use_global_stats: false
  }
}
layer {
  name: "Scale10"
  type: "Scale"
  bottom: "BatchNorm10"
  top: "BatchNorm10"
  scale_param {
    filler {
      value: 1
    }
    bias_term: true
    bias_filler {
      value: 0
    }
  }
}
layer {
  name: "ReLU10"
  type: "ReLU"
  bottom: "BatchNorm10"
  top: "BatchNorm10"
}
layer {
  name: "Convolution11"
  type: "Convolution"
  bottom: "BatchNorm10"
  top: "Convolution11"
  convolution_param {
    num_output: 12
    bias_term: false
    pad: 1
    kernel_size: 3
    stride: 1
    weight_filler {
      type: "msra"
    }
    bias_filler {
      type: "constant"
    }
  }
}
layer {
  name: "Dropout10"
  type: "Dropout"
  bottom: "Convolution11"
  top: "Dropout10"
  dropout_param {
    dropout_ratio: 0.2
  }
}
layer {
  name: "Concat10"
  type: "Concat"
  bottom: "Concat9"
  bottom: "Dropout10"
  top: "Concat10"
  concat_param {
    axis: 1
  }
}
layer {
  name: "BatchNorm11"
  type: "BatchNorm"
  bottom: "Concat10"
  top: "BatchNorm11"
  batch_norm_param {
    use_global_stats: false
  }
}
layer {
  name: "Scale11"
  type: "Scale"
  bottom: "BatchNorm11"
  top: "BatchNorm11"
  scale_param {
    filler {
      value: 1
    }
    bias_term: true
    bias_filler {
      value: 0
    }
  }
}
layer {
  name: "ReLU11"
  type: "ReLU"
  bottom: "BatchNorm11"
  top: "BatchNorm11"
}
layer {
  name: "Convolution12"
  type: "Convolution"
  bottom: "BatchNorm11"
  top: "Convolution12"
  convolution_param {
    num_output: 12
    bias_term: false
    pad: 1
    kernel_size: 3
    stride: 1
    weight_filler {
      type: "msra"
    }
    bias_filler {
      type: "constant"
    }
  }
}
layer {
  name: "Dropout11"
  type: "Dropout"
  bottom: "Convolution12"
  top: "Dropout11"
  dropout_param {
    dropout_ratio: 0.2
  }
}
layer {
  name: "Concat11"
  type: "Concat"
  bottom: "Concat10"
  bottom: "Dropout11"
  top: "Concat11"
  concat_param {
    axis: 1
  }
}
layer {
  name: "BatchNorm12"
  type: "BatchNorm"
  bottom: "Concat11"
  top: "BatchNorm12"
  batch_norm_param {
    use_global_stats: false
  }
}
layer {
  name: "Scale12"
  type: "Scale"
  bottom: "BatchNorm12"
  top: "BatchNorm12"
  scale_param {
    filler {
      value: 1
    }
    bias_term: true
    bias_filler {
      value: 0
    }
  }
}
layer {
  name: "ReLU12"
  type: "ReLU"
  bottom: "BatchNorm12"
  top: "BatchNorm12"
}
layer {
  name: "Convolution13"
  type: "Convolution"
  bottom: "BatchNorm12"
  top: "Convolution13"
  convolution_param {
    num_output: 12
    bias_term: false
    pad: 1
    kernel_size: 3
    stride: 1
    weight_filler {
      type: "msra"
    }
    bias_filler {
      type: "constant"
    }
  }
}
layer {
  name: "Dropout12"
  type: "Dropout"
  bottom: "Convolution13"
  top: "Dropout12"
  dropout_param {
    dropout_ratio: 0.2
  }
}
layer {
  name: "Concat12"
  type: "Concat"
  bottom: "Concat11"
  bottom: "Dropout12"
  top: "Concat12"
  concat_param {
    axis: 1
  }
}
layer {
  name: "BatchNorm13"
  type: "BatchNorm"
  bottom: "Concat12"
  top: "BatchNorm13"
  batch_norm_param {
    use_global_stats: false
  }
}
layer {
  name: "Scale13"
  type: "Scale"
  bottom: "BatchNorm13"
  top: "BatchNorm13"
  scale_param {
    filler {
      value: 1
    }
    bias_term: true
    bias_filler {
      value: 0
    }
  }
}
layer {
  name: "ReLU13"
  type: "ReLU"
  bottom: "BatchNorm13"
  top: "BatchNorm13"
}
layer {
  name: "Pooling3"
  type: "Pooling"
  bottom: "BatchNorm13"
  top: "Pooling3"
  pooling_param {
    pool: AVE
    kernel_size: 3
    stride: 1
  }
}
layer {
  name: "InnerProduct1"
  type: "InnerProduct"
  bottom: "Pooling3"
  top: "InnerProduct1"
  inner_product_param {
    num_output: 16
    bias_term: true
    weight_filler {
      type: "xavier"
    }
    bias_filler {
      type: "constant"
    }
  }
}
layer {
  name: "SoftmaxWithLoss1"
  type: "SoftmaxWithLoss"
  bottom: "InnerProduct1"
  bottom: "label"
  top: "SoftmaxWithLoss1"
}
I1123 11:43:14.307543 19447 layer_factory.hpp:77] Creating layer Data1
I1123 11:43:14.389889 19447 db_lmdb.cpp:35] Opened lmdb /home/nssg/unclezhannssg/Downloads/anzhuangcaffe/caffe-master/examples/myfilen/DenseNet13/img_train_lmdb
I1123 11:43:14.406414 19447 net.cpp:84] Creating Layer Data1
I1123 11:43:14.406455 19447 net.cpp:380] Data1 -> Data1
I1123 11:43:14.406493 19447 net.cpp:380] Data1 -> label
I1123 11:43:14.406554 19447 data_transformer.cpp:25] Loading mean file from: /home/nssg/unclezhannssg/Downloads/anzhuangcaffe/caffe-master/examples/myfilen/DenseNet13/mean.binaryproto
I1123 11:43:14.616520 19447 data_layer.cpp:45] output data size: 3,3,224,224
I1123 11:43:14.627811 19447 net.cpp:122] Setting up Data1
I1123 11:43:14.627863 19447 net.cpp:129] Top shape: 3 3 224 224 (451584)
I1123 11:43:14.627878 19447 net.cpp:129] Top shape: 3 (3)
I1123 11:43:14.628264 19447 net.cpp:137] Memory required for data: 1806348
I1123 11:43:14.628288 19447 layer_factory.hpp:77] Creating layer Convolution1_3x3
I1123 11:43:14.628378 19447 net.cpp:84] Creating Layer Convolution1_3x3
I1123 11:43:14.628433 19447 net.cpp:406] Convolution1_3x3 <- Data1
I1123 11:43:14.628484 19447 net.cpp:380] Convolution1_3x3 -> Convolution1_3x3
I1123 11:43:16.308202 19447 net.cpp:122] Setting up Convolution1_3x3
I1123 11:43:16.309773 19447 net.cpp:129] Top shape: 3 16 112 112 (602112)
I1123 11:43:16.309787 19447 net.cpp:137] Memory required for data: 4214796
I1123 11:43:16.345072 19447 layer_factory.hpp:77] Creating layer Convolution1
I1123 11:43:16.346773 19447 net.cpp:84] Creating Layer Convolution1
I1123 11:43:16.346786 19447 net.cpp:406] Convolution1 <- Convolution1_3x3
I1123 11:43:16.346794 19447 net.cpp:380] Convolution1 -> Convolution1
I1123 11:43:16.371063 19447 net.cpp:122] Setting up Convolution1
I1123 11:43:16.371084 19447 net.cpp:129] Top shape: 3 16 56 56 (150528)
I1123 11:43:16.371088 19447 net.cpp:137] Memory required for data: 4816908
I1123 11:43:16.371099 19447 layer_factory.hpp:77] Creating layer Convolution1_Convolution1_0_split
I1123 11:43:16.371107 19447 net.cpp:84] Creating Layer Convolution1_Convolution1_0_split
I1123 11:43:16.371111 19447 net.cpp:406] Convolution1_Convolution1_0_split <- Convolution1
I1123 11:43:16.371117 19447 net.cpp:380] Convolution1_Convolution1_0_split -> Convolution1_Convolution1_0_split_0
I1123 11:43:16.371126 19447 net.cpp:380] Convolution1_Convolution1_0_split -> Convolution1_Convolution1_0_split_1
I1123 11:43:16.371534 19447 net.cpp:122] Setting up Convolution1_Convolution1_0_split
I1123 11:43:16.371548 19447 net.cpp:129] Top shape: 3 16 56 56 (150528)
I1123 11:43:16.371552 19447 net.cpp:129] Top shape: 3 16 56 56 (150528)
I1123 11:43:16.371556 19447 net.cpp:137] Memory required for data: 6021132
I1123 11:43:16.371558 19447 layer_factory.hpp:77] Creating layer BatchNorm1
I1123 11:43:16.371793 19447 net.cpp:84] Creating Layer BatchNorm1
I1123 11:43:16.371803 19447 net.cpp:406] BatchNorm1 <- Convolution1_Convolution1_0_split_0
I1123 11:43:16.371809 19447 net.cpp:380] BatchNorm1 -> BatchNorm1
I1123 11:43:16.386485 19447 net.cpp:122] Setting up BatchNorm1
I1123 11:43:16.386500 19447 net.cpp:129] Top shape: 3 16 56 56 (150528)
I1123 11:43:16.386504 19447 net.cpp:137] Memory required for data: 6623244
I1123 11:43:16.386517 19447 layer_factory.hpp:77] Creating layer Scale1
I1123 11:43:16.387053 19447 net.cpp:84] Creating Layer Scale1
I1123 11:43:16.387063 19447 net.cpp:406] Scale1 <- BatchNorm1
I1123 11:43:16.387068 19447 net.cpp:367] Scale1 -> BatchNorm1 (in-place)
I1123 11:43:16.395592 19447 layer_factory.hpp:77] Creating layer Scale1
I1123 11:43:16.396263 19447 net.cpp:122] Setting up Scale1
I1123 11:43:16.396275 19447 net.cpp:129] Top shape: 3 16 56 56 (150528)
I1123 11:43:16.396277 19447 net.cpp:137] Memory required for data: 7225356
I1123 11:43:16.396283 19447 layer_factory.hpp:77] Creating layer ReLU1
I1123 11:43:16.396289 19447 net.cpp:84] Creating Layer ReLU1
I1123 11:43:16.396292 19447 net.cpp:406] ReLU1 <- BatchNorm1
I1123 11:43:16.396297 19447 net.cpp:367] ReLU1 -> BatchNorm1 (in-place)
I1123 11:43:16.397315 19447 net.cpp:122] Setting up ReLU1
I1123 11:43:16.397330 19447 net.cpp:129] Top shape: 3 16 56 56 (150528)
I1123 11:43:16.397333 19447 net.cpp:137] Memory required for data: 7827468
I1123 11:43:16.397336 19447 layer_factory.hpp:77] Creating layer Convolution2
I1123 11:43:16.397346 19447 net.cpp:84] Creating Layer Convolution2
I1123 11:43:16.397349 19447 net.cpp:406] Convolution2 <- BatchNorm1
I1123 11:43:16.397356 19447 net.cpp:380] Convolution2 -> Convolution2
I1123 11:43:16.399176 19447 net.cpp:122] Setting up Convolution2
I1123 11:43:16.399190 19447 net.cpp:129] Top shape: 3 12 56 56 (112896)
I1123 11:43:16.399194 19447 net.cpp:137] Memory required for data: 8279052
I1123 11:43:16.399199 19447 layer_factory.hpp:77] Creating layer Dropout1
I1123 11:43:16.399209 19447 net.cpp:84] Creating Layer Dropout1
I1123 11:43:16.399215 19447 net.cpp:406] Dropout1 <- Convolution2
I1123 11:43:16.399220 19447 net.cpp:380] Dropout1 -> Dropout1
I1123 11:43:16.399266 19447 net.cpp:122] Setting up Dropout1
I1123 11:43:16.399279 19447 net.cpp:129] Top shape: 3 12 56 56 (112896)
I1123 11:43:16.399305 19447 net.cpp:137] Memory required for data: 8730636
I1123 11:43:16.399313 19447 layer_factory.hpp:77] Creating layer Concat1
I1123 11:43:16.399346 19447 net.cpp:84] Creating Layer Concat1
I1123 11:43:16.399355 19447 net.cpp:406] Concat1 <- Convolution1_Convolution1_0_split_1
I1123 11:43:16.399359 19447 net.cpp:406] Concat1 <- Dropout1
I1123 11:43:16.399364 19447 net.cpp:380] Concat1 -> Concat1
I1123 11:43:16.399395 19447 net.cpp:122] Setting up Concat1
I1123 11:43:16.399404 19447 net.cpp:129] Top shape: 3 28 56 56 (263424)
I1123 11:43:16.399406 19447 net.cpp:137] Memory required for data: 9784332
I1123 11:43:16.399410 19447 layer_factory.hpp:77] Creating layer Concat1_Concat1_0_split
I1123 11:43:16.399415 19447 net.cpp:84] Creating Layer Concat1_Concat1_0_split
I1123 11:43:16.399423 19447 net.cpp:406] Concat1_Concat1_0_split <- Concat1
I1123 11:43:16.399431 19447 net.cpp:380] Concat1_Concat1_0_split -> Concat1_Concat1_0_split_0
I1123 11:43:16.399443 19447 net.cpp:380] Concat1_Concat1_0_split -> Concat1_Concat1_0_split_1
I1123 11:43:16.399505 19447 net.cpp:122] Setting up Concat1_Concat1_0_split
I1123 11:43:16.399515 19447 net.cpp:129] Top shape: 3 28 56 56 (263424)
I1123 11:43:16.399519 19447 net.cpp:129] Top shape: 3 28 56 56 (263424)
I1123 11:43:16.399523 19447 net.cpp:137] Memory required for data: 11891724
I1123 11:43:16.399528 19447 layer_factory.hpp:77] Creating layer BatchNorm2
I1123 11:43:16.399535 19447 net.cpp:84] Creating Layer BatchNorm2
I1123 11:43:16.399543 19447 net.cpp:406] BatchNorm2 <- Concat1_Concat1_0_split_0
I1123 11:43:16.399552 19447 net.cpp:380] BatchNorm2 -> BatchNorm2
I1123 11:43:16.399763 19447 net.cpp:122] Setting up BatchNorm2
I1123 11:43:16.399773 19447 net.cpp:129] Top shape: 3 28 56 56 (263424)
I1123 11:43:16.399776 19447 net.cpp:137] Memory required for data: 12945420
I1123 11:43:16.399788 19447 layer_factory.hpp:77] Creating layer Scale2
I1123 11:43:16.399801 19447 net.cpp:84] Creating Layer Scale2
I1123 11:43:16.399808 19447 net.cpp:406] Scale2 <- BatchNorm2
I1123 11:43:16.399816 19447 net.cpp:367] Scale2 -> BatchNorm2 (in-place)
I1123 11:43:16.399874 19447 layer_factory.hpp:77] Creating layer Scale2
I1123 11:43:16.400005 19447 net.cpp:122] Setting up Scale2
I1123 11:43:16.400017 19447 net.cpp:129] Top shape: 3 28 56 56 (263424)
I1123 11:43:16.400019 19447 net.cpp:137] Memory required for data: 13999116
I1123 11:43:16.400027 19447 layer_factory.hpp:77] Creating layer ReLU2
I1123 11:43:16.400038 19447 net.cpp:84] Creating Layer ReLU2
I1123 11:43:16.400044 19447 net.cpp:406] ReLU2 <- BatchNorm2
I1123 11:43:16.400051 19447 net.cpp:367] ReLU2 -> BatchNorm2 (in-place)
I1123 11:43:16.400238 19447 net.cpp:122] Setting up ReLU2
I1123 11:43:16.400249 19447 net.cpp:129] Top shape: 3 28 56 56 (263424)
I1123 11:43:16.400251 19447 net.cpp:137] Memory required for data: 15052812
I1123 11:43:16.400256 19447 layer_factory.hpp:77] Creating layer Convolution3
I1123 11:43:16.400269 19447 net.cpp:84] Creating Layer Convolution3
I1123 11:43:16.400277 19447 net.cpp:406] Convolution3 <- BatchNorm2
I1123 11:43:16.400286 19447 net.cpp:380] Convolution3 -> Convolution3
I1123 11:43:16.402150 19447 net.cpp:122] Setting up Convolution3
I1123 11:43:16.402165 19447 net.cpp:129] Top shape: 3 12 56 56 (112896)
I1123 11:43:16.402168 19447 net.cpp:137] Memory required for data: 15504396
I1123 11:43:16.402173 19447 layer_factory.hpp:77] Creating layer Dropout2
I1123 11:43:16.402180 19447 net.cpp:84] Creating Layer Dropout2
I1123 11:43:16.402185 19447 net.cpp:406] Dropout2 <- Convolution3
I1123 11:43:16.402194 19447 net.cpp:380] Dropout2 -> Dropout2
I1123 11:43:16.402247 19447 net.cpp:122] Setting up Dropout2
I1123 11:43:16.402258 19447 net.cpp:129] Top shape: 3 12 56 56 (112896)
I1123 11:43:16.402261 19447 net.cpp:137] Memory required for data: 15955980
I1123 11:43:16.402264 19447 layer_factory.hpp:77] Creating layer Concat2
I1123 11:43:16.402276 19447 net.cpp:84] Creating Layer Concat2
I1123 11:43:16.402293 19447 net.cpp:406] Concat2 <- Concat1_Concat1_0_split_1
I1123 11:43:16.402303 19447 net.cpp:406] Concat2 <- Dropout2
I1123 11:43:16.402329 19447 net.cpp:380] Concat2 -> Concat2
I1123 11:43:16.402371 19447 net.cpp:122] Setting up Concat2
I1123 11:43:16.402382 19447 net.cpp:129] Top shape: 3 40 56 56 (376320)
I1123 11:43:16.402385 19447 net.cpp:137] Memory required for data: 17461260
I1123 11:43:16.402390 19447 layer_factory.hpp:77] Creating layer Concat2_Concat2_0_split
I1123 11:43:16.402397 19447 net.cpp:84] Creating Layer Concat2_Concat2_0_split
I1123 11:43:16.402402 19447 net.cpp:406] Concat2_Concat2_0_split <- Concat2
I1123 11:43:16.402410 19447 net.cpp:380] Concat2_Concat2_0_split -> Concat2_Concat2_0_split_0
I1123 11:43:16.402423 19447 net.cpp:380] Concat2_Concat2_0_split -> Concat2_Concat2_0_split_1
I1123 11:43:16.402479 19447 net.cpp:122] Setting up Concat2_Concat2_0_split
I1123 11:43:16.402490 19447 net.cpp:129] Top shape: 3 40 56 56 (376320)
I1123 11:43:16.402493 19447 net.cpp:129] Top shape: 3 40 56 56 (376320)
I1123 11:43:16.402496 19447 net.cpp:137] Memory required for data: 20471820
I1123 11:43:16.402501 19447 layer_factory.hpp:77] Creating layer BatchNorm3
I1123 11:43:16.402509 19447 net.cpp:84] Creating Layer BatchNorm3
I1123 11:43:16.402514 19447 net.cpp:406] BatchNorm3 <- Concat2_Concat2_0_split_0
I1123 11:43:16.402525 19447 net.cpp:380] BatchNorm3 -> BatchNorm3
I1123 11:43:16.402737 19447 net.cpp:122] Setting up BatchNorm3
I1123 11:43:16.402747 19447 net.cpp:129] Top shape: 3 40 56 56 (376320)
I1123 11:43:16.402750 19447 net.cpp:137] Memory required for data: 21977100
I1123 11:43:16.402762 19447 layer_factory.hpp:77] Creating layer Scale3
I1123 11:43:16.402776 19447 net.cpp:84] Creating Layer Scale3
I1123 11:43:16.402784 19447 net.cpp:406] Scale3 <- BatchNorm3
I1123 11:43:16.402793 19447 net.cpp:367] Scale3 -> BatchNorm3 (in-place)
I1123 11:43:16.402848 19447 layer_factory.hpp:77] Creating layer Scale3
I1123 11:43:16.402978 19447 net.cpp:122] Setting up Scale3
I1123 11:43:16.402988 19447 net.cpp:129] Top shape: 3 40 56 56 (376320)
I1123 11:43:16.402992 19447 net.cpp:137] Memory required for data: 23482380
I1123 11:43:16.402997 19447 layer_factory.hpp:77] Creating layer ReLU3
I1123 11:43:16.403005 19447 net.cpp:84] Creating Layer ReLU3
I1123 11:43:16.403010 19447 net.cpp:406] ReLU3 <- BatchNorm3
I1123 11:43:16.403018 19447 net.cpp:367] ReLU3 -> BatchNorm3 (in-place)
I1123 11:43:16.403208 19447 net.cpp:122] Setting up ReLU3
I1123 11:43:16.403219 19447 net.cpp:129] Top shape: 3 40 56 56 (376320)
I1123 11:43:16.403223 19447 net.cpp:137] Memory required for data: 24987660
I1123 11:43:16.403224 19447 layer_factory.hpp:77] Creating layer Convolution4
I1123 11:43:16.403237 19447 net.cpp:84] Creating Layer Convolution4
I1123 11:43:16.403244 19447 net.cpp:406] Convolution4 <- BatchNorm3
I1123 11:43:16.403251 19447 net.cpp:380] Convolution4 -> Convolution4
I1123 11:43:16.405570 19447 net.cpp:122] Setting up Convolution4
I1123 11:43:16.405583 19447 net.cpp:129] Top shape: 3 12 56 56 (112896)
I1123 11:43:16.405587 19447 net.cpp:137] Memory required for data: 25439244
I1123 11:43:16.405592 19447 layer_factory.hpp:77] Creating layer Dropout3
I1123 11:43:16.405599 19447 net.cpp:84] Creating Layer Dropout3
I1123 11:43:16.405602 19447 net.cpp:406] Dropout3 <- Convolution4
I1123 11:43:16.405607 19447 net.cpp:380] Dropout3 -> Dropout3
I1123 11:43:16.405652 19447 net.cpp:122] Setting up Dropout3
I1123 11:43:16.405665 19447 net.cpp:129] Top shape: 3 12 56 56 (112896)
I1123 11:43:16.405670 19447 net.cpp:137] Memory required for data: 25890828
I1123 11:43:16.405675 19447 layer_factory.hpp:77] Creating layer Concat3
I1123 11:43:16.405683 19447 net.cpp:84] Creating Layer Concat3
I1123 11:43:16.405689 19447 net.cpp:406] Concat3 <- Concat2_Concat2_0_split_1
I1123 11:43:16.405694 19447 net.cpp:406] Concat3 <- Dropout3
I1123 11:43:16.405704 19447 net.cpp:380] Concat3 -> Concat3
I1123 11:43:16.405737 19447 net.cpp:122] Setting up Concat3
I1123 11:43:16.405750 19447 net.cpp:129] Top shape: 3 52 56 56 (489216)
I1123 11:43:16.405753 19447 net.cpp:137] Memory required for data: 27847692
I1123 11:43:16.405756 19447 layer_factory.hpp:77] Creating layer Concat3_Concat3_0_split
I1123 11:43:16.405778 19447 net.cpp:84] Creating Layer Concat3_Concat3_0_split
I1123 11:43:16.405786 19447 net.cpp:406] Concat3_Concat3_0_split <- Concat3
I1123 11:43:16.405792 19447 net.cpp:380] Concat3_Concat3_0_split -> Concat3_Concat3_0_split_0
I1123 11:43:16.405810 19447 net.cpp:380] Concat3_Concat3_0_split -> Concat3_Concat3_0_split_1
I1123 11:43:16.405864 19447 net.cpp:122] Setting up Concat3_Concat3_0_split
I1123 11:43:16.405874 19447 net.cpp:129] Top shape: 3 52 56 56 (489216)
I1123 11:43:16.405876 19447 net.cpp:129] Top shape: 3 52 56 56 (489216)
I1123 11:43:16.405879 19447 net.cpp:137] Memory required for data: 31761420
I1123 11:43:16.405882 19447 layer_factory.hpp:77] Creating layer BatchNorm4
I1123 11:43:16.405894 19447 net.cpp:84] Creating Layer BatchNorm4
I1123 11:43:16.405900 19447 net.cpp:406] BatchNorm4 <- Concat3_Concat3_0_split_0
I1123 11:43:16.405918 19447 net.cpp:380] BatchNorm4 -> BatchNorm4
I1123 11:43:16.406137 19447 net.cpp:122] Setting up BatchNorm4
I1123 11:43:16.406147 19447 net.cpp:129] Top shape: 3 52 56 56 (489216)
I1123 11:43:16.406150 19447 net.cpp:137] Memory required for data: 33718284
I1123 11:43:16.406159 19447 layer_factory.hpp:77] Creating layer Scale4
I1123 11:43:16.406167 19447 net.cpp:84] Creating Layer Scale4
I1123 11:43:16.406177 19447 net.cpp:406] Scale4 <- BatchNorm4
I1123 11:43:16.406183 19447 net.cpp:367] Scale4 -> BatchNorm4 (in-place)
I1123 11:43:16.406241 19447 layer_factory.hpp:77] Creating layer Scale4
I1123 11:43:16.406373 19447 net.cpp:122] Setting up Scale4
I1123 11:43:16.406383 19447 net.cpp:129] Top shape: 3 52 56 56 (489216)
I1123 11:43:16.406386 19447 net.cpp:137] Memory required for data: 35675148
I1123 11:43:16.406392 19447 layer_factory.hpp:77] Creating layer ReLU4
I1123 11:43:16.406399 19447 net.cpp:84] Creating Layer ReLU4
I1123 11:43:16.406404 19447 net.cpp:406] ReLU4 <- BatchNorm4
I1123 11:43:16.406411 19447 net.cpp:367] ReLU4 -> BatchNorm4 (in-place)
I1123 11:43:16.407160 19447 net.cpp:122] Setting up ReLU4
I1123 11:43:16.407172 19447 net.cpp:129] Top shape: 3 52 56 56 (489216)
I1123 11:43:16.407176 19447 net.cpp:137] Memory required for data: 37632012
I1123 11:43:16.407178 19447 layer_factory.hpp:77] Creating layer Convolution5
I1123 11:43:16.407192 19447 net.cpp:84] Creating Layer Convolution5
I1123 11:43:16.407200 19447 net.cpp:406] Convolution5 <- BatchNorm4
I1123 11:43:16.407210 19447 net.cpp:380] Convolution5 -> Convolution5
I1123 11:43:16.409524 19447 net.cpp:122] Setting up Convolution5
I1123 11:43:16.409536 19447 net.cpp:129] Top shape: 3 12 56 56 (112896)
I1123 11:43:16.409539 19447 net.cpp:137] Memory required for data: 38083596
I1123 11:43:16.409543 19447 layer_factory.hpp:77] Creating layer Dropout4
I1123 11:43:16.409550 19447 net.cpp:84] Creating Layer Dropout4
I1123 11:43:16.409554 19447 net.cpp:406] Dropout4 <- Convolution5
I1123 11:43:16.409564 19447 net.cpp:380] Dropout4 -> Dropout4
I1123 11:43:16.409615 19447 net.cpp:122] Setting up Dropout4
I1123 11:43:16.409624 19447 net.cpp:129] Top shape: 3 12 56 56 (112896)
I1123 11:43:16.409627 19447 net.cpp:137] Memory required for data: 38535180
I1123 11:43:16.409629 19447 layer_factory.hpp:77] Creating layer Concat4
I1123 11:43:16.409634 19447 net.cpp:84] Creating Layer Concat4
I1123 11:43:16.409639 19447 net.cpp:406] Concat4 <- Concat3_Concat3_0_split_1
I1123 11:43:16.409644 19447 net.cpp:406] Concat4 <- Dropout4
I1123 11:43:16.409651 19447 net.cpp:380] Concat4 -> Concat4
I1123 11:43:16.409682 19447 net.cpp:122] Setting up Concat4
I1123 11:43:16.409690 19447 net.cpp:129] Top shape: 3 64 56 56 (602112)
I1123 11:43:16.409694 19447 net.cpp:137] Memory required for data: 40943628
I1123 11:43:16.409698 19447 layer_factory.hpp:77] Creating layer Concat4_Concat4_0_split
I1123 11:43:16.409720 19447 net.cpp:84] Creating Layer Concat4_Concat4_0_split
I1123 11:43:16.409726 19447 net.cpp:406] Concat4_Concat4_0_split <- Concat4
I1123 11:43:16.409734 19447 net.cpp:380] Concat4_Concat4_0_split -> Concat4_Concat4_0_split_0
I1123 11:43:16.409741 19447 net.cpp:380] Concat4_Concat4_0_split -> Concat4_Concat4_0_split_1
I1123 11:43:16.409798 19447 net.cpp:122] Setting up Concat4_Concat4_0_split
I1123 11:43:16.409808 19447 net.cpp:129] Top shape: 3 64 56 56 (602112)
I1123 11:43:16.409813 19447 net.cpp:129] Top shape: 3 64 56 56 (602112)
I1123 11:43:16.409817 19447 net.cpp:137] Memory required for data: 45760524
I1123 11:43:16.409821 19447 layer_factory.hpp:77] Creating layer BatchNorm5
I1123 11:43:16.409834 19447 net.cpp:84] Creating Layer BatchNorm5
I1123 11:43:16.409840 19447 net.cpp:406] BatchNorm5 <- Concat4_Concat4_0_split_0
I1123 11:43:16.409847 19447 net.cpp:380] BatchNorm5 -> BatchNorm5
I1123 11:43:16.410082 19447 net.cpp:122] Setting up BatchNorm5
I1123 11:43:16.410092 19447 net.cpp:129] Top shape: 3 64 56 56 (602112)
I1123 11:43:16.410096 19447 net.cpp:137] Memory required for data: 48168972
I1123 11:43:16.410105 19447 layer_factory.hpp:77] Creating layer Scale5
I1123 11:43:16.410115 19447 net.cpp:84] Creating Layer Scale5
I1123 11:43:16.410118 19447 net.cpp:406] Scale5 <- BatchNorm5
I1123 11:43:16.410126 19447 net.cpp:367] Scale5 -> BatchNorm5 (in-place)
I1123 11:43:16.410174 19447 layer_factory.hpp:77] Creating layer Scale5
I1123 11:43:16.410320 19447 net.cpp:122] Setting up Scale5
I1123 11:43:16.410331 19447 net.cpp:129] Top shape: 3 64 56 56 (602112)
I1123 11:43:16.410334 19447 net.cpp:137] Memory required for data: 50577420
I1123 11:43:16.410341 19447 layer_factory.hpp:77] Creating layer ReLU5
I1123 11:43:16.410347 19447 net.cpp:84] Creating Layer ReLU5
I1123 11:43:16.410353 19447 net.cpp:406] ReLU5 <- BatchNorm5
I1123 11:43:16.410360 19447 net.cpp:367] ReLU5 -> BatchNorm5 (in-place)
I1123 11:43:16.410523 19447 net.cpp:122] Setting up ReLU5
I1123 11:43:16.410533 19447 net.cpp:129] Top shape: 3 64 56 56 (602112)
I1123 11:43:16.410537 19447 net.cpp:137] Memory required for data: 52985868
I1123 11:43:16.410538 19447 layer_factory.hpp:77] Creating layer Convolution6
I1123 11:43:16.410547 19447 net.cpp:84] Creating Layer Convolution6
I1123 11:43:16.410549 19447 net.cpp:406] Convolution6 <- BatchNorm5
I1123 11:43:16.410558 19447 net.cpp:380] Convolution6 -> Convolution6
I1123 11:43:16.412703 19447 net.cpp:122] Setting up Convolution6
I1123 11:43:16.412720 19447 net.cpp:129] Top shape: 3 12 56 56 (112896)
I1123 11:43:16.412725 19447 net.cpp:137] Memory required for data: 53437452
I1123 11:43:16.412732 19447 layer_factory.hpp:77] Creating layer Dropout5
I1123 11:43:16.412739 19447 net.cpp:84] Creating Layer Dropout5
I1123 11:43:16.412744 19447 net.cpp:406] Dropout5 <- Convolution6
I1123 11:43:16.412752 19447 net.cpp:380] Dropout5 -> Dropout5
I1123 11:43:16.412807 19447 net.cpp:122] Setting up Dropout5
I1123 11:43:16.412819 19447 net.cpp:129] Top shape: 3 12 56 56 (112896)
I1123 11:43:16.412823 19447 net.cpp:137] Memory required for data: 53889036
I1123 11:43:16.412827 19447 layer_factory.hpp:77] Creating layer Concat5
I1123 11:43:16.412835 19447 net.cpp:84] Creating Layer Concat5
I1123 11:43:16.412842 19447 net.cpp:406] Concat5 <- Concat4_Concat4_0_split_1
I1123 11:43:16.412847 19447 net.cpp:406] Concat5 <- Dropout5
I1123 11:43:16.412853 19447 net.cpp:380] Concat5 -> Concat5
I1123 11:43:16.412883 19447 net.cpp:122] Setting up Concat5
I1123 11:43:16.412894 19447 net.cpp:129] Top shape: 3 76 56 56 (715008)
I1123 11:43:16.412897 19447 net.cpp:137] Memory required for data: 56749068
I1123 11:43:16.412900 19447 layer_factory.hpp:77] Creating layer Concat5_Concat5_0_split
I1123 11:43:16.412907 19447 net.cpp:84] Creating Layer Concat5_Concat5_0_split
I1123 11:43:16.412911 19447 net.cpp:406] Concat5_Concat5_0_split <- Concat5
I1123 11:43:16.412920 19447 net.cpp:380] Concat5_Concat5_0_split -> Concat5_Concat5_0_split_0
I1123 11:43:16.412930 19447 net.cpp:380] Concat5_Concat5_0_split -> Concat5_Concat5_0_split_1
I1123 11:43:16.412981 19447 net.cpp:122] Setting up Concat5_Concat5_0_split
I1123 11:43:16.412992 19447 net.cpp:129] Top shape: 3 76 56 56 (715008)
I1123 11:43:16.412994 19447 net.cpp:129] Top shape: 3 76 56 56 (715008)
I1123 11:43:16.412997 19447 net.cpp:137] Memory required for data: 62469132
I1123 11:43:16.413007 19447 layer_factory.hpp:77] Creating layer BatchNorm6
I1123 11:43:16.413013 19447 net.cpp:84] Creating Layer BatchNorm6
I1123 11:43:16.413017 19447 net.cpp:406] BatchNorm6 <- Concat5_Concat5_0_split_0
I1123 11:43:16.413022 19447 net.cpp:380] BatchNorm6 -> BatchNorm6
I1123 11:43:16.413194 19447 net.cpp:122] Setting up BatchNorm6
I1123 11:43:16.413203 19447 net.cpp:129] Top shape: 3 76 56 56 (715008)
I1123 11:43:16.413204 19447 net.cpp:137] Memory required for data: 65329164
I1123 11:43:16.413213 19447 layer_factory.hpp:77] Creating layer Scale6
I1123 11:43:16.413220 19447 net.cpp:84] Creating Layer Scale6
I1123 11:43:16.413223 19447 net.cpp:406] Scale6 <- BatchNorm6
I1123 11:43:16.413228 19447 net.cpp:367] Scale6 -> BatchNorm6 (in-place)
I1123 11:43:16.413264 19447 layer_factory.hpp:77] Creating layer Scale6
I1123 11:43:16.413367 19447 net.cpp:122] Setting up Scale6
I1123 11:43:16.413375 19447 net.cpp:129] Top shape: 3 76 56 56 (715008)
I1123 11:43:16.413378 19447 net.cpp:137] Memory required for data: 68189196
I1123 11:43:16.413381 19447 layer_factory.hpp:77] Creating layer ReLU6
I1123 11:43:16.413385 19447 net.cpp:84] Creating Layer ReLU6
I1123 11:43:16.413388 19447 net.cpp:406] ReLU6 <- BatchNorm6
I1123 11:43:16.413393 19447 net.cpp:367] ReLU6 -> BatchNorm6 (in-place)
I1123 11:43:16.413542 19447 net.cpp:122] Setting up ReLU6
I1123 11:43:16.413550 19447 net.cpp:129] Top shape: 3 76 56 56 (715008)
I1123 11:43:16.413553 19447 net.cpp:137] Memory required for data: 71049228
I1123 11:43:16.413555 19447 layer_factory.hpp:77] Creating layer Convolution7
I1123 11:43:16.413563 19447 net.cpp:84] Creating Layer Convolution7
I1123 11:43:16.413568 19447 net.cpp:406] Convolution7 <- BatchNorm6
I1123 11:43:16.413571 19447 net.cpp:380] Convolution7 -> Convolution7
I1123 11:43:16.416213 19447 net.cpp:122] Setting up Convolution7
I1123 11:43:16.416226 19447 net.cpp:129] Top shape: 3 12 56 56 (112896)
I1123 11:43:16.416229 19447 net.cpp:137] Memory required for data: 71500812
I1123 11:43:16.416234 19447 layer_factory.hpp:77] Creating layer Dropout6
I1123 11:43:16.416239 19447 net.cpp:84] Creating Layer Dropout6
I1123 11:43:16.416244 19447 net.cpp:406] Dropout6 <- Convolution7
I1123 11:43:16.416250 19447 net.cpp:380] Dropout6 -> Dropout6
I1123 11:43:16.416302 19447 net.cpp:122] Setting up Dropout6
I1123 11:43:16.416311 19447 net.cpp:129] Top shape: 3 12 56 56 (112896)
I1123 11:43:16.416313 19447 net.cpp:137] Memory required for data: 71952396
I1123 11:43:16.416316 19447 layer_factory.hpp:77] Creating layer Concat6
I1123 11:43:16.416322 19447 net.cpp:84] Creating Layer Concat6
I1123 11:43:16.416327 19447 net.cpp:406] Concat6 <- Concat5_Concat5_0_split_1
I1123 11:43:16.416334 19447 net.cpp:406] Concat6 <- Dropout6
I1123 11:43:16.416342 19447 net.cpp:380] Concat6 -> Concat6
I1123 11:43:16.416379 19447 net.cpp:122] Setting up Concat6
I1123 11:43:16.416388 19447 net.cpp:129] Top shape: 3 88 56 56 (827904)
I1123 11:43:16.416389 19447 net.cpp:137] Memory required for data: 75264012
I1123 11:43:16.416391 19447 layer_factory.hpp:77] Creating layer Concat6_Concat6_0_split
I1123 11:43:16.416398 19447 net.cpp:84] Creating Layer Concat6_Concat6_0_split
I1123 11:43:16.416402 19447 net.cpp:406] Concat6_Concat6_0_split <- Concat6
I1123 11:43:16.416410 19447 net.cpp:380] Concat6_Concat6_0_split -> Concat6_Concat6_0_split_0
I1123 11:43:16.416424 19447 net.cpp:380] Concat6_Concat6_0_split -> Concat6_Concat6_0_split_1
I1123 11:43:16.416471 19447 net.cpp:122] Setting up Concat6_Concat6_0_split
I1123 11:43:16.416478 19447 net.cpp:129] Top shape: 3 88 56 56 (827904)
I1123 11:43:16.416481 19447 net.cpp:129] Top shape: 3 88 56 56 (827904)
I1123 11:43:16.416484 19447 net.cpp:137] Memory required for data: 81887244
I1123 11:43:16.416487 19447 layer_factory.hpp:77] Creating layer BatchNorm7
I1123 11:43:16.416496 19447 net.cpp:84] Creating Layer BatchNorm7
I1123 11:43:16.416501 19447 net.cpp:406] BatchNorm7 <- Concat6_Concat6_0_split_0
I1123 11:43:16.416508 19447 net.cpp:380] BatchNorm7 -> BatchNorm7
I1123 11:43:16.416718 19447 net.cpp:122] Setting up BatchNorm7
I1123 11:43:16.416726 19447 net.cpp:129] Top shape: 3 88 56 56 (827904)
I1123 11:43:16.416729 19447 net.cpp:137] Memory required for data: 85198860
I1123 11:43:16.416736 19447 layer_factory.hpp:77] Creating layer Scale7
I1123 11:43:16.416743 19447 net.cpp:84] Creating Layer Scale7
I1123 11:43:16.416749 19447 net.cpp:406] Scale7 <- BatchNorm7
I1123 11:43:16.416756 19447 net.cpp:367] Scale7 -> BatchNorm7 (in-place)
I1123 11:43:16.416808 19447 layer_factory.hpp:77] Creating layer Scale7
I1123 11:43:16.416931 19447 net.cpp:122] Setting up Scale7
I1123 11:43:16.416940 19447 net.cpp:129] Top shape: 3 88 56 56 (827904)
I1123 11:43:16.416942 19447 net.cpp:137] Memory required for data: 88510476
I1123 11:43:16.416947 19447 layer_factory.hpp:77] Creating layer ReLU7
I1123 11:43:16.416951 19447 net.cpp:84] Creating Layer ReLU7
I1123 11:43:16.416955 19447 net.cpp:406] ReLU7 <- BatchNorm7
I1123 11:43:16.416963 19447 net.cpp:367] ReLU7 -> BatchNorm7 (in-place)
I1123 11:43:16.417630 19447 net.cpp:122] Setting up ReLU7
I1123 11:43:16.417641 19447 net.cpp:129] Top shape: 3 88 56 56 (827904)
I1123 11:43:16.417644 19447 net.cpp:137] Memory required for data: 91822092
I1123 11:43:16.417647 19447 layer_factory.hpp:77] Creating layer Convolution8
I1123 11:43:16.417659 19447 net.cpp:84] Creating Layer Convolution8
I1123 11:43:16.417665 19447 net.cpp:406] Convolution8 <- BatchNorm7
I1123 11:43:16.417675 19447 net.cpp:380] Convolution8 -> Convolution8
I1123 11:43:16.420243 19447 net.cpp:122] Setting up Convolution8
I1123 11:43:16.420253 19447 net.cpp:129] Top shape: 3 12 56 56 (112896)
I1123 11:43:16.420256 19447 net.cpp:137] Memory required for data: 92273676
I1123 11:43:16.420260 19447 layer_factory.hpp:77] Creating layer Dropout7
I1123 11:43:16.420266 19447 net.cpp:84] Creating Layer Dropout7
I1123 11:43:16.420269 19447 net.cpp:406] Dropout7 <- Convolution8
I1123 11:43:16.420274 19447 net.cpp:380] Dropout7 -> Dropout7
I1123 11:43:16.420313 19447 net.cpp:122] Setting up Dropout7
I1123 11:43:16.420320 19447 net.cpp:129] Top shape: 3 12 56 56 (112896)
I1123 11:43:16.420322 19447 net.cpp:137] Memory required for data: 92725260
I1123 11:43:16.420325 19447 layer_factory.hpp:77] Creating layer Concat7
I1123 11:43:16.420330 19447 net.cpp:84] Creating Layer Concat7
I1123 11:43:16.420332 19447 net.cpp:406] Concat7 <- Concat6_Concat6_0_split_1
I1123 11:43:16.420336 19447 net.cpp:406] Concat7 <- Dropout7
I1123 11:43:16.420339 19447 net.cpp:380] Concat7 -> Concat7
I1123 11:43:16.420359 19447 net.cpp:122] Setting up Concat7
I1123 11:43:16.420366 19447 net.cpp:129] Top shape: 3 100 56 56 (940800)
I1123 11:43:16.420367 19447 net.cpp:137] Memory required for data: 96488460
I1123 11:43:16.420369 19447 layer_factory.hpp:77] Creating layer Concat7_Concat7_0_split
I1123 11:43:16.420380 19447 net.cpp:84] Creating Layer Concat7_Concat7_0_split
I1123 11:43:16.420382 19447 net.cpp:406] Concat7_Concat7_0_split <- Concat7
I1123 11:43:16.420387 19447 net.cpp:380] Concat7_Concat7_0_split -> Concat7_Concat7_0_split_0
I1123 11:43:16.420392 19447 net.cpp:380] Concat7_Concat7_0_split -> Concat7_Concat7_0_split_1
I1123 11:43:16.420423 19447 net.cpp:122] Setting up Concat7_Concat7_0_split
I1123 11:43:16.420429 19447 net.cpp:129] Top shape: 3 100 56 56 (940800)
I1123 11:43:16.420433 19447 net.cpp:129] Top shape: 3 100 56 56 (940800)
I1123 11:43:16.420434 19447 net.cpp:137] Memory required for data: 104014860
I1123 11:43:16.420436 19447 layer_factory.hpp:77] Creating layer BatchNorm8
I1123 11:43:16.420442 19447 net.cpp:84] Creating Layer BatchNorm8
I1123 11:43:16.420444 19447 net.cpp:406] BatchNorm8 <- Concat7_Concat7_0_split_0
I1123 11:43:16.420449 19447 net.cpp:380] BatchNorm8 -> BatchNorm8
I1123 11:43:16.420621 19447 net.cpp:122] Setting up BatchNorm8
I1123 11:43:16.420627 19447 net.cpp:129] Top shape: 3 100 56 56 (940800)
I1123 11:43:16.420630 19447 net.cpp:137] Memory required for data: 107778060
I1123 11:43:16.420635 19447 layer_factory.hpp:77] Creating layer Scale8
I1123 11:43:16.420642 19447 net.cpp:84] Creating Layer Scale8
I1123 11:43:16.420655 19447 net.cpp:406] Scale8 <- BatchNorm8
I1123 11:43:16.420660 19447 net.cpp:367] Scale8 -> BatchNorm8 (in-place)
I1123 11:43:16.420708 19447 layer_factory.hpp:77] Creating layer Scale8
I1123 11:43:16.420814 19447 net.cpp:122] Setting up Scale8
I1123 11:43:16.420821 19447 net.cpp:129] Top shape: 3 100 56 56 (940800)
I1123 11:43:16.420825 19447 net.cpp:137] Memory required for data: 111541260
I1123 11:43:16.420828 19447 layer_factory.hpp:77] Creating layer ReLU8
I1123 11:43:16.420833 19447 net.cpp:84] Creating Layer ReLU8
I1123 11:43:16.420836 19447 net.cpp:406] ReLU8 <- BatchNorm8
I1123 11:43:16.420840 19447 net.cpp:367] ReLU8 -> BatchNorm8 (in-place)
I1123 11:43:16.420989 19447 net.cpp:122] Setting up ReLU8
I1123 11:43:16.420999 19447 net.cpp:129] Top shape: 3 100 56 56 (940800)
I1123 11:43:16.421000 19447 net.cpp:137] Memory required for data: 115304460
I1123 11:43:16.421003 19447 layer_factory.hpp:77] Creating layer Convolution9
I1123 11:43:16.421010 19447 net.cpp:84] Creating Layer Convolution9
I1123 11:43:16.421013 19447 net.cpp:406] Convolution9 <- BatchNorm8
I1123 11:43:16.421018 19447 net.cpp:380] Convolution9 -> Convolution9
I1123 11:43:16.423414 19447 net.cpp:122] Setting up Convolution9
I1123 11:43:16.423426 19447 net.cpp:129] Top shape: 3 12 56 56 (112896)
I1123 11:43:16.423429 19447 net.cpp:137] Memory required for data: 115756044
I1123 11:43:16.423434 19447 layer_factory.hpp:77] Creating layer Dropout8
I1123 11:43:16.423441 19447 net.cpp:84] Creating Layer Dropout8
I1123 11:43:16.423444 19447 net.cpp:406] Dropout8 <- Convolution9
I1123 11:43:16.423449 19447 net.cpp:380] Dropout8 -> Dropout8
I1123 11:43:16.423491 19447 net.cpp:122] Setting up Dropout8
I1123 11:43:16.423496 19447 net.cpp:129] Top shape: 3 12 56 56 (112896)
I1123 11:43:16.423498 19447 net.cpp:137] Memory required for data: 116207628
I1123 11:43:16.423501 19447 layer_factory.hpp:77] Creating layer Concat8
I1123 11:43:16.423506 19447 net.cpp:84] Creating Layer Concat8
I1123 11:43:16.423508 19447 net.cpp:406] Concat8 <- Concat7_Concat7_0_split_1
I1123 11:43:16.423511 19447 net.cpp:406] Concat8 <- Dropout8
I1123 11:43:16.423516 19447 net.cpp:380] Concat8 -> Concat8
I1123 11:43:16.423535 19447 net.cpp:122] Setting up Concat8
I1123 11:43:16.423547 19447 net.cpp:129] Top shape: 3 112 56 56 (1053696)
I1123 11:43:16.423549 19447 net.cpp:137] Memory required for data: 120422412
I1123 11:43:16.423552 19447 layer_factory.hpp:77] Creating layer Concat8_Concat8_0_split
I1123 11:43:16.423555 19447 net.cpp:84] Creating Layer Concat8_Concat8_0_split
I1123 11:43:16.423558 19447 net.cpp:406] Concat8_Concat8_0_split <- Concat8
I1123 11:43:16.423562 19447 net.cpp:380] Concat8_Concat8_0_split -> Concat8_Concat8_0_split_0
I1123 11:43:16.423568 19447 net.cpp:380] Concat8_Concat8_0_split -> Concat8_Concat8_0_split_1
I1123 11:43:16.423597 19447 net.cpp:122] Setting up Concat8_Concat8_0_split
I1123 11:43:16.423604 19447 net.cpp:129] Top shape: 3 112 56 56 (1053696)
I1123 11:43:16.423606 19447 net.cpp:129] Top shape: 3 112 56 56 (1053696)
I1123 11:43:16.423609 19447 net.cpp:137] Memory required for data: 128851980
I1123 11:43:16.423610 19447 layer_factory.hpp:77] Creating layer BatchNorm9
I1123 11:43:16.423616 19447 net.cpp:84] Creating Layer BatchNorm9
I1123 11:43:16.423619 19447 net.cpp:406] BatchNorm9 <- Concat8_Concat8_0_split_0
I1123 11:43:16.423624 19447 net.cpp:380] BatchNorm9 -> BatchNorm9
I1123 11:43:16.423800 19447 net.cpp:122] Setting up BatchNorm9
I1123 11:43:16.423807 19447 net.cpp:129] Top shape: 3 112 56 56 (1053696)
I1123 11:43:16.423810 19447 net.cpp:137] Memory required for data: 133066764
I1123 11:43:16.423815 19447 layer_factory.hpp:77] Creating layer Scale9
I1123 11:43:16.423820 19447 net.cpp:84] Creating Layer Scale9
I1123 11:43:16.423822 19447 net.cpp:406] Scale9 <- BatchNorm9
I1123 11:43:16.423826 19447 net.cpp:367] Scale9 -> BatchNorm9 (in-place)
I1123 11:43:16.423863 19447 layer_factory.hpp:77] Creating layer Scale9
I1123 11:43:16.423969 19447 net.cpp:122] Setting up Scale9
I1123 11:43:16.423976 19447 net.cpp:129] Top shape: 3 112 56 56 (1053696)
I1123 11:43:16.423987 19447 net.cpp:137] Memory required for data: 137281548
I1123 11:43:16.423992 19447 layer_factory.hpp:77] Creating layer ReLU9
I1123 11:43:16.423996 19447 net.cpp:84] Creating Layer ReLU9
I1123 11:43:16.424000 19447 net.cpp:406] ReLU9 <- BatchNorm9
I1123 11:43:16.424002 19447 net.cpp:367] ReLU9 -> BatchNorm9 (in-place)
I1123 11:43:16.424161 19447 net.cpp:122] Setting up ReLU9
I1123 11:43:16.424170 19447 net.cpp:129] Top shape: 3 112 56 56 (1053696)
I1123 11:43:16.424172 19447 net.cpp:137] Memory required for data: 141496332
I1123 11:43:16.424175 19447 layer_factory.hpp:77] Creating layer Convolution10
I1123 11:43:16.424182 19447 net.cpp:84] Creating Layer Convolution10
I1123 11:43:16.424185 19447 net.cpp:406] Convolution10 <- BatchNorm9
I1123 11:43:16.424191 19447 net.cpp:380] Convolution10 -> Convolution10
I1123 11:43:16.426360 19447 net.cpp:122] Setting up Convolution10
I1123 11:43:16.426373 19447 net.cpp:129] Top shape: 3 12 56 56 (112896)
I1123 11:43:16.426375 19447 net.cpp:137] Memory required for data: 141947916
I1123 11:43:16.426379 19447 layer_factory.hpp:77] Creating layer Dropout9
I1123 11:43:16.426391 19447 net.cpp:84] Creating Layer Dropout9
I1123 11:43:16.426394 19447 net.cpp:406] Dropout9 <- Convolution10
I1123 11:43:16.426399 19447 net.cpp:380] Dropout9 -> Dropout9
I1123 11:43:16.426439 19447 net.cpp:122] Setting up Dropout9
I1123 11:43:16.426445 19447 net.cpp:129] Top shape: 3 12 56 56 (112896)
I1123 11:43:16.426447 19447 net.cpp:137] Memory required for data: 142399500
I1123 11:43:16.426450 19447 layer_factory.hpp:77] Creating layer Concat9
I1123 11:43:16.426455 19447 net.cpp:84] Creating Layer Concat9
I1123 11:43:16.426457 19447 net.cpp:406] Concat9 <- Concat8_Concat8_0_split_1
I1123 11:43:16.426461 19447 net.cpp:406] Concat9 <- Dropout9
I1123 11:43:16.426465 19447 net.cpp:380] Concat9 -> Concat9
I1123 11:43:16.426486 19447 net.cpp:122] Setting up Concat9
I1123 11:43:16.426491 19447 net.cpp:129] Top shape: 3 124 56 56 (1166592)
I1123 11:43:16.426492 19447 net.cpp:137] Memory required for data: 147065868
I1123 11:43:16.426494 19447 layer_factory.hpp:77] Creating layer Concat9_Concat9_0_split
I1123 11:43:16.426498 19447 net.cpp:84] Creating Layer Concat9_Concat9_0_split
I1123 11:43:16.426501 19447 net.cpp:406] Concat9_Concat9_0_split <- Concat9
I1123 11:43:16.426507 19447 net.cpp:380] Concat9_Concat9_0_split -> Concat9_Concat9_0_split_0
I1123 11:43:16.426512 19447 net.cpp:380] Concat9_Concat9_0_split -> Concat9_Concat9_0_split_1
I1123 11:43:16.426542 19447 net.cpp:122] Setting up Concat9_Concat9_0_split
I1123 11:43:16.426548 19447 net.cpp:129] Top shape: 3 124 56 56 (1166592)
I1123 11:43:16.426551 19447 net.cpp:129] Top shape: 3 124 56 56 (1166592)
I1123 11:43:16.426553 19447 net.cpp:137] Memory required for data: 156398604
I1123 11:43:16.426555 19447 layer_factory.hpp:77] Creating layer BatchNorm10
I1123 11:43:16.426561 19447 net.cpp:84] Creating Layer BatchNorm10
I1123 11:43:16.426564 19447 net.cpp:406] BatchNorm10 <- Concat9_Concat9_0_split_0
I1123 11:43:16.426568 19447 net.cpp:380] BatchNorm10 -> BatchNorm10
I1123 11:43:16.426756 19447 net.cpp:122] Setting up BatchNorm10
I1123 11:43:16.426764 19447 net.cpp:129] Top shape: 3 124 56 56 (1166592)
I1123 11:43:16.426766 19447 net.cpp:137] Memory required for data: 161064972
I1123 11:43:16.426771 19447 layer_factory.hpp:77] Creating layer Scale10
I1123 11:43:16.426777 19447 net.cpp:84] Creating Layer Scale10
I1123 11:43:16.426780 19447 net.cpp:406] Scale10 <- BatchNorm10
I1123 11:43:16.426784 19447 net.cpp:367] Scale10 -> BatchNorm10 (in-place)
I1123 11:43:16.426826 19447 layer_factory.hpp:77] Creating layer Scale10
I1123 11:43:16.426933 19447 net.cpp:122] Setting up Scale10
I1123 11:43:16.426939 19447 net.cpp:129] Top shape: 3 124 56 56 (1166592)
I1123 11:43:16.426941 19447 net.cpp:137] Memory required for data: 165731340
I1123 11:43:16.426946 19447 layer_factory.hpp:77] Creating layer ReLU10
I1123 11:43:16.426951 19447 net.cpp:84] Creating Layer ReLU10
I1123 11:43:16.426954 19447 net.cpp:406] ReLU10 <- BatchNorm10
I1123 11:43:16.426966 19447 net.cpp:367] ReLU10 -> BatchNorm10 (in-place)
I1123 11:43:16.427603 19447 net.cpp:122] Setting up ReLU10
I1123 11:43:16.427614 19447 net.cpp:129] Top shape: 3 124 56 56 (1166592)
I1123 11:43:16.427616 19447 net.cpp:137] Memory required for data: 170397708
I1123 11:43:16.427619 19447 layer_factory.hpp:77] Creating layer Convolution11
I1123 11:43:16.427628 19447 net.cpp:84] Creating Layer Convolution11
I1123 11:43:16.427629 19447 net.cpp:406] Convolution11 <- BatchNorm10
I1123 11:43:16.427635 19447 net.cpp:380] Convolution11 -> Convolution11
I1123 11:43:16.429800 19447 net.cpp:122] Setting up Convolution11
I1123 11:43:16.429813 19447 net.cpp:129] Top shape: 3 12 56 56 (112896)
I1123 11:43:16.429816 19447 net.cpp:137] Memory required for data: 170849292
I1123 11:43:16.429821 19447 layer_factory.hpp:77] Creating layer Dropout10
I1123 11:43:16.429826 19447 net.cpp:84] Creating Layer Dropout10
I1123 11:43:16.429829 19447 net.cpp:406] Dropout10 <- Convolution11
I1123 11:43:16.429833 19447 net.cpp:380] Dropout10 -> Dropout10
I1123 11:43:16.429874 19447 net.cpp:122] Setting up Dropout10
I1123 11:43:16.429882 19447 net.cpp:129] Top shape: 3 12 56 56 (112896)
I1123 11:43:16.429883 19447 net.cpp:137] Memory required for data: 171300876
I1123 11:43:16.429885 19447 layer_factory.hpp:77] Creating layer Concat10
I1123 11:43:16.429889 19447 net.cpp:84] Creating Layer Concat10
I1123 11:43:16.429893 19447 net.cpp:406] Concat10 <- Concat9_Concat9_0_split_1
I1123 11:43:16.429895 19447 net.cpp:406] Concat10 <- Dropout10
I1123 11:43:16.429900 19447 net.cpp:380] Concat10 -> Concat10
I1123 11:43:16.429922 19447 net.cpp:122] Setting up Concat10
I1123 11:43:16.429929 19447 net.cpp:129] Top shape: 3 136 56 56 (1279488)
I1123 11:43:16.429930 19447 net.cpp:137] Memory required for data: 176418828
I1123 11:43:16.429932 19447 layer_factory.hpp:77] Creating layer Concat10_Concat10_0_split
I1123 11:43:16.429937 19447 net.cpp:84] Creating Layer Concat10_Concat10_0_split
I1123 11:43:16.429939 19447 net.cpp:406] Concat10_Concat10_0_split <- Concat10
I1123 11:43:16.429944 19447 net.cpp:380] Concat10_Concat10_0_split -> Concat10_Concat10_0_split_0
I1123 11:43:16.429957 19447 net.cpp:380] Concat10_Concat10_0_split -> Concat10_Concat10_0_split_1
I1123 11:43:16.429989 19447 net.cpp:122] Setting up Concat10_Concat10_0_split
I1123 11:43:16.429996 19447 net.cpp:129] Top shape: 3 136 56 56 (1279488)
I1123 11:43:16.429998 19447 net.cpp:129] Top shape: 3 136 56 56 (1279488)
I1123 11:43:16.430001 19447 net.cpp:137] Memory required for data: 186654732
I1123 11:43:16.430002 19447 layer_factory.hpp:77] Creating layer BatchNorm11
I1123 11:43:16.430008 19447 net.cpp:84] Creating Layer BatchNorm11
I1123 11:43:16.430011 19447 net.cpp:406] BatchNorm11 <- Concat10_Concat10_0_split_0
I1123 11:43:16.430014 19447 net.cpp:380] BatchNorm11 -> BatchNorm11
I1123 11:43:16.430188 19447 net.cpp:122] Setting up BatchNorm11
I1123 11:43:16.430196 19447 net.cpp:129] Top shape: 3 136 56 56 (1279488)
I1123 11:43:16.430197 19447 net.cpp:137] Memory required for data: 191772684
I1123 11:43:16.430209 19447 layer_factory.hpp:77] Creating layer Scale11
I1123 11:43:16.430217 19447 net.cpp:84] Creating Layer Scale11
I1123 11:43:16.430219 19447 net.cpp:406] Scale11 <- BatchNorm11
I1123 11:43:16.430223 19447 net.cpp:367] Scale11 -> BatchNorm11 (in-place)
I1123 11:43:16.430258 19447 layer_factory.hpp:77] Creating layer Scale11
I1123 11:43:16.430361 19447 net.cpp:122] Setting up Scale11
I1123 11:43:16.430368 19447 net.cpp:129] Top shape: 3 136 56 56 (1279488)
I1123 11:43:16.430371 19447 net.cpp:137] Memory required for data: 196890636
I1123 11:43:16.430375 19447 layer_factory.hpp:77] Creating layer ReLU11
I1123 11:43:16.430379 19447 net.cpp:84] Creating Layer ReLU11
I1123 11:43:16.430382 19447 net.cpp:406] ReLU11 <- BatchNorm11
I1123 11:43:16.430388 19447 net.cpp:367] ReLU11 -> BatchNorm11 (in-place)
I1123 11:43:16.430550 19447 net.cpp:122] Setting up ReLU11
I1123 11:43:16.430559 19447 net.cpp:129] Top shape: 3 136 56 56 (1279488)
I1123 11:43:16.430562 19447 net.cpp:137] Memory required for data: 202008588
I1123 11:43:16.430573 19447 layer_factory.hpp:77] Creating layer Convolution12
I1123 11:43:16.430583 19447 net.cpp:84] Creating Layer Convolution12
I1123 11:43:16.430585 19447 net.cpp:406] Convolution12 <- BatchNorm11
I1123 11:43:16.430591 19447 net.cpp:380] Convolution12 -> Convolution12
I1123 11:43:16.432819 19447 net.cpp:122] Setting up Convolution12
I1123 11:43:16.432832 19447 net.cpp:129] Top shape: 3 12 56 56 (112896)
I1123 11:43:16.432835 19447 net.cpp:137] Memory required for data: 202460172
I1123 11:43:16.432849 19447 layer_factory.hpp:77] Creating layer Dropout11
I1123 11:43:16.432857 19447 net.cpp:84] Creating Layer Dropout11
I1123 11:43:16.432860 19447 net.cpp:406] Dropout11 <- Convolution12
I1123 11:43:16.432867 19447 net.cpp:380] Dropout11 -> Dropout11
I1123 11:43:16.432909 19447 net.cpp:122] Setting up Dropout11
I1123 11:43:16.432917 19447 net.cpp:129] Top shape: 3 12 56 56 (112896)
I1123 11:43:16.432919 19447 net.cpp:137] Memory required for data: 202911756
I1123 11:43:16.432921 19447 layer_factory.hpp:77] Creating layer Concat11
I1123 11:43:16.432926 19447 net.cpp:84] Creating Layer Concat11
I1123 11:43:16.432929 19447 net.cpp:406] Concat11 <- Concat10_Concat10_0_split_1
I1123 11:43:16.432931 19447 net.cpp:406] Concat11 <- Dropout11
I1123 11:43:16.432935 19447 net.cpp:380] Concat11 -> Concat11
I1123 11:43:16.432957 19447 net.cpp:122] Setting up Concat11
I1123 11:43:16.432963 19447 net.cpp:129] Top shape: 3 148 56 56 (1392384)
I1123 11:43:16.432965 19447 net.cpp:137] Memory required for data: 208481292
I1123 11:43:16.432967 19447 layer_factory.hpp:77] Creating layer Concat11_Concat11_0_split
I1123 11:43:16.432971 19447 net.cpp:84] Creating Layer Concat11_Concat11_0_split
I1123 11:43:16.432974 19447 net.cpp:406] Concat11_Concat11_0_split <- Concat11
I1123 11:43:16.432979 19447 net.cpp:380] Concat11_Concat11_0_split -> Concat11_Concat11_0_split_0
I1123 11:43:16.432984 19447 net.cpp:380] Concat11_Concat11_0_split -> Concat11_Concat11_0_split_1
I1123 11:43:16.433015 19447 net.cpp:122] Setting up Concat11_Concat11_0_split
I1123 11:43:16.433022 19447 net.cpp:129] Top shape: 3 148 56 56 (1392384)
I1123 11:43:16.433024 19447 net.cpp:129] Top shape: 3 148 56 56 (1392384)
I1123 11:43:16.433027 19447 net.cpp:137] Memory required for data: 219620364
I1123 11:43:16.433028 19447 layer_factory.hpp:77] Creating layer BatchNorm12
I1123 11:43:16.433032 19447 net.cpp:84] Creating Layer BatchNorm12
I1123 11:43:16.433034 19447 net.cpp:406] BatchNorm12 <- Concat11_Concat11_0_split_0
I1123 11:43:16.433039 19447 net.cpp:380] BatchNorm12 -> BatchNorm12
I1123 11:43:16.433215 19447 net.cpp:122] Setting up BatchNorm12
I1123 11:43:16.433223 19447 net.cpp:129] Top shape: 3 148 56 56 (1392384)
I1123 11:43:16.433224 19447 net.cpp:137] Memory required for data: 225189900
I1123 11:43:16.433230 19447 layer_factory.hpp:77] Creating layer Scale12
I1123 11:43:16.433234 19447 net.cpp:84] Creating Layer Scale12
I1123 11:43:16.433238 19447 net.cpp:406] Scale12 <- BatchNorm12
I1123 11:43:16.433240 19447 net.cpp:367] Scale12 -> BatchNorm12 (in-place)
I1123 11:43:16.433277 19447 layer_factory.hpp:77] Creating layer Scale12
I1123 11:43:16.433382 19447 net.cpp:122] Setting up Scale12
I1123 11:43:16.433389 19447 net.cpp:129] Top shape: 3 148 56 56 (1392384)
I1123 11:43:16.433392 19447 net.cpp:137] Memory required for data: 230759436
I1123 11:43:16.433396 19447 layer_factory.hpp:77] Creating layer ReLU12
I1123 11:43:16.433400 19447 net.cpp:84] Creating Layer ReLU12
I1123 11:43:16.433403 19447 net.cpp:406] ReLU12 <- BatchNorm12
I1123 11:43:16.433406 19447 net.cpp:367] ReLU12 -> BatchNorm12 (in-place)
I1123 11:43:16.433568 19447 net.cpp:122] Setting up ReLU12
I1123 11:43:16.433576 19447 net.cpp:129] Top shape: 3 148 56 56 (1392384)
I1123 11:43:16.433578 19447 net.cpp:137] Memory required for data: 236328972
I1123 11:43:16.433583 19447 layer_factory.hpp:77] Creating layer Convolution13
I1123 11:43:16.433589 19447 net.cpp:84] Creating Layer Convolution13
I1123 11:43:16.433593 19447 net.cpp:406] Convolution13 <- BatchNorm12
I1123 11:43:16.433606 19447 net.cpp:380] Convolution13 -> Convolution13
I1123 11:43:16.435802 19447 net.cpp:122] Setting up Convolution13
I1123 11:43:16.435817 19447 net.cpp:129] Top shape: 3 12 56 56 (112896)
I1123 11:43:16.435820 19447 net.cpp:137] Memory required for data: 236780556
I1123 11:43:16.435825 19447 layer_factory.hpp:77] Creating layer Dropout12
I1123 11:43:16.435830 19447 net.cpp:84] Creating Layer Dropout12
I1123 11:43:16.435832 19447 net.cpp:406] Dropout12 <- Convolution13
I1123 11:43:16.435837 19447 net.cpp:380] Dropout12 -> Dropout12
I1123 11:43:16.435879 19447 net.cpp:122] Setting up Dropout12
I1123 11:43:16.435886 19447 net.cpp:129] Top shape: 3 12 56 56 (112896)
I1123 11:43:16.435889 19447 net.cpp:137] Memory required for data: 237232140
I1123 11:43:16.435890 19447 layer_factory.hpp:77] Creating layer Concat12
I1123 11:43:16.435894 19447 net.cpp:84] Creating Layer Concat12
I1123 11:43:16.435897 19447 net.cpp:406] Concat12 <- Concat11_Concat11_0_split_1
I1123 11:43:16.435901 19447 net.cpp:406] Concat12 <- Dropout12
I1123 11:43:16.435905 19447 net.cpp:380] Concat12 -> Concat12
I1123 11:43:16.435927 19447 net.cpp:122] Setting up Concat12
I1123 11:43:16.435935 19447 net.cpp:129] Top shape: 3 160 56 56 (1505280)
I1123 11:43:16.435936 19447 net.cpp:137] Memory required for data: 243253260
I1123 11:43:16.435938 19447 layer_factory.hpp:77] Creating layer BatchNorm13
I1123 11:43:16.435942 19447 net.cpp:84] Creating Layer BatchNorm13
I1123 11:43:16.435945 19447 net.cpp:406] BatchNorm13 <- Concat12
I1123 11:43:16.435950 19447 net.cpp:380] BatchNorm13 -> BatchNorm13
I1123 11:43:16.436132 19447 net.cpp:122] Setting up BatchNorm13
I1123 11:43:16.436139 19447 net.cpp:129] Top shape: 3 160 56 56 (1505280)
I1123 11:43:16.436141 19447 net.cpp:137] Memory required for data: 249274380
I1123 11:43:16.436146 19447 layer_factory.hpp:77] Creating layer Scale13
I1123 11:43:16.436151 19447 net.cpp:84] Creating Layer Scale13
I1123 11:43:16.436154 19447 net.cpp:406] Scale13 <- BatchNorm13
I1123 11:43:16.436158 19447 net.cpp:367] Scale13 -> BatchNorm13 (in-place)
I1123 11:43:16.436193 19447 layer_factory.hpp:77] Creating layer Scale13
I1123 11:43:16.436300 19447 net.cpp:122] Setting up Scale13
I1123 11:43:16.436307 19447 net.cpp:129] Top shape: 3 160 56 56 (1505280)
I1123 11:43:16.436309 19447 net.cpp:137] Memory required for data: 255295500
I1123 11:43:16.436313 19447 layer_factory.hpp:77] Creating layer ReLU13
I1123 11:43:16.436317 19447 net.cpp:84] Creating Layer ReLU13
I1123 11:43:16.436321 19447 net.cpp:406] ReLU13 <- BatchNorm13
I1123 11:43:16.436324 19447 net.cpp:367] ReLU13 -> BatchNorm13 (in-place)
I1123 11:43:16.436962 19447 net.cpp:122] Setting up ReLU13
I1123 11:43:16.436975 19447 net.cpp:129] Top shape: 3 160 56 56 (1505280)
I1123 11:43:16.436977 19447 net.cpp:137] Memory required for data: 261316620
I1123 11:43:16.436980 19447 layer_factory.hpp:77] Creating layer Pooling3
I1123 11:43:16.436985 19447 net.cpp:84] Creating Layer Pooling3
I1123 11:43:16.436988 19447 net.cpp:406] Pooling3 <- BatchNorm13
I1123 11:43:16.436995 19447 net.cpp:380] Pooling3 -> Pooling3
I1123 11:43:16.437314 19447 net.cpp:122] Setting up Pooling3
I1123 11:43:16.437326 19447 net.cpp:129] Top shape: 3 160 54 54 (1399680)
I1123 11:43:16.437330 19447 net.cpp:137] Memory required for data: 266915340
I1123 11:43:16.437331 19447 layer_factory.hpp:77] Creating layer InnerProduct1
I1123 11:43:16.437340 19447 net.cpp:84] Creating Layer InnerProduct1
I1123 11:43:16.437341 19447 net.cpp:406] InnerProduct1 <- Pooling3
I1123 11:43:16.437346 19447 net.cpp:380] InnerProduct1 -> InnerProduct1
I1123 11:43:16.523613 19447 net.cpp:122] Setting up InnerProduct1
I1123 11:43:16.523653 19447 net.cpp:129] Top shape: 3 16 (48)
I1123 11:43:16.523658 19447 net.cpp:137] Memory required for data: 266915532
I1123 11:43:16.523670 19447 layer_factory.hpp:77] Creating layer SoftmaxWithLoss1
I1123 11:43:16.523988 19447 net.cpp:84] Creating Layer SoftmaxWithLoss1
I1123 11:43:16.524001 19447 net.cpp:406] SoftmaxWithLoss1 <- InnerProduct1
I1123 11:43:16.524008 19447 net.cpp:406] SoftmaxWithLoss1 <- label
I1123 11:43:16.524032 19447 net.cpp:380] SoftmaxWithLoss1 -> SoftmaxWithLoss1
…
I1123 11:43:16.550622 19447 net.cpp:51] Initializing net from parameters: 
state {
  phase: TEST
}
layer {
  name: "Data1"
  type: "Data"
  top: "Data1"
  top: "label"
  include {
    phase: TEST
  }
  transform_param {
    mirror: false
    crop_size: 224
    mean_file: "/home/nssg/unclezhannssg/Downloads/anzhuangcaffe/caffe-master/examples/myfilen/DenseNet13/mean.binaryproto"
  }
  data_param {
    source: "/home/nssg/unclezhannssg/Downloads/anzhuangcaffe/caffe-master/examples/myfilen/DenseNet13/img_val_lmdb"
    batch_size: 3
    backend: LMDB
  }
}
layer {
  name: "Convolution1_3x3"
  type: "Convolution"
  bottom: "Data1"
  top: "Convolution1_3x3"
  convolution_param {
    num_output: 16
    bias_term: false
    pad: 1
    kernel_size: 3
    stride: 2
    weight_filler {
      type: "msra"
    }
    bias_filler {
      type: "constant"
    }
  }
}
layer {
  name: "Convolution1"
  type: "Convolution"
  bottom: "Convolution1_3x3"
  top: "Convolution1"
  convolution_param {
    num_output: 16
    bias_term: false
    pad: 1
    kernel_size: 3
    stride: 2
    weight_filler {
      type: "msra"
    }
    bias_filler {
      type: "constant"
    }
  }
}
layer {
  name: "BatchNorm1"
  type: "BatchNorm"
  bottom: "Convolution1"
  top: "BatchNorm1"
  batch_norm_param {
    use_global_stats: false
  }
}
layer {
  name: "Scale1"
  type: "Scale"
  bottom: "BatchNorm1"
  top: "BatchNorm1"
  scale_param {
    bias_term: true
  }
}
layer {
  name: "ReLU1"
  type: "ReLU"
  bottom: "BatchNorm1"
  top: "BatchNorm1"
}
layer {
  name: "Convolution2"
  type: "Convolution"
  bottom: "BatchNorm1"
  top: "Convolution2"
  convolution_param {
    num_output: 12
    bias_term: false
    pad: 1
    kernel_size: 3
    stride: 1
    weight_filler {
      type: "msra"
    }
    bias_filler {
      type: "constant"
    }
  }
}
layer {
  name: "Dropout1"
  type: "Dropout"
  bottom: "Convolution2"
  top: "Dropout1"
  dropout_param {
    dropout_ratio: 0.2
  }
}
layer {
  name: "Concat1"
  type: "Concat"
  bottom: "Convolution1"
  bottom: "Dropout1"
  top: "Concat1"
  concat_param {
    axis: 1
  }
}
layer {
  name: "BatchNorm2"
  type: "BatchNorm"
  bottom: "Concat1"
  top: "BatchNorm2"
  scale_param {
    bias_term: true
  }
}
layer {
  name: "Scale2"
  type: "Scale"
  bottom: "BatchNorm2"
  top: "BatchNorm2"
  scale_param {
    filler {
      value: 1
    }
    bias_term: true
    bias_filler {
      value: 0
    }
  }
}
layer {
  name: "ReLU2"
  type: "ReLU"
  bottom: "BatchNorm2"
  top: "BatchNorm2"
}
layer {
  name: "Convolution3"
  type: "Convolution"
  bottom: "BatchNorm2"
  top: "Convolution3"
  convolution_param {
    num_output: 12
    bias_term: false
    pad: 1
    kernel_size: 3
    stride: 1
    weight_filler {
      type: "msra"
    }
    bias_filler {
      type: "constant"
    }
  }
}
layer {
  name: "Dropout2"
  type: "Dropout"
  bottom: "Convolution3"
  top: "Dropout2"
  dropout_param {
    dropout_ratio: 0.2
  }
}
layer {
  name: "Concat2"
  type: "Concat"
  bottom: "Concat1"
  bottom: "Dropout2"
  top: "Concat2"
  concat_param {
    axis: 1
  }
}
layer {
  name: "BatchNorm3"
  type: "BatchNorm"
  bottom: "Concat2"
  top: "BatchNorm3"
  batch_norm_param {
    use_global_stats: false
  }
}
layer {
  name: "Scale3"
  type: "Scale"
  bottom: "BatchNorm3"
  top: "BatchNorm3"
  scale_param {
    filler {
      value: 1
    }
    bias_term: true
    bias_filler {
      value: 0
    }
  }
}
layer {
  name: "ReLU3"
  type: "ReLU"
  bottom: "BatchNorm3"
  top: "BatchNorm3"
}
layer {
  name: "Convolution4"
  type: "Convolution"
  bottom: "BatchNorm3"
  top: "Convolution4"
  convolution_param {
    num_output: 12
    bias_term: false
    pad: 1
    kernel_size: 3
    stride: 1
    weight_filler {
      type: "msra"
    }
    bias_filler {
      type: "constant"
    }
  }
}
layer {
  name: "Dropout3"
  type: "Dropout"
  bottom: "Convolution4"
  top: "Dropout3"
  dropout_param {
    dropout_ratio: 0.2
  }
}
layer {
  name: "Concat3"
  type: "Concat"
  bottom: "Concat2"
  bottom: "Dropout3"
  top: "Concat3"
  concat_param {
    axis: 1
  }
}
layer {
  name: "BatchNorm4"
  type: "BatchNorm"
  bottom: "Concat3"
  top: "BatchNorm4"
  batch_norm_param {
    use_global_stats: false
  }
}
layer {
  name: "Scale4"
  type: "Scale"
  bottom: "BatchNorm4"
  top: "BatchNorm4"
  scale_param {
    filler {
      value: 1
    }
    bias_term: true
    bias_filler {
      value: 0
    }
  }
}
layer {
  name: "ReLU4"
  type: "ReLU"
  bottom: "BatchNorm4"
  top: "BatchNorm4"
}
layer {
  name: "Convolution5"
  type: "Convolution"
  bottom: "BatchNorm4"
  top: "Convolution5"
  convolution_param {
    num_output: 12
    bias_term: false
    pad: 1
    kernel_size: 3
    stride: 1
    weight_filler {
      type: "msra"
    }
    bias_filler {
      type: "constant"
    }
  }
}
layer {
  name: "Dropout4"
  type: "Dropout"
  bottom: "Convolution5"
  top: "Dropout4"
  dropout_param {
    dropout_ratio: 0.2
  }
}
layer {
  name: "Concat4"
  type: "Concat"
  bottom: "Concat3"
  bottom: "Dropout4"
  top: "Concat4"
  concat_param {
    axis: 1
  }
}
layer {
  name: "BatchNorm5"
  type: "BatchNorm"
  bottom: "Concat4"
  top: "BatchNorm5"
  batch_norm_param {
    use_global_stats: false
  }
}
layer {
  name: "Scale5"
  type: "Scale"
  bottom: "BatchNorm5"
  top: "BatchNorm5"
  scale_param {
    filler {
      value: 1
    }
    bias_term: true
    bias_filler {
      value: 0
    }
  }
}
layer {
  name: "ReLU5"
  type: "ReLU"
  bottom: "BatchNorm5"
  top: "BatchNorm5"
}
layer {
  name: "Convolution6"
  type: "Convolution"
  bottom: "BatchNorm5"
  top: "Convolution6"
  convolution_param {
    num_output: 12
    bias_term: false
    pad: 1
    kernel_size: 3
    stride: 1
    weight_filler {
      type: "msra"
    }
    bias_filler {
      type: "constant"
    }
  }
}
layer {
  name: "Dropout5"
  type: "Dropout"
  bottom: "Convolution6"
  top: "Dropout5"
  dropout_param {
    dropout_ratio: 0.2
  }
}
layer {
  name: "Concat5"
  type: "Concat"
  bottom: "Concat4"
  bottom: "Dropout5"
  top: "Concat5"
  concat_param {
    axis: 1
  }
}
layer {
  name: "BatchNorm6"
  type: "BatchNorm"
  bottom: "Concat5"
  top: "BatchNorm6"
  batch_norm_param {
    use_global_stats: false
  }
}
layer {
  name: "Scale6"
  type: "Scale"
  bottom: "BatchNorm6"
  top: "BatchNorm6"
  scale_param {
    filler {
      value: 1
    }
    bias_term: true
    bias_filler {
      value: 0
    }
  }
}
layer {
  name: "ReLU6"
  type: "ReLU"
  bottom: "BatchNorm6"
  top: "BatchNorm6"
}
layer {
  name: "Convolution7"
  type: "Convolution"
  bottom: "BatchNorm6"
  top: "Convolution7"
  convolution_param {
    num_output: 12
    bias_term: false
    pad: 1
    kernel_size: 3
    stride: 1
    weight_filler {
      type: "msra"
    }
    bias_filler {
      type: "constant"
    }
  }
}
layer {
  name: "Dropout6"
  type: "Dropout"
  bottom: "Convolution7"
  top: "Dropout6"
  dropout_param {
    dropout_ratio: 0.2
  }
}
layer {
  name: "Concat6"
  type: "Concat"
  bottom: "Concat5"
  bottom: "Dropout6"
  top: "Concat6"
  concat_param {
    axis: 1
  }
}
layer {
  name: "BatchNorm7"
  type: "BatchNorm"
  bottom: "Concat6"
  top: "BatchNorm7"
  batch_norm_param {
    use_global_stats: false
  }
}
layer {
  name: "Scale7"
  type: "Scale"
  bottom: "BatchNorm7"
  top: "BatchNorm7"
  scale_param {
    filler {
      value: 1
    }
    bias_term: true
    bias_filler {
      value: 0
    }
  }
}
layer {
  name: "ReLU7"
  type: "ReLU"
  bottom: "BatchNorm7"
  top: "BatchNorm7"
}
layer {
  name: "Convolution8"
  type: "Convolution"
  bottom: "BatchNorm7"
  top: "Convolution8"
  convolution_param {
    num_output: 12
    bias_term: false
    pad: 1
    kernel_size: 3
    stride: 1
    weight_filler {
      type: "msra"
    }
    bias_filler {
      type: "constant"
    }
  }
}
layer {
  name: "Dropout7"
  type: "Dropout"
  bottom: "Convolution8"
  top: "Dropout7"
  dropout_param {
    dropout_ratio: 0.2
  }
}
layer {
  name: "Concat7"
  type: "Concat"
  bottom: "Concat6"
  bottom: "Dropout7"
  top: "Concat7"
  concat_param {
    axis: 1
  }
}
layer {
  name: "BatchNorm8"
  type: "BatchNorm"
  bottom: "Concat7"
  top: "BatchNorm8"
  batch_norm_param {
    use_global_stats: false
  }
}
layer {
  name: "Scale8"
  type: "Scale"
  bottom: "BatchNorm8"
  top: "BatchNorm8"
  scale_param {
    filler {
      value: 1
    }
    bias_term: true
    bias_filler {
      value: 0
    }
  }
}
layer {
  name: "ReLU8"
  type: "ReLU"
  bottom: "BatchNorm8"
  top: "BatchNorm8"
}
layer {
  name: "Convolution9"
  type: "Convolution"
  bottom: "BatchNorm8"
  top: "Convolution9"
  convolution_param {
    num_output: 12
    bias_term: false
    pad: 1
    kernel_size: 3
    stride: 1
    weight_filler {
      type: "msra"
    }
    bias_filler {
      type: "constant"
    }
  }
}
layer {
  name: "Dropout8"
  type: "Dropout"
  bottom: "Convolution9"
  top: "Dropout8"
  dropout_param {
    dropout_ratio: 0.2
  }
}
layer {
  name: "Concat8"
  type: "Concat"
  bottom: "Concat7"
  bottom: "Dropout8"
  top: "Concat8"
  concat_param {
    axis: 1
  }
}
layer {
  name: "BatchNorm9"
  type: "BatchNorm"
  bottom: "Concat8"
  top: "BatchNorm9"
  batch_norm_param {
    use_global_stats: false
  }
}
layer {
  name: "Scale9"
  type: "Scale"
  bottom: "BatchNorm9"
  top: "BatchNorm9"
  scale_param {
    filler {
      value: 1
    }
    bias_term: true
    bias_filler {
      value: 0
    }
  }
}
layer {
  name: "ReLU9"
  type: "ReLU"
  bottom: "BatchNorm9"
  top: "BatchNorm9"
}
layer {
  name: "Convolution10"
  type: "Convolution"
  bottom: "BatchNorm9"
  top: "Convolution10"
  convolution_param {
    num_output: 12
    bias_term: false
    pad: 1
    kernel_size: 3
    stride: 1
    weight_filler {
      type: "msra"
    }
    bias_filler {
      type: "constant"
    }
  }
}
layer {
  name: "Dropout9"
  type: "Dropout"
  bottom: "Convolution10"
  top: "Dropout9"
  dropout_param {
    dropout_ratio: 0.2
  }
}
layer {
  name: "Concat9"
  type: "Concat"
  bottom: "Concat8"
  bottom: "Dropout9"
  top: "Concat9"
  concat_param {
    axis: 1
  }
}
layer {
  name: "BatchNorm10"
  type: "BatchNorm"
  bottom: "Concat9"
  top: "BatchNorm10"
  batch_norm_param {
    use_global_stats: false
  }
}
layer {
  name: "Scale10"
  type: "Scale"
  bottom: "BatchNorm10"
  top: "BatchNorm10"
  scale_param {
    filler {
      value: 1
    }
    bias_term: true
    bias_filler {
      value: 0
    }
  }
}
layer {
  name: "ReLU10"
  type: "ReLU"
  bottom: "BatchNorm10"
  top: "BatchNorm10"
}
layer {
  name: "Convolution11"
  type: "Convolution"
  bottom: "BatchNorm10"
  top: "Convolution11"
  convolution_param {
    num_output: 12
    bias_term: false
    pad: 1
    kernel_size: 3
    stride: 1
    weight_filler {
      type: "msra"
    }
    bias_filler {
      type: "constant"
    }
  }
}
layer {
  name: "Dropout10"
  type: "Dropout"
  bottom: "Convolution11"
  top: "Dropout10"
  dropout_param {
    dropout_ratio: 0.2
  }
}
layer {
  name: "Concat10"
  type: "Concat"
  bottom: "Concat9"
  bottom: "Dropout10"
  top: "Concat10"
  concat_param {
    axis: 1
  }
}
layer {
  name: "BatchNorm11"
  type: "BatchNorm"
  bottom: "Concat10"
  top: "BatchNorm11"
  batch_norm_param {
    use_global_stats: false
  }
}
layer {
  name: "Scale11"
  type: "Scale"
  bottom: "BatchNorm11"
  top: "BatchNorm11"
  scale_param {
    filler {
      value: 1
    }
    bias_term: true
    bias_filler {
      value: 0
    }
  }
}
layer {
  name: "ReLU11"
  type: "ReLU"
  bottom: "BatchNorm11"
  top: "BatchNorm11"
}
layer {
  name: "Convolution12"
  type: "Convolution"
  bottom: "BatchNorm11"
  top: "Convolution12"
  convolution_param {
    num_output: 12
    bias_term: false
    pad: 1
    kernel_size: 3
    stride: 1
    weight_filler {
      type: "msra"
    }
    bias_filler {
      type: "constant"
    }
  }
}
layer {
  name: "Dropout11"
  type: "Dropout"
  bottom: "Convolution12"
  top: "Dropout11"
  dropout_param {
    dropout_ratio: 0.2
  }
}
layer {
  name: "Concat11"
  type: "Concat"
  bottom: "Concat10"
  bottom: "Dropout11"
  top: "Concat11"
  concat_param {
    axis: 1
  }
}
layer {
  name: "BatchNorm12"
  type: "BatchNorm"
  bottom: "Concat11"
  top: "BatchNorm12"
  batch_norm_param {
    use_global_stats: false
  }
}
layer {
  name: "Scale12"
  type: "Scale"
  bottom: "BatchNorm12"
  top: "BatchNorm12"
  scale_param {
    filler {
      value: 1
    }
    bias_term: true
    bias_filler {
      value: 0
    }
  }
}
layer {
  name: "ReLU12"
  type: "ReLU"
  bottom: "BatchNorm12"
  top: "BatchNorm12"
}
layer {
  name: "Convolution13"
  type: "Convolution"
  bottom: "BatchNorm12"
  top: "Convolution13"
  convolution_param {
    num_output: 12
    bias_term: false
    pad: 1
    kernel_size: 3
    stride: 1
    weight_filler {
      type: "msra"
    }
    bias_filler {
      type: "constant"
    }
  }
}
layer {
  name: "Dropout12"
  type: "Dropout"
  bottom: "Convolution13"
  top: "Dropout12"
  dropout_param {
    dropout_ratio: 0.2
  }
}
layer {
  name: "Concat12"
  type: "Concat"
  bottom: "Concat11"
  bottom: "Dropout12"
  top: "Concat12"
  concat_param {
    axis: 1
  }
}
layer {
  name: "BatchNorm13"
  type: "BatchNorm"
  bottom: "Concat12"
  top: "BatchNorm13"
  batch_norm_param {
    use_global_stats: false
  }
}
layer {
  name: "Scale13"
  type: "Scale"
  bottom: "BatchNorm13"
  top: "BatchNorm13"
  scale_param {
    filler {
      value: 1
    }
    bias_term: true
    bias_filler {
      value: 0
    }
  }
}
layer {
  name: "ReLU13"
  type: "ReLU"
  bottom: "BatchNorm13"
  top: "BatchNorm13"
}
layer {
  name: "Pooling3"
  type: "Pooling"
  bottom: "BatchNorm13"
  top: "Pooling3"
  pooling_param {
    pool: AVE
    kernel_size: 3
    stride: 1
  }
}
layer {
  name: "InnerProduct1"
  type: "InnerProduct"
  bottom: "Pooling3"
  top: "InnerProduct1"
  inner_product_param {
    num_output: 16
    bias_term: true
    weight_filler {
      type: "xavier"
    }
    bias_filler {
      type: "constant"
    }
  }
}
layer {
  name: "SoftmaxWithLoss1"
  type: "SoftmaxWithLoss"
  bottom: "InnerProduct1"
  bottom: "label"
  top: "SoftmaxWithLoss1"
}
layer {
  name: "Accuracy1"
  type: "Accuracy"
  bottom: "InnerProduct1"
  bottom: "label"
  top: "Accuracy1"
  include {
    phase: TEST
  }
}
I1123 11:43:16.550935 19447 layer_factory.hpp:77] Creating layer Data1
I1123 11:43:16.582311 19447 db_lmdb.cpp:35] Opened lmdb /home/nssg/unclezhannssg/Downloads/anzhuangcaffe/caffe-master/examples/myfilen/DenseNet13/img_val_lmdb
I1123 11:43:16.587040 19447 net.cpp:84] Creating Layer Data1
I1123 11:43:16.587075 19447 net.cpp:380] Data1 -> Data1
I1123 11:43:16.587095 19447 net.cpp:380] Data1 -> label
I1123 11:43:16.587107 19447 data_transformer.cpp:25] Loading mean file from: /home/nssg/unclezhannssg/Downloads/anzhuangcaffe/caffe-master/examples/myfilen/DenseNet13/mean.binaryproto
I1123 11:43:16.617609 19447 data_layer.cpp:45] output data size: 3,3,224,224
I1123 11:43:16.627887 19447 net.cpp:122] Setting up Data1
I1123 11:43:16.627915 19447 net.cpp:129] Top shape: 3 3 224 224 (451584)
I1123 11:43:16.627923 19447 net.cpp:129] Top shape: 3 (3)
I1123 11:43:16.627925 19447 net.cpp:137] Memory required for data: 1806348
I1123 11:43:16.627933 19447 layer_factory.hpp:77] Creating layer label_Data1_1_split
I1123 11:43:16.627949 19447 net.cpp:84] Creating Layer label_Data1_1_split
I1123 11:43:16.627956 19447 net.cpp:406] label_Data1_1_split <- label
I1123 11:43:16.627967 19447 net.cpp:380] label_Data1_1_split -> label_Data1_1_split_0
I1123 11:43:16.627985 19447 net.cpp:380] label_Data1_1_split -> label_Data1_1_split_1
I1123 11:43:16.628078 19447 net.cpp:122] Setting up label_Data1_1_split
I1123 11:43:16.628089 19447 net.cpp:129] Top shape: 3 (3)
I1123 11:43:16.628093 19447 net.cpp:129] Top shape: 3 (3)
I1123 11:43:16.628096 19447 net.cpp:137] Memory required for data: 1806372
I1123 11:43:16.628100 19447 layer_factory.hpp:77] Creating layer Convolution1_3x3
I1123 11:43:16.628119 19447 net.cpp:84] Creating Layer Convolution1_3x3
I1123 11:43:16.628129 19447 net.cpp:406] Convolution1_3x3 <- Data1
I1123 11:43:16.628139 19447 net.cpp:380] Convolution1_3x3 -> Convolution1_3x3
I1123 11:43:16.631326 19447 net.cpp:122] Setting up Convolution1_3x3
I1123 11:43:16.631362 19447 net.cpp:129] Top shape: 3 16 112 112 (602112)
I1123 11:43:16.631367 19447 net.cpp:137] Memory required for data: 4214820
I1123 11:43:16.631377 19447 layer_factory.hpp:77] Creating layer Convolution1
I1123 11:43:16.631387 19447 net.cpp:84] Creating Layer Convolution1
I1123 11:43:16.631392 19447 net.cpp:406] Convolution1 <- Convolution1_3x3
I1123 11:43:16.631398 19447 net.cpp:380] Convolution1 -> Convolution1
I1123 11:43:16.633098 19447 net.cpp:122] Setting up Convolution1
I1123 11:43:16.633118 19447 net.cpp:129] Top shape: 3 16 56 56 (150528)
I1123 11:43:16.633124 19447 net.cpp:137] Memory required for data: 4816932
I1123 11:43:16.633136 19447 layer_factory.hpp:77] Creating layer Convolution1_Convolution1_0_split
I1123 11:43:16.633146 19447 net.cpp:84] Creating Layer Convolution1_Convolution1_0_split
I1123 11:43:16.633152 19447 net.cpp:406] Convolution1_Convolution1_0_split <- Convolution1
I1123 11:43:16.633160 19447 net.cpp:380] Convolution1_Convolution1_0_split -> Convolution1_Convolution1_0_split_0
I1123 11:43:16.633170 19447 net.cpp:380] Convolution1_Convolution1_0_split -> Convolution1_Convolution1_0_split_1
I1123 11:43:16.633235 19447 net.cpp:122] Setting up Convolution1_Convolution1_0_split
I1123 11:43:16.633247 19447 net.cpp:129] Top shape: 3 16 56 56 (150528)
I1123 11:43:16.633255 19447 net.cpp:129] Top shape: 3 16 56 56 (150528)
I1123 11:43:16.633258 19447 net.cpp:137] Memory required for data: 6021156
I1123 11:43:16.633263 19447 layer_factory.hpp:77] Creating layer BatchNorm1
I1123 11:43:16.633272 19447 net.cpp:84] Creating Layer BatchNorm1
I1123 11:43:16.633294 19447 net.cpp:406] BatchNorm1 <- Convolution1_Convolution1_0_split_0
I1123 11:43:16.633303 19447 net.cpp:380] BatchNorm1 -> BatchNorm1
I1123 11:43:16.633646 19447 net.cpp:122] Setting up BatchNorm1
I1123 11:43:16.633661 19447 net.cpp:129] Top shape: 3 16 56 56 (150528)
I1123 11:43:16.633666 19447 net.cpp:137] Memory required for data: 6623268
I1123 11:43:16.633684 19447 layer_factory.hpp:77] Creating layer Scale1
I1123 11:43:16.633694 19447 net.cpp:84] Creating Layer Scale1
I1123 11:43:16.633699 19447 net.cpp:406] Scale1 <- BatchNorm1
I1123 11:43:16.633707 19447 net.cpp:367] Scale1 -> BatchNorm1 (in-place)
I1123 11:43:16.633780 19447 layer_factory.hpp:77] Creating layer Scale1
I1123 11:43:16.633975 19447 net.cpp:122] Setting up Scale1
I1123 11:43:16.633987 19447 net.cpp:129] Top shape: 3 16 56 56 (150528)
I1123 11:43:16.633992 19447 net.cpp:137] Memory required for data: 7225380
I1123 11:43:16.634001 19447 layer_factory.hpp:77] Creating layer ReLU1
I1123 11:43:16.634011 19447 net.cpp:84] Creating Layer ReLU1
I1123 11:43:16.634016 19447 net.cpp:406] ReLU1 <- BatchNorm1
I1123 11:43:16.634023 19447 net.cpp:367] ReLU1 -> BatchNorm1 (in-place)
I1123 11:43:16.634956 19447 net.cpp:122] Setting up ReLU1
I1123 11:43:16.634977 19447 net.cpp:129] Top shape: 3 16 56 56 (150528)
I1123 11:43:16.634984 19447 net.cpp:137] Memory required for data: 7827492
I1123 11:43:16.634989 19447 layer_factory.hpp:77] Creating layer Convolution2
I1123 11:43:16.635005 19447 net.cpp:84] Creating Layer Convolution2
I1123 11:43:16.635011 19447 net.cpp:406] Convolution2 <- BatchNorm1
I1123 11:43:16.635022 19447 net.cpp:380] Convolution2 -> Convolution2
I1123 11:43:16.638131 19447 net.cpp:122] Setting up Convolution2
I1123 11:43:16.638145 19447 net.cpp:129] Top shape: 3 12 56 56 (112896)
I1123 11:43:16.638149 19447 net.cpp:137] Memory required for data: 8279076
I1123 11:43:16.638154 19447 layer_factory.hpp:77] Creating layer Dropout1
I1123 11:43:16.638159 19447 net.cpp:84] Creating Layer Dropout1
I1123 11:43:16.638161 19447 net.cpp:406] Dropout1 <- Convolution2
I1123 11:43:16.638166 19447 net.cpp:380] Dropout1 -> Dropout1
I1123 11:43:16.638208 19447 net.cpp:122] Setting up Dropout1
I1123 11:43:16.638216 19447 net.cpp:129] Top shape: 3 12 56 56 (112896)
I1123 11:43:16.638218 19447 net.cpp:137] Memory required for data: 8730660
I1123 11:43:16.638221 19447 layer_factory.hpp:77] Creating layer Concat1
I1123 11:43:16.638226 19447 net.cpp:84] Creating Layer Concat1
I1123 11:43:16.638242 19447 net.cpp:406] Concat1 <- Convolution1_Convolution1_0_split_1
I1123 11:43:16.638247 19447 net.cpp:406] Concat1 <- Dropout1
I1123 11:43:16.638257 19447 net.cpp:380] Concat1 -> Concat1
I1123 11:43:16.638283 19447 net.cpp:122] Setting up Concat1
I1123 11:43:16.638288 19447 net.cpp:129] Top shape: 3 28 56 56 (263424)
I1123 11:43:16.638290 19447 net.cpp:137] Memory required for data: 9784356
I1123 11:43:16.638293 19447 layer_factory.hpp:77] Creating layer Concat1_Concat1_0_split
I1123 11:43:16.638298 19447 net.cpp:84] Creating Layer Concat1_Concat1_0_split
I1123 11:43:16.638300 19447 net.cpp:406] Concat1_Concat1_0_split <- Concat1
I1123 11:43:16.638304 19447 net.cpp:380] Concat1_Concat1_0_split -> Concat1_Concat1_0_split_0
I1123 11:43:16.638309 19447 net.cpp:380] Concat1_Concat1_0_split -> Concat1_Concat1_0_split_1
I1123 11:43:16.638340 19447 net.cpp:122] Setting up Concat1_Concat1_0_split
I1123 11:43:16.638346 19447 net.cpp:129] Top shape: 3 28 56 56 (263424)
I1123 11:43:16.638350 19447 net.cpp:129] Top shape: 3 28 56 56 (263424)
I1123 11:43:16.638351 19447 net.cpp:137] Memory required for data: 11891748
I1123 11:43:16.638353 19447 layer_factory.hpp:77] Creating layer BatchNorm2
I1123 11:43:16.638358 19447 net.cpp:84] Creating Layer BatchNorm2
I1123 11:43:16.638361 19447 net.cpp:406] BatchNorm2 <- Concat1_Concat1_0_split_0
I1123 11:43:16.638365 19447 net.cpp:380] BatchNorm2 -> BatchNorm2
I1123 11:43:16.638562 19447 net.cpp:122] Setting up BatchNorm2
I1123 11:43:16.638569 19447 net.cpp:129] Top shape: 3 28 56 56 (263424)
I1123 11:43:16.638572 19447 net.cpp:137] Memory required for data: 12945444
I1123 11:43:16.638581 19447 layer_factory.hpp:77] Creating layer Scale2
I1123 11:43:16.638587 19447 net.cpp:84] Creating Layer Scale2
I1123 11:43:16.638589 19447 net.cpp:406] Scale2 <- BatchNorm2
I1123 11:43:16.638593 19447 net.cpp:367] Scale2 -> BatchNorm2 (in-place)
I1123 11:43:16.638633 19447 layer_factory.hpp:77] Creating layer Scale2
I1123 11:43:16.638743 19447 net.cpp:122] Setting up Scale2
I1123 11:43:16.638751 19447 net.cpp:129] Top shape: 3 28 56 56 (263424)
I1123 11:43:16.638753 19447 net.cpp:137] Memory required for data: 13999140
I1123 11:43:16.638757 19447 layer_factory.hpp:77] Creating layer ReLU2
I1123 11:43:16.638762 19447 net.cpp:84] Creating Layer ReLU2
I1123 11:43:16.638764 19447 net.cpp:406] ReLU2 <- BatchNorm2
I1123 11:43:16.638768 19447 net.cpp:367] ReLU2 -> BatchNorm2 (in-place)
I1123 11:43:16.638926 19447 net.cpp:122] Setting up ReLU2
I1123 11:43:16.638936 19447 net.cpp:129] Top shape: 3 28 56 56 (263424)
I1123 11:43:16.638937 19447 net.cpp:137] Memory required for data: 15052836
I1123 11:43:16.638941 19447 layer_factory.hpp:77] Creating layer Convolution3
I1123 11:43:16.638947 19447 net.cpp:84] Creating Layer Convolution3
I1123 11:43:16.638949 19447 net.cpp:406] Convolution3 <- BatchNorm2
I1123 11:43:16.638954 19447 net.cpp:380] Convolution3 -> Convolution3
I1123 11:43:16.640605 19447 net.cpp:122] Setting up Convolution3
I1123 11:43:16.640617 19447 net.cpp:129] Top shape: 3 12 56 56 (112896)
I1123 11:43:16.640620 19447 net.cpp:137] Memory required for data: 15504420
I1123 11:43:16.640625 19447 layer_factory.hpp:77] Creating layer Dropout2
I1123 11:43:16.640631 19447 net.cpp:84] Creating Layer Dropout2
I1123 11:43:16.640635 19447 net.cpp:406] Dropout2 <- Convolution3
I1123 11:43:16.640638 19447 net.cpp:380] Dropout2 -> Dropout2
I1123 11:43:16.640679 19447 net.cpp:122] Setting up Dropout2
I1123 11:43:16.640692 19447 net.cpp:129] Top shape: 3 12 56 56 (112896)
I1123 11:43:16.640697 19447 net.cpp:137] Memory required for data: 15956004
I1123 11:43:16.640702 19447 layer_factory.hpp:77] Creating layer Concat2
I1123 11:43:16.640705 19447 net.cpp:84] Creating Layer Concat2
I1123 11:43:16.640708 19447 net.cpp:406] Concat2 <- Concat1_Concat1_0_split_1
I1123 11:43:16.640712 19447 net.cpp:406] Concat2 <- Dropout2
I1123 11:43:16.640717 19447 net.cpp:380] Concat2 -> Concat2
I1123 11:43:16.640741 19447 net.cpp:122] Setting up Concat2
I1123 11:43:16.640748 19447 net.cpp:129] Top shape: 3 40 56 56 (376320)
I1123 11:43:16.640844 19447 net.cpp:137] Memory required for data: 17461284
I1123 11:43:16.640849 19447 layer_factory.hpp:77] Creating layer Concat2_Concat2_0_split
I1123 11:43:16.640854 19447 net.cpp:84] Creating Layer Concat2_Concat2_0_split
I1123 11:43:16.640856 19447 net.cpp:406] Concat2_Concat2_0_split <- Concat2
I1123 11:43:16.640861 19447 net.cpp:380] Concat2_Concat2_0_split -> Concat2_Concat2_0_split_0
I1123 11:43:16.640866 19447 net.cpp:380] Concat2_Concat2_0_split -> Concat2_Concat2_0_split_1
I1123 11:43:16.640904 19447 net.cpp:122] Setting up Concat2_Concat2_0_split
I1123 11:43:16.640911 19447 net.cpp:129] Top shape: 3 40 56 56 (376320)
I1123 11:43:16.640914 19447 net.cpp:129] Top shape: 3 40 56 56 (376320)
I1123 11:43:16.640916 19447 net.cpp:137] Memory required for data: 20471844
I1123 11:43:16.640918 19447 layer_factory.hpp:77] Creating layer BatchNorm3
I1123 11:43:16.640923 19447 net.cpp:84] Creating Layer BatchNorm3
I1123 11:43:16.640925 19447 net.cpp:406] BatchNorm3 <- Concat2_Concat2_0_split_0
I1123 11:43:16.640929 19447 net.cpp:380] BatchNorm3 -> BatchNorm3
I1123 11:43:16.641137 19447 net.cpp:122] Setting up BatchNorm3
I1123 11:43:16.641147 19447 net.cpp:129] Top shape: 3 40 56 56 (376320)
I1123 11:43:16.641151 19447 net.cpp:137] Memory required for data: 21977124
I1123 11:43:16.641165 19447 layer_factory.hpp:77] Creating layer Scale3
I1123 11:43:16.641175 19447 net.cpp:84] Creating Layer Scale3
I1123 11:43:16.641180 19447 net.cpp:406] Scale3 <- BatchNorm3
I1123 11:43:16.641185 19447 net.cpp:367] Scale3 -> BatchNorm3 (in-place)
I1123 11:43:16.641233 19447 layer_factory.hpp:77] Creating layer Scale3
I1123 11:43:16.641384 19447 net.cpp:122] Setting up Scale3
I1123 11:43:16.641394 19447 net.cpp:129] Top shape: 3 40 56 56 (376320)
I1123 11:43:16.641396 19447 net.cpp:137] Memory required for data: 23482404
I1123 11:43:16.641402 19447 layer_factory.hpp:77] Creating layer ReLU3
I1123 11:43:16.641405 19447 net.cpp:84] Creating Layer ReLU3
I1123 11:43:16.641408 19447 net.cpp:406] ReLU3 <- BatchNorm3
I1123 11:43:16.641412 19447 net.cpp:367] ReLU3 -> BatchNorm3 (in-place)
I1123 11:43:16.642055 19447 net.cpp:122] Setting up ReLU3
I1123 11:43:16.642066 19447 net.cpp:129] Top shape: 3 40 56 56 (376320)
I1123 11:43:16.642069 19447 net.cpp:137] Memory required for data: 24987684
I1123 11:43:16.642071 19447 layer_factory.hpp:77] Creating layer Convolution4
I1123 11:43:16.642079 19447 net.cpp:84] Creating Layer Convolution4
I1123 11:43:16.642082 19447 net.cpp:406] Convolution4 <- BatchNorm3
I1123 11:43:16.642099 19447 net.cpp:380] Convolution4 -> Convolution4
I1123 11:43:16.643586 19447 net.cpp:122] Setting up Convolution4
I1123 11:43:16.643599 19447 net.cpp:129] Top shape: 3 12 56 56 (112896)
I1123 11:43:16.643601 19447 net.cpp:137] Memory required for data: 25439268
I1123 11:43:16.643606 19447 layer_factory.hpp:77] Creating layer Dropout3
I1123 11:43:16.643611 19447 net.cpp:84] Creating Layer Dropout3
I1123 11:43:16.643615 19447 net.cpp:406] Dropout3 <- Convolution4
I1123 11:43:16.643618 19447 net.cpp:380] Dropout3 -> Dropout3
I1123 11:43:16.643658 19447 net.cpp:122] Setting up Dropout3
I1123 11:43:16.643666 19447 net.cpp:129] Top shape: 3 12 56 56 (112896)
I1123 11:43:16.643667 19447 net.cpp:137] Memory required for data: 25890852
I1123 11:43:16.643669 19447 layer_factory.hpp:77] Creating layer Concat3
I1123 11:43:16.643674 19447 net.cpp:84] Creating Layer Concat3
I1123 11:43:16.643676 19447 net.cpp:406] Concat3 <- Concat2_Concat2_0_split_1
I1123 11:43:16.643681 19447 net.cpp:406] Concat3 <- Dropout3
I1123 11:43:16.643684 19447 net.cpp:380] Concat3 -> Concat3
I1123 11:43:16.643707 19447 net.cpp:122] Setting up Concat3
I1123 11:43:16.643715 19447 net.cpp:129] Top shape: 3 52 56 56 (489216)
I1123 11:43:16.643718 19447 net.cpp:137] Memory required for data: 27847716
I1123 11:43:16.643719 19447 layer_factory.hpp:77] Creating layer Concat3_Concat3_0_split
I1123 11:43:16.643724 19447 net.cpp:84] Creating Layer Concat3_Concat3_0_split
I1123 11:43:16.643726 19447 net.cpp:406] Concat3_Concat3_0_split <- Concat3
I1123 11:43:16.643731 19447 net.cpp:380] Concat3_Concat3_0_split -> Concat3_Concat3_0_split_0
I1123 11:43:16.643746 19447 net.cpp:380] Concat3_Concat3_0_split -> Concat3_Concat3_0_split_1
I1123 11:43:16.643786 19447 net.cpp:122] Setting up Concat3_Concat3_0_split
I1123 11:43:16.643792 19447 net.cpp:129] Top shape: 3 52 56 56 (489216)
I1123 11:43:16.643795 19447 net.cpp:129] Top shape: 3 52 56 56 (489216)
I1123 11:43:16.643797 19447 net.cpp:137] Memory required for data: 31761444
I1123 11:43:16.643800 19447 layer_factory.hpp:77] Creating layer BatchNorm4
I1123 11:43:16.643805 19447 net.cpp:84] Creating Layer BatchNorm4
I1123 11:43:16.643806 19447 net.cpp:406] BatchNorm4 <- Concat3_Concat3_0_split_0
I1123 11:43:16.643810 19447 net.cpp:380] BatchNorm4 -> BatchNorm4
I1123 11:43:16.644201 19447 net.cpp:122] Setting up BatchNorm4
I1123 11:43:16.644210 19447 net.cpp:129] Top shape: 3 52 56 56 (489216)
I1123 11:43:16.644213 19447 net.cpp:137] Memory required for data: 33718308
I1123 11:43:16.644219 19447 layer_factory.hpp:77] Creating layer Scale4
I1123 11:43:16.644224 19447 net.cpp:84] Creating Layer Scale4
I1123 11:43:16.644227 19447 net.cpp:406] Scale4 <- BatchNorm4
I1123 11:43:16.644232 19447 net.cpp:367] Scale4 -> BatchNorm4 (in-place)
I1123 11:43:16.644270 19447 layer_factory.hpp:77] Creating layer Scale4
I1123 11:43:16.644382 19447 net.cpp:122] Setting up Scale4
I1123 11:43:16.644389 19447 net.cpp:129] Top shape: 3 52 56 56 (489216)
I1123 11:43:16.644392 19447 net.cpp:137] Memory required for data: 35675172
I1123 11:43:16.644397 19447 layer_factory.hpp:77] Creating layer ReLU4
I1123 11:43:16.644400 19447 net.cpp:84] Creating Layer ReLU4
I1123 11:43:16.644403 19447 net.cpp:406] ReLU4 <- BatchNorm4
I1123 11:43:16.644407 19447 net.cpp:367] ReLU4 -> BatchNorm4 (in-place)
I1123 11:43:16.645110 19447 net.cpp:122] Setting up ReLU4
I1123 11:43:16.645123 19447 net.cpp:129] Top shape: 3 52 56 56 (489216)
I1123 11:43:16.645125 19447 net.cpp:137] Memory required for data: 37632036
I1123 11:43:16.645128 19447 layer_factory.hpp:77] Creating layer Convolution5
I1123 11:43:16.645136 19447 net.cpp:84] Creating Layer Convolution5
I1123 11:43:16.645139 19447 net.cpp:406] Convolution5 <- BatchNorm4
I1123 11:43:16.645144 19447 net.cpp:380] Convolution5 -> Convolution5
I1123 11:43:16.646916 19447 net.cpp:122] Setting up Convolution5
I1123 11:43:16.646931 19447 net.cpp:129] Top shape: 3 12 56 56 (112896)
I1123 11:43:16.646934 19447 net.cpp:137] Memory required for data: 38083620
I1123 11:43:16.646939 19447 layer_factory.hpp:77] Creating layer Dropout4
I1123 11:43:16.646945 19447 net.cpp:84] Creating Layer Dropout4
I1123 11:43:16.646947 19447 net.cpp:406] Dropout4 <- Convolution5
I1123 11:43:16.646952 19447 net.cpp:380] Dropout4 -> Dropout4
I1123 11:43:16.646998 19447 net.cpp:122] Setting up Dropout4
I1123 11:43:16.647006 19447 net.cpp:129] Top shape: 3 12 56 56 (112896)
I1123 11:43:16.647007 19447 net.cpp:137] Memory required for data: 38535204
I1123 11:43:16.647009 19447 layer_factory.hpp:77] Creating layer Concat4
I1123 11:43:16.647014 19447 net.cpp:84] Creating Layer Concat4
I1123 11:43:16.647017 19447 net.cpp:406] Concat4 <- Concat3_Concat3_0_split_1
I1123 11:43:16.647020 19447 net.cpp:406] Concat4 <- Dropout4
I1123 11:43:16.647024 19447 net.cpp:380] Concat4 -> Concat4
I1123 11:43:16.647047 19447 net.cpp:122] Setting up Concat4
I1123 11:43:16.647053 19447 net.cpp:129] Top shape: 3 64 56 56 (602112)
I1123 11:43:16.647054 19447 net.cpp:137] Memory required for data: 40943652
I1123 11:43:16.647058 19447 layer_factory.hpp:77] Creating layer Concat4_Concat4_0_split
I1123 11:43:16.647064 19447 net.cpp:84] Creating Layer Concat4_Concat4_0_split
I1123 11:43:16.647068 19447 net.cpp:406] Concat4_Concat4_0_split <- Concat4
I1123 11:43:16.647071 19447 net.cpp:380] Concat4_Concat4_0_split -> Concat4_Concat4_0_split_0
I1123 11:43:16.647078 19447 net.cpp:380] Concat4_Concat4_0_split -> Concat4_Concat4_0_split_1
I1123 11:43:16.647120 19447 net.cpp:122] Setting up Concat4_Concat4_0_split
I1123 11:43:16.647127 19447 net.cpp:129] Top shape: 3 64 56 56 (602112)
I1123 11:43:16.647130 19447 net.cpp:129] Top shape: 3 64 56 56 (602112)
I1123 11:43:16.647143 19447 net.cpp:137] Memory required for data: 45760548
I1123 11:43:16.647146 19447 layer_factory.hpp:77] Creating layer BatchNorm5
I1123 11:43:16.647150 19447 net.cpp:84] Creating Layer BatchNorm5
I1123 11:43:16.647153 19447 net.cpp:406] BatchNorm5 <- Concat4_Concat4_0_split_0
I1123 11:43:16.647157 19447 net.cpp:380] BatchNorm5 -> BatchNorm5
I1123 11:43:16.647390 19447 net.cpp:122] Setting up BatchNorm5
I1123 11:43:16.647402 19447 net.cpp:129] Top shape: 3 64 56 56 (602112)
I1123 11:43:16.647403 19447 net.cpp:137] Memory required for data: 48168996
I1123 11:43:16.647409 19447 layer_factory.hpp:77] Creating layer Scale5
I1123 11:43:16.647415 19447 net.cpp:84] Creating Layer Scale5
I1123 11:43:16.647418 19447 net.cpp:406] Scale5 <- BatchNorm5
I1123 11:43:16.647423 19447 net.cpp:367] Scale5 -> BatchNorm5 (in-place)
I1123 11:43:16.647462 19447 layer_factory.hpp:77] Creating layer Scale5
I1123 11:43:16.647603 19447 net.cpp:122] Setting up Scale5
I1123 11:43:16.647613 19447 net.cpp:129] Top shape: 3 64 56 56 (602112)
I1123 11:43:16.647614 19447 net.cpp:137] Memory required for data: 50577444
I1123 11:43:16.647619 19447 layer_factory.hpp:77] Creating layer ReLU5
I1123 11:43:16.647624 19447 net.cpp:84] Creating Layer ReLU5
I1123 11:43:16.647626 19447 net.cpp:406] ReLU5 <- BatchNorm5
I1123 11:43:16.647629 19447 net.cpp:367] ReLU5 -> BatchNorm5 (in-place)
I1123 11:43:16.647922 19447 net.cpp:122] Setting up ReLU5
I1123 11:43:16.647933 19447 net.cpp:129] Top shape: 3 64 56 56 (602112)
I1123 11:43:16.647935 19447 net.cpp:137] Memory required for data: 52985892
I1123 11:43:16.647938 19447 layer_factory.hpp:77] Creating layer Convolution6
I1123 11:43:16.647945 19447 net.cpp:84] Creating Layer Convolution6
I1123 11:43:16.647950 19447 net.cpp:406] Convolution6 <- BatchNorm5
I1123 11:43:16.647958 19447 net.cpp:380] Convolution6 -> Convolution6
I1123 11:43:16.649799 19447 net.cpp:122] Setting up Convolution6
I1123 11:43:16.649812 19447 net.cpp:129] Top shape: 3 12 56 56 (112896)
I1123 11:43:16.649816 19447 net.cpp:137] Memory required for data: 53437476
I1123 11:43:16.649821 19447 layer_factory.hpp:77] Creating layer Dropout5
I1123 11:43:16.649826 19447 net.cpp:84] Creating Layer Dropout5
I1123 11:43:16.649828 19447 net.cpp:406] Dropout5 <- Convolution6
I1123 11:43:16.649833 19447 net.cpp:380] Dropout5 -> Dropout5
I1123 11:43:16.649874 19447 net.cpp:122] Setting up Dropout5
I1123 11:43:16.649881 19447 net.cpp:129] Top shape: 3 12 56 56 (112896)
I1123 11:43:16.649884 19447 net.cpp:137] Memory required for data: 53889060
I1123 11:43:16.649886 19447 layer_factory.hpp:77] Creating layer Concat5
I1123 11:43:16.649900 19447 net.cpp:84] Creating Layer Concat5
I1123 11:43:16.649905 19447 net.cpp:406] Concat5 <- Concat4_Concat4_0_split_1
I1123 11:43:16.649909 19447 net.cpp:406] Concat5 <- Dropout5
I1123 11:43:16.649914 19447 net.cpp:380] Concat5 -> Concat5
I1123 11:43:16.649938 19447 net.cpp:122] Setting up Concat5
I1123 11:43:16.649945 19447 net.cpp:129] Top shape: 3 76 56 56 (715008)
I1123 11:43:16.649947 19447 net.cpp:137] Memory required for data: 56749092
I1123 11:43:16.649950 19447 layer_factory.hpp:77] Creating layer Concat5_Concat5_0_split
I1123 11:43:16.649955 19447 net.cpp:84] Creating Layer Concat5_Concat5_0_split
I1123 11:43:16.649957 19447 net.cpp:406] Concat5_Concat5_0_split <- Concat5
I1123 11:43:16.649961 19447 net.cpp:380] Concat5_Concat5_0_split -> Concat5_Concat5_0_split_0
I1123 11:43:16.649966 19447 net.cpp:380] Concat5_Concat5_0_split -> Concat5_Concat5_0_split_1
I1123 11:43:16.650001 19447 net.cpp:122] Setting up Concat5_Concat5_0_split
I1123 11:43:16.650007 19447 net.cpp:129] Top shape: 3 76 56 56 (715008)
I1123 11:43:16.650009 19447 net.cpp:129] Top shape: 3 76 56 56 (715008)
I1123 11:43:16.650012 19447 net.cpp:137] Memory required for data: 62469156
I1123 11:43:16.650014 19447 layer_factory.hpp:77] Creating layer BatchNorm6
I1123 11:43:16.650019 19447 net.cpp:84] Creating Layer BatchNorm6
I1123 11:43:16.650022 19447 net.cpp:406] BatchNorm6 <- Concat5_Concat5_0_split_0
I1123 11:43:16.650038 19447 net.cpp:380] BatchNorm6 -> BatchNorm6
I1123 11:43:16.650270 19447 net.cpp:122] Setting up BatchNorm6
I1123 11:43:16.650281 19447 net.cpp:129] Top shape: 3 76 56 56 (715008)
I1123 11:43:16.650283 19447 net.cpp:137] Memory required for data: 65329188
I1123 11:43:16.650293 19447 layer_factory.hpp:77] Creating layer Scale6
I1123 11:43:16.650300 19447 net.cpp:84] Creating Layer Scale6
I1123 11:43:16.650302 19447 net.cpp:406] Scale6 <- BatchNorm6
I1123 11:43:16.650306 19447 net.cpp:367] Scale6 -> BatchNorm6 (in-place)
I1123 11:43:16.650348 19447 layer_factory.hpp:77] Creating layer Scale6
I1123 11:43:16.650466 19447 net.cpp:122] Setting up Scale6
I1123 11:43:16.650475 19447 net.cpp:129] Top shape: 3 76 56 56 (715008)
I1123 11:43:16.650476 19447 net.cpp:137] Memory required for data: 68189220
I1123 11:43:16.650481 19447 layer_factory.hpp:77] Creating layer ReLU6
I1123 11:43:16.650485 19447 net.cpp:84] Creating Layer ReLU6
I1123 11:43:16.650488 19447 net.cpp:406] ReLU6 <- BatchNorm6
I1123 11:43:16.650492 19447 net.cpp:367] ReLU6 -> BatchNorm6 (in-place)
I1123 11:43:16.651178 19447 net.cpp:122] Setting up ReLU6
I1123 11:43:16.651190 19447 net.cpp:129] Top shape: 3 76 56 56 (715008)
I1123 11:43:16.651193 19447 net.cpp:137] Memory required for data: 71049252
I1123 11:43:16.651196 19447 layer_factory.hpp:77] Creating layer Convolution7
I1123 11:43:16.651203 19447 net.cpp:84] Creating Layer Convolution7
I1123 11:43:16.651207 19447 net.cpp:406] Convolution7 <- BatchNorm6
I1123 11:43:16.651212 19447 net.cpp:380] Convolution7 -> Convolution7
I1123 11:43:16.653265 19447 net.cpp:122] Setting up Convolution7
I1123 11:43:16.653282 19447 net.cpp:129] Top shape: 3 12 56 56 (112896)
I1123 11:43:16.653285 19447 net.cpp:137] Memory required for data: 71500836
I1123 11:43:16.653290 19447 layer_factory.hpp:77] Creating layer Dropout6
I1123 11:43:16.653297 19447 net.cpp:84] Creating Layer Dropout6
I1123 11:43:16.653301 19447 net.cpp:406] Dropout6 <- Convolution7
I1123 11:43:16.653306 19447 net.cpp:380] Dropout6 -> Dropout6
I1123 11:43:16.653353 19447 net.cpp:122] Setting up Dropout6
I1123 11:43:16.653362 19447 net.cpp:129] Top shape: 3 12 56 56 (112896)
I1123 11:43:16.653363 19447 net.cpp:137] Memory required for data: 71952420
I1123 11:43:16.653367 19447 layer_factory.hpp:77] Creating layer Concat6
I1123 11:43:16.653372 19447 net.cpp:84] Creating Layer Concat6
I1123 11:43:16.653379 19447 net.cpp:406] Concat6 <- Concat5_Concat5_0_split_1
I1123 11:43:16.653384 19447 net.cpp:406] Concat6 <- Dropout6
I1123 11:43:16.653389 19447 net.cpp:380] Concat6 -> Concat6
I1123 11:43:16.653415 19447 net.cpp:122] Setting up Concat6
I1123 11:43:16.653422 19447 net.cpp:129] Top shape: 3 88 56 56 (827904)
I1123 11:43:16.653425 19447 net.cpp:137] Memory required for data: 75264036
I1123 11:43:16.653429 19447 layer_factory.hpp:77] Creating layer Concat6_Concat6_0_split
I1123 11:43:16.653439 19447 net.cpp:84] Creating Layer Concat6_Concat6_0_split
I1123 11:43:16.653445 19447 net.cpp:406] Concat6_Concat6_0_split <- Concat6
I1123 11:43:16.653453 19447 net.cpp:380] Concat6_Concat6_0_split -> Concat6_Concat6_0_split_0
I1123 11:43:16.653462 19447 net.cpp:380] Concat6_Concat6_0_split -> Concat6_Concat6_0_split_1
I1123 11:43:16.653532 19447 net.cpp:122] Setting up Concat6_Concat6_0_split
I1123 11:43:16.653547 19447 net.cpp:129] Top shape: 3 88 56 56 (827904)
I1123 11:43:16.653555 19447 net.cpp:129] Top shape: 3 88 56 56 (827904)
I1123 11:43:16.653559 19447 net.cpp:137] Memory required for data: 81887268
I1123 11:43:16.653563 19447 layer_factory.hpp:77] Creating layer BatchNorm7
I1123 11:43:16.653570 19447 net.cpp:84] Creating Layer BatchNorm7
I1123 11:43:16.653573 19447 net.cpp:406] BatchNorm7 <- Concat6_Concat6_0_split_0
I1123 11:43:16.653579 19447 net.cpp:380] BatchNorm7 -> BatchNorm7
I1123 11:43:16.653802 19447 net.cpp:122] Setting up BatchNorm7
I1123 11:43:16.653811 19447 net.cpp:129] Top shape: 3 88 56 56 (827904)
I1123 11:43:16.653813 19447 net.cpp:137] Memory required for data: 85198884
I1123 11:43:16.653820 19447 layer_factory.hpp:77] Creating layer Scale7
I1123 11:43:16.653836 19447 net.cpp:84] Creating Layer Scale7
I1123 11:43:16.653838 19447 net.cpp:406] Scale7 <- BatchNorm7
I1123 11:43:16.653842 19447 net.cpp:367] Scale7 -> BatchNorm7 (in-place)
I1123 11:43:16.653887 19447 layer_factory.hpp:77] Creating layer Scale7
I1123 11:43:16.654011 19447 net.cpp:122] Setting up Scale7
I1123 11:43:16.654019 19447 net.cpp:129] Top shape: 3 88 56 56 (827904)
I1123 11:43:16.654021 19447 net.cpp:137] Memory required for data: 88510500
I1123 11:43:16.654036 19447 layer_factory.hpp:77] Creating layer ReLU7
I1123 11:43:16.654040 19447 net.cpp:84] Creating Layer ReLU7
I1123 11:43:16.654043 19447 net.cpp:406] ReLU7 <- BatchNorm7
I1123 11:43:16.654049 19447 net.cpp:367] ReLU7 -> BatchNorm7 (in-place)
I1123 11:43:16.654703 19447 net.cpp:122] Setting up ReLU7
I1123 11:43:16.654716 19447 net.cpp:129] Top shape: 3 88 56 56 (827904)
I1123 11:43:16.654718 19447 net.cpp:137] Memory required for data: 91822116
I1123 11:43:16.654721 19447 layer_factory.hpp:77] Creating layer Convolution8
I1123 11:43:16.654731 19447 net.cpp:84] Creating Layer Convolution8
I1123 11:43:16.654736 19447 net.cpp:406] Convolution8 <- BatchNorm7
I1123 11:43:16.654741 19447 net.cpp:380] Convolution8 -> Convolution8
I1123 11:43:16.657124 19447 net.cpp:122] Setting up Convolution8
I1123 11:43:16.657135 19447 net.cpp:129] Top shape: 3 12 56 56 (112896)
I1123 11:43:16.657138 19447 net.cpp:137] Memory required for data: 92273700
I1123 11:43:16.657143 19447 layer_factory.hpp:77] Creating layer Dropout7
I1123 11:43:16.657150 19447 net.cpp:84] Creating Layer Dropout7
I1123 11:43:16.657153 19447 net.cpp:406] Dropout7 <- Convolution8
I1123 11:43:16.657158 19447 net.cpp:380] Dropout7 -> Dropout7
I1123 11:43:16.657202 19447 net.cpp:122] Setting up Dropout7
I1123 11:43:16.657208 19447 net.cpp:129] Top shape: 3 12 56 56 (112896)
I1123 11:43:16.657210 19447 net.cpp:137] Memory required for data: 92725284
I1123 11:43:16.657213 19447 layer_factory.hpp:77] Creating layer Concat7
I1123 11:43:16.657217 19447 net.cpp:84] Creating Layer Concat7
I1123 11:43:16.657220 19447 net.cpp:406] Concat7 <- Concat6_Concat6_0_split_1
I1123 11:43:16.657224 19447 net.cpp:406] Concat7 <- Dropout7
I1123 11:43:16.657228 19447 net.cpp:380] Concat7 -> Concat7
I1123 11:43:16.657251 19447 net.cpp:122] Setting up Concat7
I1123 11:43:16.657258 19447 net.cpp:129] Top shape: 3 100 56 56 (940800)
I1123 11:43:16.657260 19447 net.cpp:137] Memory required for data: 96488484
I1123 11:43:16.657263 19447 layer_factory.hpp:77] Creating layer Concat7_Concat7_0_split
I1123 11:43:16.657269 19447 net.cpp:84] Creating Layer Concat7_Concat7_0_split
I1123 11:43:16.657272 19447 net.cpp:406] Concat7_Concat7_0_split <- Concat7
I1123 11:43:16.657277 19447 net.cpp:380] Concat7_Concat7_0_split -> Concat7_Concat7_0_split_0
I1123 11:43:16.657282 19447 net.cpp:380] Concat7_Concat7_0_split -> Concat7_Concat7_0_split_1
I1123 11:43:16.657316 19447 net.cpp:122] Setting up Concat7_Concat7_0_split
I1123 11:43:16.657325 19447 net.cpp:129] Top shape: 3 100 56 56 (940800)
I1123 11:43:16.657327 19447 net.cpp:129] Top shape: 3 100 56 56 (940800)
I1123 11:43:16.657330 19447 net.cpp:137] Memory required for data: 104014884
I1123 11:43:16.657331 19447 layer_factory.hpp:77] Creating layer BatchNorm8
I1123 11:43:16.657336 19447 net.cpp:84] Creating Layer BatchNorm8
I1123 11:43:16.657340 19447 net.cpp:406] BatchNorm8 <- Concat7_Concat7_0_split_0
I1123 11:43:16.657343 19447 net.cpp:380] BatchNorm8 -> BatchNorm8
I1123 11:43:16.657637 19447 net.cpp:122] Setting up BatchNorm8
I1123 11:43:16.657650 19447 net.cpp:129] Top shape: 3 100 56 56 (940800)
I1123 11:43:16.657655 19447 net.cpp:137] Memory required for data: 107778084
I1123 11:43:16.657663 19447 layer_factory.hpp:77] Creating layer Scale8
I1123 11:43:16.657672 19447 net.cpp:84] Creating Layer Scale8
I1123 11:43:16.657677 19447 net.cpp:406] Scale8 <- BatchNorm8
I1123 11:43:16.657685 19447 net.cpp:367] Scale8 -> BatchNorm8 (in-place)
I1123 11:43:16.657742 19447 layer_factory.hpp:77] Creating layer Scale8
I1123 11:43:16.657927 19447 net.cpp:122] Setting up Scale8
I1123 11:43:16.657951 19447 net.cpp:129] Top shape: 3 100 56 56 (940800)
I1123 11:43:16.657956 19447 net.cpp:137] Memory required for data: 111541284
I1123 11:43:16.657963 19447 layer_factory.hpp:77] Creating layer ReLU8
I1123 11:43:16.657970 19447 net.cpp:84] Creating Layer ReLU8
I1123 11:43:16.657977 19447 net.cpp:406] ReLU8 <- BatchNorm8
I1123 11:43:16.657985 19447 net.cpp:367] ReLU8 -> BatchNorm8 (in-place)
I1123 11:43:16.658213 19447 net.cpp:122] Setting up ReLU8
I1123 11:43:16.658226 19447 net.cpp:129] Top shape: 3 100 56 56 (940800)
I1123 11:43:16.658231 19447 net.cpp:137] Memory required for data: 115304484
I1123 11:43:16.658234 19447 layer_factory.hpp:77] Creating layer Convolution9
I1123 11:43:16.658246 19447 net.cpp:84] Creating Layer Convolution9
I1123 11:43:16.658252 19447 net.cpp:406] Convolution9 <- BatchNorm8
I1123 11:43:16.658259 19447 net.cpp:380] Convolution9 -> Convolution9
I1123 11:43:16.661018 19447 net.cpp:122] Setting up Convolution9
I1123 11:43:16.661033 19447 net.cpp:129] Top shape: 3 12 56 56 (112896)
I1123 11:43:16.661037 19447 net.cpp:137] Memory required for data: 115756068
I1123 11:43:16.661044 19447 layer_factory.hpp:77] Creating layer Dropout8
I1123 11:43:16.661051 19447 net.cpp:84] Creating Layer Dropout8
I1123 11:43:16.661056 19447 net.cpp:406] Dropout8 <- Convolution9
I1123 11:43:16.661062 19447 net.cpp:380] Dropout8 -> Dropout8
I1123 11:43:16.661113 19447 net.cpp:122] Setting up Dropout8
I1123 11:43:16.661120 19447 net.cpp:129] Top shape: 3 12 56 56 (112896)
I1123 11:43:16.661123 19447 net.cpp:137] Memory required for data: 116207652
I1123 11:43:16.661125 19447 layer_factory.hpp:77] Creating layer Concat8
I1123 11:43:16.661129 19447 net.cpp:84] Creating Layer Concat8
I1123 11:43:16.661132 19447 net.cpp:406] Concat8 <- Concat7_Concat7_0_split_1
I1123 11:43:16.661136 19447 net.cpp:406] Concat8 <- Dropout8
I1123 11:43:16.661141 19447 net.cpp:380] Concat8 -> Concat8
I1123 11:43:16.661167 19447 net.cpp:122] Setting up Concat8
I1123 11:43:16.661173 19447 net.cpp:129] Top shape: 3 112 56 56 (1053696)
I1123 11:43:16.661176 19447 net.cpp:137] Memory required for data: 120422436
I1123 11:43:16.661178 19447 layer_factory.hpp:77] Creating layer Concat8_Concat8_0_split
I1123 11:43:16.661182 19447 net.cpp:84] Creating Layer Concat8_Concat8_0_split
I1123 11:43:16.661185 19447 net.cpp:406] Concat8_Concat8_0_split <- Concat8
I1123 11:43:16.661190 19447 net.cpp:380] Concat8_Concat8_0_split -> Concat8_Concat8_0_split_0
I1123 11:43:16.661195 19447 net.cpp:380] Concat8_Concat8_0_split -> Concat8_Concat8_0_split_1
I1123 11:43:16.661236 19447 net.cpp:122] Setting up Concat8_Concat8_0_split
I1123 11:43:16.661242 19447 net.cpp:129] Top shape: 3 112 56 56 (1053696)
I1123 11:43:16.661245 19447 net.cpp:129] Top shape: 3 112 56 56 (1053696)
I1123 11:43:16.661248 19447 net.cpp:137] Memory required for data: 128852004
I1123 11:43:16.661250 19447 layer_factory.hpp:77] Creating layer BatchNorm9
I1123 11:43:16.661257 19447 net.cpp:84] Creating Layer BatchNorm9
I1123 11:43:16.661259 19447 net.cpp:406] BatchNorm9 <- Concat8_Concat8_0_split_0
I1123 11:43:16.661265 19447 net.cpp:380] BatchNorm9 -> BatchNorm9
I1123 11:43:16.661530 19447 net.cpp:122] Setting up BatchNorm9
I1123 11:43:16.661541 19447 net.cpp:129] Top shape: 3 112 56 56 (1053696)
I1123 11:43:16.661543 19447 net.cpp:137] Memory required for data: 133066788
I1123 11:43:16.661550 19447 layer_factory.hpp:77] Creating layer Scale9
I1123 11:43:16.661554 19447 net.cpp:84] Creating Layer Scale9
I1123 11:43:16.661557 19447 net.cpp:406] Scale9 <- BatchNorm9
I1123 11:43:16.661563 19447 net.cpp:367] Scale9 -> BatchNorm9 (in-place)
I1123 11:43:16.661622 19447 layer_factory.hpp:77] Creating layer Scale9
I1123 11:43:16.661770 19447 net.cpp:122] Setting up Scale9
I1123 11:43:16.661779 19447 net.cpp:129] Top shape: 3 112 56 56 (1053696)
I1123 11:43:16.661782 19447 net.cpp:137] Memory required for data: 137281572
I1123 11:43:16.661788 19447 layer_factory.hpp:77] Creating layer ReLU9
I1123 11:43:16.661797 19447 net.cpp:84] Creating Layer ReLU9
I1123 11:43:16.661816 19447 net.cpp:406] ReLU9 <- BatchNorm9
I1123 11:43:16.661826 19447 net.cpp:367] ReLU9 -> BatchNorm9 (in-place)
I1123 11:43:16.662518 19447 net.cpp:122] Setting up ReLU9
I1123 11:43:16.662529 19447 net.cpp:129] Top shape: 3 112 56 56 (1053696)
I1123 11:43:16.662531 19447 net.cpp:137] Memory required for data: 141496356
I1123 11:43:16.662535 19447 layer_factory.hpp:77] Creating layer Convolution10
I1123 11:43:16.662557 19447 net.cpp:84] Creating Layer Convolution10
I1123 11:43:16.662565 19447 net.cpp:406] Convolution10 <- BatchNorm9
I1123 11:43:16.662575 19447 net.cpp:380] Convolution10 -> Convolution10
I1123 11:43:16.664479 19447 net.cpp:122] Setting up Convolution10
I1123 11:43:16.664490 19447 net.cpp:129] Top shape: 3 12 56 56 (112896)
I1123 11:43:16.664494 19447 net.cpp:137] Memory required for data: 141947940
I1123 11:43:16.664499 19447 layer_factory.hpp:77] Creating layer Dropout9
I1123 11:43:16.664503 19447 net.cpp:84] Creating Layer Dropout9
I1123 11:43:16.664506 19447 net.cpp:406] Dropout9 <- Convolution10
I1123 11:43:16.664512 19447 net.cpp:380] Dropout9 -> Dropout9
I1123 11:43:16.664578 19447 net.cpp:122] Setting up Dropout9
I1123 11:43:16.664587 19447 net.cpp:129] Top shape: 3 12 56 56 (112896)
I1123 11:43:16.664589 19447 net.cpp:137] Memory required for data: 142399524
I1123 11:43:16.664593 19447 layer_factory.hpp:77] Creating layer Concat9
I1123 11:43:16.664602 19447 net.cpp:84] Creating Layer Concat9
I1123 11:43:16.664609 19447 net.cpp:406] Concat9 <- Concat8_Concat8_0_split_1
I1123 11:43:16.664615 19447 net.cpp:406] Concat9 <- Dropout9
I1123 11:43:16.664623 19447 net.cpp:380] Concat9 -> Concat9
I1123 11:43:16.664667 19447 net.cpp:122] Setting up Concat9
I1123 11:43:16.664675 19447 net.cpp:129] Top shape: 3 124 56 56 (1166592)
I1123 11:43:16.664679 19447 net.cpp:137] Memory required for data: 147065892
I1123 11:43:16.664680 19447 layer_factory.hpp:77] Creating layer Concat9_Concat9_0_split
I1123 11:43:16.664697 19447 net.cpp:84] Creating Layer Concat9_Concat9_0_split
I1123 11:43:16.664703 19447 net.cpp:406] Concat9_Concat9_0_split <- Concat9
I1123 11:43:16.664713 19447 net.cpp:380] Concat9_Concat9_0_split -> Concat9_Concat9_0_split_0
I1123 11:43:16.664726 19447 net.cpp:380] Concat9_Concat9_0_split -> Concat9_Concat9_0_split_1
I1123 11:43:16.664785 19447 net.cpp:122] Setting up Concat9_Concat9_0_split
I1123 11:43:16.664794 19447 net.cpp:129] Top shape: 3 124 56 56 (1166592)
I1123 11:43:16.664798 19447 net.cpp:129] Top shape: 3 124 56 56 (1166592)
I1123 11:43:16.664800 19447 net.cpp:137] Memory required for data: 156398628
I1123 11:43:16.664804 19447 layer_factory.hpp:77] Creating layer BatchNorm10
I1123 11:43:16.664813 19447 net.cpp:84] Creating Layer BatchNorm10
I1123 11:43:16.664819 19447 net.cpp:406] BatchNorm10 <- Concat9_Concat9_0_split_0
I1123 11:43:16.664829 19447 net.cpp:380] BatchNorm10 -> BatchNorm10
I1123 11:43:16.665067 19447 net.cpp:122] Setting up BatchNorm10
I1123 11:43:16.665076 19447 net.cpp:129] Top shape: 3 124 56 56 (1166592)
I1123 11:43:16.665079 19447 net.cpp:137] Memory required for data: 161064996
I1123 11:43:16.665088 19447 layer_factory.hpp:77] Creating layer Scale10
I1123 11:43:16.665097 19447 net.cpp:84] Creating Layer Scale10
I1123 11:43:16.665104 19447 net.cpp:406] Scale10 <- BatchNorm10
I1123 11:43:16.665113 19447 net.cpp:367] Scale10 -> BatchNorm10 (in-place)
I1123 11:43:16.665172 19447 layer_factory.hpp:77] Creating layer Scale10
I1123 11:43:16.665370 19447 net.cpp:122] Setting up Scale10
I1123 11:43:16.665381 19447 net.cpp:129] Top shape: 3 124 56 56 (1166592)
I1123 11:43:16.665383 19447 net.cpp:137] Memory required for data: 165731364
I1123 11:43:16.665390 19447 layer_factory.hpp:77] Creating layer ReLU10
I1123 11:43:16.665396 19447 net.cpp:84] Creating Layer ReLU10
I1123 11:43:16.665401 19447 net.cpp:406] ReLU10 <- BatchNorm10
I1123 11:43:16.665410 19447 net.cpp:367] ReLU10 -> BatchNorm10 (in-place)
I1123 11:43:16.666069 19447 net.cpp:122] Setting up ReLU10
I1123 11:43:16.666080 19447 net.cpp:129] Top shape: 3 124 56 56 (1166592)
I1123 11:43:16.666082 19447 net.cpp:137] Memory required for data: 170397732
I1123 11:43:16.666100 19447 layer_factory.hpp:77] Creating layer Convolution11
I1123 11:43:16.666116 19447 net.cpp:84] Creating Layer Convolution11
I1123 11:43:16.666124 19447 net.cpp:406] Convolution11 <- BatchNorm10
I1123 11:43:16.666136 19447 net.cpp:380] Convolution11 -> Convolution11
I1123 11:43:16.668438 19447 net.cpp:122] Setting up Convolution11
I1123 11:43:16.668452 19447 net.cpp:129] Top shape: 3 12 56 56 (112896)
I1123 11:43:16.668454 19447 net.cpp:137] Memory required for data: 170849316
I1123 11:43:16.668460 19447 layer_factory.hpp:77] Creating layer Dropout10
I1123 11:43:16.668468 19447 net.cpp:84] Creating Layer Dropout10
I1123 11:43:16.668475 19447 net.cpp:406] Dropout10 <- Convolution11
I1123 11:43:16.668485 19447 net.cpp:380] Dropout10 -> Dropout10
I1123 11:43:16.668553 19447 net.cpp:122] Setting up Dropout10
I1123 11:43:16.668563 19447 net.cpp:129] Top shape: 3 12 56 56 (112896)
I1123 11:43:16.668565 19447 net.cpp:137] Memory required for data: 171300900
I1123 11:43:16.668570 19447 layer_factory.hpp:77] Creating layer Concat10
I1123 11:43:16.668579 19447 net.cpp:84] Creating Layer Concat10
I1123 11:43:16.668586 19447 net.cpp:406] Concat10 <- Concat9_Concat9_0_split_1
I1123 11:43:16.668593 19447 net.cpp:406] Concat10 <- Dropout10
I1123 11:43:16.668601 19447 net.cpp:380] Concat10 -> Concat10
I1123 11:43:16.668640 19447 net.cpp:122] Setting up Concat10
I1123 11:43:16.668648 19447 net.cpp:129] Top shape: 3 136 56 56 (1279488)
I1123 11:43:16.668651 19447 net.cpp:137] Memory required for data: 176418852
I1123 11:43:16.668653 19447 layer_factory.hpp:77] Creating layer Concat10_Concat10_0_split
I1123 11:43:16.668660 19447 net.cpp:84] Creating Layer Concat10_Concat10_0_split
I1123 11:43:16.668665 19447 net.cpp:406] Concat10_Concat10_0_split <- Concat10
I1123 11:43:16.668673 19447 net.cpp:380] Concat10_Concat10_0_split -> Concat10_Concat10_0_split_0
I1123 11:43:16.668694 19447 net.cpp:380] Concat10_Concat10_0_split -> Concat10_Concat10_0_split_1
I1123 11:43:16.668750 19447 net.cpp:122] Setting up Concat10_Concat10_0_split
I1123 11:43:16.668757 19447 net.cpp:129] Top shape: 3 136 56 56 (1279488)
I1123 11:43:16.668761 19447 net.cpp:129] Top shape: 3 136 56 56 (1279488)
I1123 11:43:16.668762 19447 net.cpp:137] Memory required for data: 186654756
I1123 11:43:16.668766 19447 layer_factory.hpp:77] Creating layer BatchNorm11
I1123 11:43:16.668774 19447 net.cpp:84] Creating Layer BatchNorm11
I1123 11:43:16.668779 19447 net.cpp:406] BatchNorm11 <- Concat10_Concat10_0_split_0
I1123 11:43:16.668788 19447 net.cpp:380] BatchNorm11 -> BatchNorm11
I1123 11:43:16.669019 19447 net.cpp:122] Setting up BatchNorm11
I1123 11:43:16.669028 19447 net.cpp:129] Top shape: 3 136 56 56 (1279488)
I1123 11:43:16.669030 19447 net.cpp:137] Memory required for data: 191772708
I1123 11:43:16.669049 19447 layer_factory.hpp:77] Creating layer Scale11
I1123 11:43:16.669061 19447 net.cpp:84] Creating Layer Scale11
I1123 11:43:16.669070 19447 net.cpp:406] Scale11 <- BatchNorm11
I1123 11:43:16.669076 19447 net.cpp:367] Scale11 -> BatchNorm11 (in-place)
I1123 11:43:16.669137 19447 layer_factory.hpp:77] Creating layer Scale11
I1123 11:43:16.669296 19447 net.cpp:122] Setting up Scale11
I1123 11:43:16.669304 19447 net.cpp:129] Top shape: 3 136 56 56 (1279488)
I1123 11:43:16.669306 19447 net.cpp:137] Memory required for data: 196890660
I1123 11:43:16.669312 19447 layer_factory.hpp:77] Creating layer ReLU11
I1123 11:43:16.669322 19447 net.cpp:84] Creating Layer ReLU11
I1123 11:43:16.669328 19447 net.cpp:406] ReLU11 <- BatchNorm11
I1123 11:43:16.669335 19447 net.cpp:367] ReLU11 -> BatchNorm11 (in-place)
I1123 11:43:16.669522 19447 net.cpp:122] Setting up ReLU11
I1123 11:43:16.669531 19447 net.cpp:129] Top shape: 3 136 56 56 (1279488)
I1123 11:43:16.669534 19447 net.cpp:137] Memory required for data: 202008612
I1123 11:43:16.669538 19447 layer_factory.hpp:77] Creating layer Convolution12
I1123 11:43:16.669551 19447 net.cpp:84] Creating Layer Convolution12
I1123 11:43:16.669559 19447 net.cpp:406] Convolution12 <- BatchNorm11
I1123 11:43:16.669582 19447 net.cpp:380] Convolution12 -> Convolution12
I1123 11:43:16.671921 19447 net.cpp:122] Setting up Convolution12
I1123 11:43:16.671933 19447 net.cpp:129] Top shape: 3 12 56 56 (112896)
I1123 11:43:16.671936 19447 net.cpp:137] Memory required for data: 202460196
I1123 11:43:16.671941 19447 layer_factory.hpp:77] Creating layer Dropout11
I1123 11:43:16.671947 19447 net.cpp:84] Creating Layer Dropout11
I1123 11:43:16.671949 19447 net.cpp:406] Dropout11 <- Convolution12
I1123 11:43:16.671955 19447 net.cpp:380] Dropout11 -> Dropout11
I1123 11:43:16.672026 19447 net.cpp:122] Setting up Dropout11
I1123 11:43:16.672035 19447 net.cpp:129] Top shape: 3 12 56 56 (112896)
I1123 11:43:16.672039 19447 net.cpp:137] Memory required for data: 202911780
I1123 11:43:16.672041 19447 layer_factory.hpp:77] Creating layer Concat11
I1123 11:43:16.672049 19447 net.cpp:84] Creating Layer Concat11
I1123 11:43:16.672053 19447 net.cpp:406] Concat11 <- Concat10_Concat10_0_split_1
I1123 11:43:16.672060 19447 net.cpp:406] Concat11 <- Dropout11
I1123 11:43:16.672066 19447 net.cpp:380] Concat11 -> Concat11
I1123 11:43:16.672109 19447 net.cpp:122] Setting up Concat11
I1123 11:43:16.672117 19447 net.cpp:129] Top shape: 3 148 56 56 (1392384)
I1123 11:43:16.672119 19447 net.cpp:137] Memory required for data: 208481316
I1123 11:43:16.672122 19447 layer_factory.hpp:77] Creating layer Concat11_Concat11_0_split
I1123 11:43:16.672128 19447 net.cpp:84] Creating Layer Concat11_Concat11_0_split
I1123 11:43:16.672132 19447 net.cpp:406] Concat11_Concat11_0_split <- Concat11
I1123 11:43:16.672142 19447 net.cpp:380] Concat11_Concat11_0_split -> Concat11_Concat11_0_split_0
I1123 11:43:16.672165 19447 net.cpp:380] Concat11_Concat11_0_split -> Concat11_Concat11_0_split_1
I1123 11:43:16.672224 19447 net.cpp:122] Setting up Concat11_Concat11_0_split
I1123 11:43:16.672233 19447 net.cpp:129] Top shape: 3 148 56 56 (1392384)
I1123 11:43:16.672236 19447 net.cpp:129] Top shape: 3 148 56 56 (1392384)
I1123 11:43:16.672240 19447 net.cpp:137] Memory required for data: 219620388
I1123 11:43:16.672243 19447 layer_factory.hpp:77] Creating layer BatchNorm12
I1123 11:43:16.672250 19447 net.cpp:84] Creating Layer BatchNorm12
I1123 11:43:16.672257 19447 net.cpp:406] BatchNorm12 <- Concat11_Concat11_0_split_0
I1123 11:43:16.672266 19447 net.cpp:380] BatchNorm12 -> BatchNorm12
I1123 11:43:16.672500 19447 net.cpp:122] Setting up BatchNorm12
I1123 11:43:16.672510 19447 net.cpp:129] Top shape: 3 148 56 56 (1392384)
I1123 11:43:16.672513 19447 net.cpp:137] Memory required for data: 225189924
I1123 11:43:16.672523 19447 layer_factory.hpp:77] Creating layer Scale12
I1123 11:43:16.672531 19447 net.cpp:84] Creating Layer Scale12
I1123 11:43:16.672538 19447 net.cpp:406] Scale12 <- BatchNorm12
I1123 11:43:16.672545 19447 net.cpp:367] Scale12 -> BatchNorm12 (in-place)
I1123 11:43:16.672605 19447 layer_factory.hpp:77] Creating layer Scale12
I1123 11:43:16.672775 19447 net.cpp:122] Setting up Scale12
I1123 11:43:16.672797 19447 net.cpp:129] Top shape: 3 148 56 56 (1392384)
I1123 11:43:16.672801 19447 net.cpp:137] Memory required for data: 230759460
I1123 11:43:16.672807 19447 layer_factory.hpp:77] Creating layer ReLU12
I1123 11:43:16.672814 19447 net.cpp:84] Creating Layer ReLU12
I1123 11:43:16.672818 19447 net.cpp:406] ReLU12 <- BatchNorm12
I1123 11:43:16.672825 19447 net.cpp:367] ReLU12 -> BatchNorm12 (in-place)
I1123 11:43:16.673501 19447 net.cpp:122] Setting up ReLU12
I1123 11:43:16.673512 19447 net.cpp:129] Top shape: 3 148 56 56 (1392384)
I1123 11:43:16.673516 19447 net.cpp:137] Memory required for data: 236328996
I1123 11:43:16.673517 19447 layer_factory.hpp:77] Creating layer Convolution13
I1123 11:43:16.673527 19447 net.cpp:84] Creating Layer Convolution13
I1123 11:43:16.673529 19447 net.cpp:406] Convolution13 <- BatchNorm12
I1123 11:43:16.673535 19447 net.cpp:380] Convolution13 -> Convolution13
I1123 11:43:16.675385 19447 net.cpp:122] Setting up Convolution13
I1123 11:43:16.675397 19447 net.cpp:129] Top shape: 3 12 56 56 (112896)
I1123 11:43:16.675400 19447 net.cpp:137] Memory required for data: 236780580
I1123 11:43:16.675413 19447 layer_factory.hpp:77] Creating layer Dropout12
I1123 11:43:16.675420 19447 net.cpp:84] Creating Layer Dropout12
I1123 11:43:16.675422 19447 net.cpp:406] Dropout12 <- Convolution13
I1123 11:43:16.675429 19447 net.cpp:380] Dropout12 -> Dropout12
I1123 11:43:16.675475 19447 net.cpp:122] Setting up Dropout12
I1123 11:43:16.675483 19447 net.cpp:129] Top shape: 3 12 56 56 (112896)
I1123 11:43:16.675485 19447 net.cpp:137] Memory required for data: 237232164
I1123 11:43:16.675487 19447 layer_factory.hpp:77] Creating layer Concat12
I1123 11:43:16.675493 19447 net.cpp:84] Creating Layer Concat12
I1123 11:43:16.675496 19447 net.cpp:406] Concat12 <- Concat11_Concat11_0_split_1
I1123 11:43:16.675499 19447 net.cpp:406] Concat12 <- Dropout12
I1123 11:43:16.675503 19447 net.cpp:380] Concat12 -> Concat12
I1123 11:43:16.675529 19447 net.cpp:122] Setting up Concat12
I1123 11:43:16.675535 19447 net.cpp:129] Top shape: 3 160 56 56 (1505280)
I1123 11:43:16.675537 19447 net.cpp:137] Memory required for data: 243253284
I1123 11:43:16.675539 19447 layer_factory.hpp:77] Creating layer BatchNorm13
I1123 11:43:16.675544 19447 net.cpp:84] Creating Layer BatchNorm13
I1123 11:43:16.675546 19447 net.cpp:406] BatchNorm13 <- Concat12
I1123 11:43:16.675551 19447 net.cpp:380] BatchNorm13 -> BatchNorm13
I1123 11:43:16.675768 19447 net.cpp:122] Setting up BatchNorm13
I1123 11:43:16.675776 19447 net.cpp:129] Top shape: 3 160 56 56 (1505280)
I1123 11:43:16.675778 19447 net.cpp:137] Memory required for data: 249274404
I1123 11:43:16.675783 19447 layer_factory.hpp:77] Creating layer Scale13
I1123 11:43:16.675788 19447 net.cpp:84] Creating Layer Scale13
I1123 11:43:16.675791 19447 net.cpp:406] Scale13 <- BatchNorm13
I1123 11:43:16.675794 19447 net.cpp:367] Scale13 -> BatchNorm13 (in-place)
I1123 11:43:16.675837 19447 layer_factory.hpp:77] Creating layer Scale13
I1123 11:43:16.676409 19447 net.cpp:122] Setting up Scale13
I1123 11:43:16.676420 19447 net.cpp:129] Top shape: 3 160 56 56 (1505280)
I1123 11:43:16.676424 19447 net.cpp:137] Memory required for data: 255295524
I1123 11:43:16.676429 19447 layer_factory.hpp:77] Creating layer ReLU13
I1123 11:43:16.676434 19447 net.cpp:84] Creating Layer ReLU13
I1123 11:43:16.676436 19447 net.cpp:406] ReLU13 <- BatchNorm13
I1123 11:43:16.676440 19447 net.cpp:367] ReLU13 -> BatchNorm13 (in-place)
I1123 11:43:16.677091 19447 net.cpp:122] Setting up ReLU13
I1123 11:43:16.677103 19447 net.cpp:129] Top shape: 3 160 56 56 (1505280)
I1123 11:43:16.677105 19447 net.cpp:137] Memory required for data: 261316644
I1123 11:43:16.677109 19447 layer_factory.hpp:77] Creating layer Pooling3
I1123 11:43:16.677114 19447 net.cpp:84] Creating Layer Pooling3
I1123 11:43:16.677117 19447 net.cpp:406] Pooling3 <- BatchNorm13
I1123 11:43:16.677122 19447 net.cpp:380] Pooling3 -> Pooling3
I1123 11:43:16.677796 19447 net.cpp:122] Setting up Pooling3
I1123 11:43:16.677808 19447 net.cpp:129] Top shape: 3 160 54 54 (1399680)
I1123 11:43:16.677810 19447 net.cpp:137] Memory required for data: 266915364
I1123 11:43:16.677812 19447 layer_factory.hpp:77] Creating layer InnerProduct1
I1123 11:43:16.677819 19447 net.cpp:84] Creating Layer InnerProduct1
I1123 11:43:16.677822 19447 net.cpp:406] InnerProduct1 <- Pooling3
I1123 11:43:16.677826 19447 net.cpp:380] InnerProduct1 -> InnerProduct1
I1123 11:43:16.723093 19447 net.cpp:122] Setting up InnerProduct1
I1123 11:43:16.723121 19447 net.cpp:129] Top shape: 3 16 (48)
I1123 11:43:16.723124 19447 net.cpp:137] Memory required for data: 266915556
I1123 11:43:16.723132 19447 layer_factory.hpp:77] Creating layer InnerProduct1_InnerProduct1_0_split
I1123 11:43:16.723142 19447 net.cpp:84] Creating Layer InnerProduct1_InnerProduct1_0_split
I1123 11:43:16.723146 19447 net.cpp:406] InnerProduct1_InnerProduct1_0_split <- InnerProduct1
I1123 11:43:16.723155 19447 net.cpp:380] InnerProduct1_InnerProduct1_0_split -> InnerProduct1_InnerProduct1_0_split_0
I1123 11:43:16.723165 19447 net.cpp:380] InnerProduct1_InnerProduct1_0_split -> InnerProduct1_InnerProduct1_0_split_1
I1123 11:43:16.723240 19447 net.cpp:122] Setting up InnerProduct1_InnerProduct1_0_split
I1123 11:43:16.723245 19447 net.cpp:129] Top shape: 3 16 (48)
I1123 11:43:16.723248 19447 net.cpp:129] Top shape: 3 16 (48)
I1123 11:43:16.723250 19447 net.cpp:137] Memory required for data: 266915940
I1123 11:43:16.723253 19447 layer_factory.hpp:77] Creating layer SoftmaxWithLoss1
I1123 11:43:16.723258 19447 net.cpp:84] Creating Layer SoftmaxWithLoss1
I1123 11:43:16.723260 19447 net.cpp:406] SoftmaxWithLoss1 <- InnerProduct1_InnerProduct1_0_split_0
I1123 11:43:16.723263 19447 net.cpp:406] SoftmaxWithLoss1 <- label_Data1_1_split_0
…
